IA/best_model.pth (torch, 6696 bytes, 4 tensors)

fc1.weight f4 [128, 6]
0.058554836 -0.069252424 0.095380925 0.1565845 -0.19262128 -0.038351778 0.03221064 0.010340557
0.0538494 0.048330806 0.030085724 -0.007627271 -0.079100296 0.042522248 0.010094399 0.13009623
0.08492552 -0.13034348 0.04347205 -0.0065085315 0.016633548 -0.1085428 -0.045224667 0.119845614
0.15397981 -0.054461095 0.0674342 0.1358872 0.058570005 -0.14220746 0.12636599 0.014390487
-0.037026856 -0.13001215 0.009862773 0.011834638 0.07412282 0.11423619 0.042270605 -0.02557076
0.051872462 -0.1655778 0.105527975 0.06284508 -0.045968235 0.13500622 -0.029986689 0.008743834
-0.026711525 0.14776865 -0.06772936 0.036373414 -0.0061143413 0.17490911 -0.012682082 -0.05477671
0.007339661 -0.0057559945 0.06788115 0.11399846 -0.051476143 -0.05111696 -0.12416842 0.02018777
0.036052763 -0.023110205 -0.061875045 -0.034968324 -0.013261238 -0.119822465 0.01077615 0.023163775
0.08234475 0.058173858 -0.066202626 0.14556523 0.123307325 0.0960048 0.12930037 0.10215086
-0.013798486 -0.11239203 -0.027206436 0.0001251563 -0.04385313 -0.14315397 -0.052996814 0.012998071
0.058826365 0.017510042 -0.044531636 0.017007452 -0.05646403 0.00033967174 0.0049611256 0.01429874
0.14521113 -0.12008915 -0.06456658 -0.044264756 0.03571062 -0.02953687 -0.0038754193 0.102121085
-0.016824694 0.12863144 0.10208223 -0.016758263 -0.04141385 -0.13073173 0.08533538 0.038989596
-0.02802628 0.014087455 0.09847227 0.009381031 0.12674871 -0.092863806 0.13692647 -0.114023246
-0.041893862 -0.011532601 -0.04514975 -0.011826346 -0.0021177456 -0.07731533 -0.060944818 -0.021767199
0.066453904 0.06990741 -0.09565717 -0.065851405 -0.075981185 0.029346209 0.089662306 -0.03413032
0.08010321 0.102743626 -0.08024029 -0.15980868 -0.07874951 0.091717005 -0.09096122 0.0055710487
0.09021284 -0.025141392 0.057214007 0.17445022 0.027374234 -0.030526564 -0.081896946 -0.03642015
-0.011036585 0.0048914067 -0.0009370415 0.04765106 -0.038094997 0.09158504 0.050646894 -0.04260388
-0.1264725 -0.0113263205 -0.1465339 -0.02310878 0.053611808 0.05005991 -0.17051402 0.0022391386
-0.10231895 -0.077064335 -0.088406876 0.07499955 -0.045876697 0.13644902 0.05625855 -0.07116423
0.03782282 0.029712994 -0.0926133 -0.032773584 0.046741277 0.08680189 0.11668813 -0.17309108
0.0110242255 -0.09256029 -0.11295241 -0.030881526 0.09079219 -0.046456512 -0.024055233 0.0041355877
0.037467588 0.037984177 0.06302121 -0.10819833 0.011326435 0.13822052 0.11904449 -0.0684592
0.015966661 -0.1273377 -0.1683506 -0.17743471 -0.13792425 0.10883561 -0.18346238 -0.178539
-0.085581176 -0.0331369 0.05402253 0.07731876 -0.073047176 -0.08184922 0.029643789 -0.079137966
0.07549305 -0.019722447 -0.05275363 -0.12964457 0.049074247 -0.004125258 0.009306483 -0.07838082
-0.028811794 0.029862719 0.044559143 0.039405666 0.05031205 0.023721527 0.009853546 0.051021174
-0.013093452 0.0041635935 0.023906644 0.015869675 -0.06597479 0.055249292 0.031704158 0.0031935896
-0.075968504 -0.1601243 0.09627287 0.058165826 -0.1818062 -0.028010875 0.04934279 0.10217119
-0.1246243 -0.05080747 0.0316034 -0.06933658 0.10385011 -0.06487381 0.08086343 -0.0039003917
00000000: 32d7 6f3d 37d4 8dbd 1357 c33d b057 203e
00000010: 833e 45be c116 1dbd 4eef 033d 716b 293c
00000020: 3091 5c3d 86f6 453d 5676 f63c 30ee f9bb
00000030: 56ff a1bd cf2b 2e3d fa62 253c f237 053e
00000040: 6eed ad3d c378 05be c00f 323d 8545 d5bb
00000050: 1443 883c b04b debd 803d 39bd 9e71 f53d
00000060: e2ac 1d3e 9912 5fbd f11a 8a3d 0426 0b3e
00000070: 1ae7 6f3d d59e 11be 1666 013e 14c6 6b3c
00000080: 79a9 17bd e821 05be 7897 213c 12e6 413c
00000090: b4cd 973d aaf4 e93d f123 2d3d c579 d1bc
000000a0: 3878 543d 3a8d 29be 0d1f d83d ecb4 803d
000000b0: 3049 3cbd 123f 0a3e a5a6 f5bc 4c42 0f3c
000000c0: 21d2 dabc aa50 173e b1b5 8abd 4afc 143d
000000d0: d05a c8bb 601b 333e 82c8 4fbc 8b5d 60bd
000000e0: 8a81 f03b c89c bcbb 4605 8b3d 0678 e93d
000000f0: a6d8 52bd 0460 51bd 034c febd d260 a53c
00000100: 10ac 133d 9d51 bdbc b070 7dbd f23a 0fbd
00000110: aa45 59bc 7b65 f5bd 738e 303c f5c1 bd3c
00000120: 5da4 a83d b647 6e3d 3e95 87bd 0d0f 153e
00000130: 8d88 fc3d 2a9e c43d 5167 043e 7834 d13d
00000140: 0c13 62bc cb2d e6bd 08e0 debc 633c 0339
00000150: 579f 33bd f496 12be 3013 59bd dcf5 543c
00000160: eaf3 703d 3871 8f3c ce66 36bd 3653 8b3c
00000170: d446 67bd f815 b239 f090 a23b 4345 6a3c
00000180: 3ab2 143e 4df1 f5bd 7c3b 84bd f64e 35bd
00000190: 4d45 123d 4ef7 f1bc bffa 7dbb dc24 d13d
000001a0: f1d3 89bc f6b7 033e 7d10 d13d a048 89bc
000001b0: 92a1 29bd 8ade 05be 51c4 ae3d 8eb3 1f3d
000001c0: 5f97 e5bc 12cf 663c d4ab c93d e5b2 193c
000001d0: 6aca 013e 612f bebd 7436 0c3e 0585 e9bd
000001e0: e698 2bbd 3cf3 3cbc f2ee 38bd 4ac3 41bc
000001f0: e0c9 0abb 8057 9ebd 46a1 79bd 2051 b2bc
00000200: fc18 883d 9e2b 8f3d e8e7 c3bd 1add 86bd
00000210: 069c 9bbd 7667 f03c dfa0 b73d 3ccc 0bbd
00000220: 270d a43d 406b d23d 0555 a4bd e3a4 23be
00000230: 6c47 a1bd 20d6 bb3d e049 babd 588d b63b
00000240: 82c1 b83d 52f5 cdbc 3c59 6a3d 14a3 323e
00000250: ee3f e03c d812 fabc 96b9 a7bd 4c2d 15bd
00000260: cbd2 34bc 1848 a03b caa3 75ba c22d 433d
00000270: 8009 1cbd f090 bb3d 1e73 4f3d 6881 2ebd
00000280: 0282 01be 0892 39bc fc0c 16be a04e bdbc
00000290: 0e98 5b3d 9f0b 4d3d 3a9b 2ebe 83be 123b
000002a0: 998c d1bd e8d3 9dbd aa0e b5bd 5d99 993d
000002b0: 34e9 3bbd 4bb9 0b3e 5e6f 663d 8dbe 91bd
000002c0: 1aec 1a3d aa68 f33c 0bac bdbd 983d 06bd
000002d0: c873 3f3d 30c5 b13d 30fa ee3d ca3e 31be
000002e0: f49e 343c 4090 bdbd 9853 e7bd 41fb fcbc
000002f0: 41f1 b93d 2f49 3ebd 7b0f c5bc d383 873b
00000300: 9d77 193d 4c95 1b3d 4411 813d 1697 ddbd
00000310: 8392 393c ae89 0d3e 99cd f33d 5634 8cbd
00000320: 84cc 823c d064 02be 1a64 2cbe 72b1 35be
00000330: 043c 0dbe 34e5 de3d 90dd 3bbe edd2 36be
00000340: 2f45 afbd 8fba 07bd ba46 5d3d 4c59 9e3d
00000350: c299 95bd 90a0 a7bd 88d7 f23c 1613 a2bd
00000360: 1a9c 9a3d f890 a1bc 3114 58bd 8cc1 04be
00000370: 1402 493d 2c2d 87bb 387a 183c 2086 a0bd
00000380: b606 ecbc a9a2 f43c a683 363d d667 213d
00000390: 0214 4e3d a653 c23c c470 213c 94fb 503d
000003a0: eb85 56bc c16e 883b ded7 c33c 1f01 823c
000003b0: ca1d 87bd 154d 623d 38dc 013d 8b4b 513b
000003c0: 6095 9bbd a0f7 23be b62a c53d 4a3f 6e3d
000003d0: 682b 3abe 1077 e5bc aa1b 4a3d 213f d13d
000003e0: 063b ffbd 7e1b 50bd 9172 013d 5600 8ebd
000003f0: 5eaf d43d 8fdc 84bd ba9b a53d b79d 7fbb

fc1.bias f4 [128]
0.31140423 -0.398282 -0.28631252 -0.23211166 -0.3825431 0.24199367 0.055957496 -0.30970883
-0.1568101 -0.21371384 -0.2630663 0.15159482 -0.09821987 -0.2667809 -0.33157235 -0.31274334
-0.1601123 0.1703474 -0.063970566 -0.2685757 0.296659 0.2677701 0.36148614 0.3287604
0.20435691 0.2612242 0.25519902 -0.3364724 -0.38654804 -0.08197415 -0.12818745 0.39353776
0.05354333 -0.37017345 -0.19337109 0.10123372 -0.33942515 -0.2537582 -0.37528202 0.26951694
-0.09772608 -0.33930144 -0.13073832 -0.19891937 0.055044055 0.3098225 -0.023128659 0.2773595
0.2065059 -0.4043382 0.26294208 0.365138 -0.34370512 0.3513984 0.121920586 0.3685422
-0.090442926 0.02028191 0.20168805 0.14835536 -0.19904394 -0.018818557 -0.2609132 -0.15796876
0.26361483 -0.14210221 -0.3873864 -0.24127857 -0.10900301 0.22327828 0.10077089 -0.21391581
0.0077928603 0.2238493 0.25326294 0.006166458 -0.1830969 -0.21214126 -0.3780158 -0.3138817
-0.15889792 -0.12235072 0.13534254 -0.061056644 0.31803834 -0.06929383 0.23637605 -0.30185875
-0.34996492 -0.2645011 -0.37194598 -0.07779282 0.045288056 0.09241092 0.26637924 0.26923186
-0.047109902 0.11628908 0.22358191 0.021057189 0.081970066 -0.32536516 -0.27641165 0.043034285
-0.29749313 0.3768599 -0.26300883 0.06085378 -0.0184263 -0.24394499 0.37185377 -0.3019719
0.024891019 0.3621623 -0.12976533 -0.36017904 0.39419645 0.08229044 -0.28868976 -0.10084745
-0.14301068 -0.093162686 0.07476285 0.1879564 0.11655021 0.040519148 0.29171872 -0.32371384
00000000: 6070 9f3e 9eeb cbbe 8e97 92be aeae 6dbe
00000010: b0dc c3be 30cd 773e b033 653d 2892 9ebe
00000020: d492 20be cdd7 5abe a0b0 86be ac3b 1b3e
00000030: 8027 c9bd 8297 88be dac3 a9be e51f a0be
00000040: 7bf4 23be 8c6f 2e3e 0003 83bd c182 89be
00000050: b0e3 973e 2a19 893e b614 b93e 4853 a83e
00000060: f042 513e 2ebf 853e 72a9 823e 1c46 acbe
00000070: a0e9 c5be 10e2 a7bd 9243 03be c87d c93e
00000080: 4050 5b3d 6087 bdbe 1203 46be a053 cf3d
00000090: 22c9 adbe 98ec 81be f724 c0be 20fe 893e
000000a0: 9c24 c8bd ebb8 adbe 44e0 05be 85b1 4bbe
000000b0: e075 613d 0ea1 9e3e 5078 bdbc 1002 8e3e
000000c0: 4876 533e 6b05 cfbe 58a0 863e 5ef3 ba3e
000000d0: 1efa afbe 7eea b33e 80b1 f93d 90b1 bc3e
000000e0: 243a b9bd 4026 a63c 5087 4e3e 78ea 173e
000000f0: 2dd2 4bbe 6029 9abc 6a96 85be 90c2 21be
00000100: 86f8 863e 3e83 11be 8357 c6be bb11 77be
00000110: f83c dfbd 10a3 643e f860 ce3d bf0c 5bbe
00000120: 405b ff3b c038 653e aeab 813e 0010 ca3b
00000130: c17d 3bbe 8f3b 59be 498b c1be 1ab5 a0be
00000140: 23b6 22be 0493 fabd 3c97 0a3e 8816 7abd
00000150: ecd5 a23e ece9 8dbd 900c 723e 3b8d 9abe
00000160: 9a2e b3be b06c 87be b46f bebe d851 9fbd
00000170: f87f 393d f041 bd3d dc62 883e c2d8 893e
00000180: 50f6 40bd f828 ee3d a8f2 643e 2080 ac3c
00000190: ecdf a73d 4396 a6be d485 8dbe b844 303d
000001a0: 0551 98be c8f3 c03e 18a9 86be d041 793d
000001b0: c0f2 96bc b7cc 79be 9e63 be3e 109c 9abe
000001c0: 40e8 cb3c 566d b93e 34e1 04be 6369 b8be
000001d0: 1ed4 c93e e487 a83d 25cf 93be 1c89 cebd
000001e0: 6471 12be 14cc bebd 441d 993d a477 403e
000001f0: e0b1 ee3d 68f7 253d 285c 953e d2bd a5be

fc2.weight f4 [2, 128]
-0.02501151 -0.03970505 0.08498565 0.04160688 -0.025047638 0.022538625 -0.020530805 -0.08478789
-0.08016451 -0.0059665516 0.05631671 0.076756366 -0.07485938 -0.014573105 0.046183743 0.015291005
-0.06550545 0.05093891 0.07548026 0.06747245 0.017465256 0.08283884 -0.025861979 0.02553156
-0.06708528 0.0041130185 0.00023581088 0.007538788 0.038910396 0.0533166 -0.009655446 0.02643209
0.034621835 0.033891335 -0.0046333 -0.0076552257 -0.0009690374 -0.024363533 -0.07453874 -0.08447956
-0.0832499 0.070237316 0.043426685 0.07034301 0.038106985 0.06261208 0.018647112 0.02692265
0.045380525 0.06229139 -0.019524358 0.06404411 0.026381873 -0.06777232 -0.043313652 0.045908324
0.061319463 -0.036426086 0.015866652 0.057551764 -0.044827916 -0.0003793761 0.067749746 0.062449254
0.082759716 -0.06567559 -0.042623088 0.07192723 0.06818696 -0.056421913 0.051730342 -0.03767864
0.044027455 -0.043001197 0.01218681 0.06165778 0.008952223 -0.04684463 0.08375829 0.039968304
-0.01693578 0.046049885 -0.023201354 -0.08011611 -0.05336168 -0.036489066 0.080337755 -0.05460905
-0.058033668 -0.047928784 0.015959702 0.0063555017 0.020810008 -0.050948817 -0.032976493 -0.06996855
-0.019921958 0.061764397 0.052780233 -0.023876198 -0.0068225935 0.055468105 0.014746726 -0.048971593
0.020879328 0.03894224 0.074694596 -0.056912247 0.033021994 -0.051200632 -0.018754207 0.017648548
0.050759576 0.052764393 0.056579284 -0.028821077 -0.030216128 0.06421129 -0.054952167 -0.080813505
-0.08084227 0.0142689645 0.0045002103 0.08707788 0.02909436 0.067063265 0.083536215 0.054116614
0.0052995756 -0.04886357 -0.0553325 0.02696962 -0.07728873 -0.01531861 0.06379009 -0.04696104
-0.027634233 -0.042285006 0.033961043 0.034005605 -0.068322666 0.0034617633 -0.08534329 0.06393392
-0.020343408 0.035455644 -0.0030475631 0.07615157 -0.042207338 -0.034760885 -0.064193755 0.012360081
-0.04854318 -0.07610475 0.045745067 -0.059710853 -0.07830679 0.0763304 -0.042622 0.060253836
0.007940456 -0.057139315 -0.031198509 0.057228796 -0.016082868 0.06971558 0.042595856 0.06305782
-0.040992465 -0.0048515648 0.027429864 0.072115906 0.014353313 -0.0031495392 0.03907656 0.012925088
0.06966757 0.042504244 -0.052304883 0.012913555 -0.07375494 0.08354636 -0.026870143 -0.043140776
-0.020347528 -0.070260145 -0.013274416 0.007245593 0.015629135 -0.026146933 -0.0148718655 -0.076189786
-0.035334706 0.07824709 -0.05923889 0.0079886615 -0.044231232 0.015781939 0.020273075 0.020910777
0.081947975 -0.0051184 -0.0056971908 0.051442362 0.0014726445 0.06522661 -0.06216444 0.039921187
-0.070538 -0.03618488 0.04958015 -0.0005137399 -0.036700305 -0.02773232 0.081307985 0.04819616
0.01524207 0.06281138 0.02687554 -0.06962141 0.078158475 -0.06864194 -0.065404646 0.0007685274
0.079890974 0.08337016 0.06051167 0.087832086 0.07080112 -0.056413945 0.06307838 -0.05755763
0.042497672 -0.07545229 -0.05680955 0.06483286 0.058343925 -0.08765834 0.06520901 0.07953132
0.027320407 0.006190762 0.01303602 -0.014739461 0.08691884 0.038952447 -0.032458372 -0.0022467673
-0.015776679 -0.08406963 -0.046919577 -0.06260767 0.021774359 -0.004791379 0.043543212 -0.042443488
00000000: f0e4 ccbc c3a1 22bd f50c ae3d fa6b 2a3d
00000010: b430 cdbc eca2 b83c 3830 a8bc 46a5 adbd
00000020: 4a2d a4bd 1083 c3bb 5aac 663d 7132 9d3d
00000030: e04f 99bd 08c4 6ebc 2a2b 3d3d 2087 7a3c
00000040: b927 86bd 52a5 503d 6595 9a3d ff2e 8a3d
00000050: 4c13 8f3c 69a7 a93d 80dc d3bc 9027 d13c
00000060: 0264 89bd 80c6 863b 0044 7739 f007 f73b
00000070: 8260 1f3d 8262 5a3d e031 1ebc 1c88 d83c
00000080: a0cf 0d3d a4d1 0a3d f0d2 97bb b0d8 fabb
00000090: 0007 7eba 0896 c7bc c4a7 98bd 9f03 adbd
000000a0: ec7e aabd 95d8 8f3d 2ee0 313d ff0f 903d
000000b0: 1216 1c3d c33a 803d d4c1 983c e48c dc3c
000000c0: eee0 393d 4225 7f3d 8cf1 9fbc 8f29 833d
000000d0: cc1e d83c 37cc 8abd a869 31bd 5e0a 3c3d
000000e0: 1e2a 7b3d 8533 15bd c8fa 813c 66bb 6b3d
000000f0: 7a9d 37bd 00e7 c6b9 61c0 8a3d caca 7f3d
00000100: ed7d a93d ec80 86bd 8c95 2ebd 954e 933d
00000110: 9ba5 8b3d aa1a 67bd 32e3 533d eb54 1abd
00000120: 2256 343d 0622 30bd 30ab 473c de8c 7c3d
00000130: 58ac 123c 28e0 3fbd 7789 ab3d ceb5 233d
00000140: e8bc 8abc ce9e 3c3d c410 bebc ea13 a4bd
00000150: c791 5abd 8f75 15bd 1f88 a43d bdad 5fbd
00000160: b6b4 6dbd f950 44bd ecbd 823c d041 d03b
00000170: c079 aa3c b5af 50bd 5c12 07bd ac4b 8fbd
00000180: 6033 a3bc aafc 7c3d 1630 583d 0498 c3bc
00000190: 1090 dfbb 8632 633d 409c 713c 7096 48bd
000001a0: 200b ab3c e681 1f3d 7bf9 983d d11c 69bd
000001b0: 1242 073d c1b7 51bd 6ca2 99bc b093 903c
000001c0: 46e9 4f3d 7a1f 583d aebf 673d 2e1a ecbc
000001d0: d087 f7bc 3581 833d 8615 61bd 8d81 a5bd
000001e0: a290 a5bd 60c8 693c 8076 933b e355 b23d
000001f0: 4c57 ee3c 7758 893d 0915 ab3d 62a9 5d3d
00000200: 10a8 ad3b 2b25 48bd 55a4 62bd 64ef dc3c
00000210: 8e49 9ebd e8fa 7abc 61a4 823d 385a 40bd
00000220: 3061 e2bc 0b33 2dbd bc1a 0b3d 7649 0b3d
00000230: c1ec 8bbd c0de 623b 76c8 aebd c9ef 823d
00000240: 38a7 a6bc f039 113d a0b9 47bb 5bf5 9b3d
00000250: 9ae1 2cbd 6e61 0ebd 0478 83bd f081 4a3c
00000260: 37d5 46bd cfdc 9bbd 2e5f 3b3d 5e93 74bd
00000270: 4f5f a0bd 1d53 9c3d 6894 2ebd bacc 763d
00000280: b018 023c ea0a 6abd 0494 ffbc be68 6a3d
00000290: 38c0 83bc 0bc7 8e3d fe78 2e3d 7524 813d
000002a0: b7e7 27bd e0f9 9ebb 98b4 e03c 81b1 933d
000002b0: 282a 6b3c 8068 4ebb be0e 203d c0c3 533c
000002c0: dfad 8e3d ee18 2e3d a53d 56bd 6093 533c
000002d0: d40c 97bd 5b1a ab3d c61e dcbc 62b4 30bd
000002e0: dcaf a6bc 8de4 8fbd f07c 59bc 706c ed3b
000002f0: ac08 803c 1832 d6bc 20a9 73bc 6409 9cbd
00000300: 20bb 10bd 0340 a03d 7aa4 72bd e0e2 023c
00000310: cf2b 35bd 2049 813c b813 a63c 144d ab3c
00000320: 57d4 a73d 40b8 a7bb 80af babb 3ab5 523d
00000330: c005 c13a 8795 853d 24a0 7ebd 6684 233d
00000340: 3a76 90bd 9936 14bd 8e14 4b3d 80ac 06ba
00000350: 0f53 16bd e42e e3bc cd84 a63d 5669 453d
00000360: e0b9 793c 41a3 803d 182a dc3c ab95 8ebd
00000370: 8d11 a03d 2594 8cbd dff2 85bd 0077 493a
00000380: e19d a33d f9bd aa3d 16db 773d 4fe1 b33d
00000390: 2d00 913d 4f12 67bd 3d2f 813d 8dc1 6bbd
000003a0: 0a12 2e3d bb86 9abd 21b1 68bd 17c7 843d
000003b0: 0afa 6e3d 3786 b3bd 4d8c 853d 51e1 a23d
000003c0: 0ccf df3c e0db ca3b 0895 553c c87d 71bc
000003d0: 8102 b23d 9a8c 1f3d 12f3 04bd 803e 13bb
000003e0: 183e 81bc b32c acbd be2e 40bd 7338 80bd
000003f0: 2460 b23c 0001 9dbb 5e5a 323d 39d9 2dbd

fc2.bias f4 [2]
-0.037607823 0.088296734
00000000: a90a 1abd ebd4 b43d
