IA/best_model.pth (torch, 6696 bytes, 4 tensors)

fc1.weight f4 [128, 6]
-0.04392375 -0.024666905 -0.24629743 -0.10925451 -0.023592073 0.00813072 -0.04098262 -0.121015795
0.07822472 0.082060926 -0.1027682 0.044552904 0.03306102 -0.099611916 -0.09957044 0.01730351
-0.05883324 0.095259115 0.044217736 -0.11939094 -0.08009763 0.007402451 0.06682496 -0.084161595
-0.12862964 -0.119186185 -0.1642242 -0.05642301 -0.026036382 -0.13071147 0.037744448 0.096564524
0.07686147 -0.15806146 0.05037889 0.017549438 0.088731885 0.14022742 0.17870203 0.16606739
0.076556325 -0.17200941 0.029445658 0.09319265 -0.04592084 -0.039084114 0.09124471 0.10012889
0.09687712 -0.04205988 -0.082268596 -0.024244476 -0.06721907 -0.036143586 -0.009888366 -0.17201951
0.06810248 -0.1029796 0.07553469 -0.029259318 0.25574672 0.043156266 -0.13201626 -0.06725173
0.008558273 -0.0861371 0.039936602 0.006818379 -0.042691976 0.099050276 0.023736142 0.070941806
0.25481877 -0.0863781 0.13660261 -0.009617828 0.07936582 0.035899453 -0.0041873455 0.06999034
0.023242194 0.049883023 -0.059523858 0.01677634 0.06559698 -0.015250984 0.0703489 -0.0075129718
0.0010476084 -0.09455721 -0.058821842 -0.16023214 -0.042275637 0.11266984 -0.04098841 0.09333499
-0.014429865 0.011942943 -0.12507463 0.024123931 0.15721458 0.16638957 -0.066109404 -0.01160704
-0.022876449 -0.067422226 0.047731064 -0.11324674 0.04915236 0.14254999 0.043653466 -0.05354654
-0.015640693 -0.03420695 0.13549405 -0.11060728 0.038286597 -0.07224658 -0.04955212 0.048076525
0.14191413 -0.05914686 -0.032084405 0.07859624 -0.09050784 -0.041235138 -0.10857326 -0.1381408
-0.07851845 -0.060519606 0.014686333 -0.023114163 -0.055384368 -0.064932734 -0.065501146 0.094381765
-0.0637332 -0.017326742 -0.012401754 0.05644235 -0.00086038077 0.045946456 -0.12357703 0.2946632
0.02070739 0.03763293 0.014016049 0.13528463 0.055959903 0.13664578 0.06326655 -0.08227734
-0.010442639 0.072050154 0.059964657 0.15844098 -0.01450076 0.018155176 -0.07351089 0.05283366
0.12159154 -0.09843367 0.13373707 -0.031931944 -0.040102497 -0.21204427 0.1680511 -0.041098252
-0.05645654 0.012638091 -0.14021856 0.010484958 -0.02285623 -0.14681274 0.0412585 0.1301631
-0.15232301 0.0055144466 0.00524729 0.07101295 0.0027086642 0.058447335 -0.06615296 0.12997016
-0.0047132242 0.008792372 -0.11949895 0.06303555 0.048207458 0.16391106 -0.0025548695 0.16979146
-0.08479654 -0.06946093 -0.19316053 0.2278738 0.05880247 -0.077474914 -0.1160834 -0.19972463
0.02669307 0.057981495 -0.20446898 0.025162801 0.014032548 0.116811335 -0.031216506 0.1969828
-0.12696071 -0.19390446 0.04291986 0.063351795 -0.041803963 -0.00986534 -0.022619192 -0.038176432
-0.052319378 -0.10967754 0.0051328135 0.06981349 -0.047906533 -0.015168222 0.05521442 -0.02488849
-0.12711966 -0.20049956 0.017716486 0.07620304 -0.106667385 -0.084124446 0.11363711 0.075319394
0.07536045 -0.06572974 -0.14635827 -0.052652657 0.07078193 0.04873723 0.044931866 -0.008943716
-0.102884784 -0.07085736 0.09835254 -0.09266253 -0.10689369 0.038144566 -0.02719234 -0.0491977
0.100700326 0.05478349 0.1355567 0.020902164 0.0057030106 -0.06336522 -0.044133957 -0.05658392
00000000: 64e9 33bd 4012 cabc 6535 7cbe d4c0 dfbd
00000010: 2a44 c1bc b636 053c 64dd 27bd 21d7 f7bd
00000020: 4834 a03d 8f0f a83d 2278 d2bd 1b7d 363d
00000030: fe6a 073d 5501 ccbd 96eb cbbd 17c0 8d3c
00000040: 20fb 70bd 3617 c33d a81d 353d 3d83 f4bd
00000050: 3a0a a4bd 4290 f23b 86db 883d ea5c acbd
00000060: 7db7 03be e317 f4bd 642a 28be d01b 67bd
00000070: 404a d5bc 3ad9 05be ec99 1a3d 9fc3 c53d
00000080: 8c69 9d3d ddda 21be 185a 4e3d d7c3 8f3c
00000090: 10b9 b53d c797 0f3e aafd 363e 920d 2a3e
000000a0: 90c9 9c3d 3c23 30be 0538 f13c cadb be3d
000000b0: 7e17 3cbd aa16 20bd 82de ba3d 6010 cd3d
000000c0: 8367 c63d fb46 2cbd 707c a8bd 5a9c c6bc
000000d0: 27aa 89bd 4c0b 14bd d002 22bc e225 30be
000000e0: 5079 8b3d f8e6 d2bd eeb1 9a3d 3db1 efbc
000000f0: 3cf1 823e a0c4 303d 452f 07be 46bb 89bd
00000100: 0038 0c3c a668 b0bd 9094 233d b56c df3b
00000110: c8dd 2ebd dfda ca3d 4c72 c23c f049 913d
00000120: 9b77 823e 00e7 b0bd 8ee1 0b3e 1894 1dbc
00000130: 8c8a a23d 4e0b 133d 0036 89bb 1857 8f3d
00000140: 6a66 be3c 2452 4c3d 4acf 73bd 896e 893c
00000150: b657 863d 43df 79bc 1613 903d 602f f6bb
00000160: e84f 893a 36a7 c1bd 2cef 70bd e513 24be
00000170: 3829 2dbd 72bf e63d 77e3 27bd 6a26 bf3d
00000180: 3e6b 6cbc 55ac 433c 9013 00be 8d9f c53c
00000190: dcfc 203e 0762 2a3e 5e64 87bd 742b 3ebc
000001a0: 6467 bbbc aa14 8abd a681 433d e8ed e7bd
000001b0: fc53 493d a0f8 113e facd 323d 9e53 5bbd
000001c0: e920 80bc 961c 0cbd f4be 0a3e 1286 e2bd
000001d0: 68d2 1c3d 04f6 93bd 2af7 4abd e4eb 443d
000001e0: f051 113e fa43 72bd f06a 03bd 11f7 a03d
000001f0: 2d5c b9bd 2de6 28bd a85b debd c874 0dbe
00000200: 48ce a0bd 68e3 77bd f29e 703c ea59 bdbc
00000210: b8da 62bd 74fb 84bd 7725 86bd 3a4b c13d
00000220: 8d86 82bd d0f0 8dbc ba30 4bbc 1830 673d
00000230: 2d8b 61ba 5a32 3c3d f415 fdbd 18de 963e
00000240: 8ba2 a93c fd24 1a3d 92a3 653c 0e88 0a3e
00000250: 3636 653d dfec 0b3e e591 813d 0681 a8bd
00000260: 9a17 2bbc 088f 933d 809d 753d 5a3e 223e
00000270: 9894 6dbc 2aba 943c e18c 96bd 1c68 583d
00000280: fc04 f93d 9897 c9bd 5ff2 083e 12cb 02bd
00000290: 8442 24bd 2222 59be 9615 2c3e a456 28bd
000002a0: f93e 67bd ff0f 4f3c 7495 0fbe 1ac9 2b3c
000002b0: fd3c bbbc 1456 16be acfe 283d 7a49 053e
000002c0: 90fa 1bbe 88b2 b43b 75f1 ab3b 3d6f 913d
000002d0: d883 313b 7966 6f3d 347b 87bd e616 053e
000002e0: 6471 9abb e20d 103c debb f4bd c818 813d
000002f0: 2f75 453d 4dd8 273e 996f 27bb d0dd 2d3e
00000300: cfa9 adbd 8841 8ebd e0cb 45be c057 693e
00000310: dcda 703d 2bab 9ebd 22bd edbd 9d84 4cbe
00000320: 6dab da3c 017e 6d3d 5160 51be 3822 ce3c
00000330: c6e8 653c c83a ef3d c2b9 ffbc dcb5 493e
00000340: fd01 02be e48e 46be bccc 2f3d 96be 813d
00000350: a23a 2bbd 3ca2 21bc e24b b9bc e45e 1cbd
00000360: d84c 56bd 9e9e e0bd 2931 a83b 60fa 8e3d
00000370: a439 44bd 2284 78bc 8428 623d f2e2 cbbc
00000380: a82b 02be c24f 4dbe 2a22 913c 5710 9c3d
00000390: 6e74 dabd 7049 acbd 93ba e83d 0e41 9a3d
000003a0: 9456 9a3d 509d 86bd f1de 15be 50aa 57bd
000003b0: 1ef6 903d b1a0 473d 7a0a 383d aa88 12bc
000003c0: 42b5 d2bd aa1d 91bd 0e6d c93d dac5 bdbd
000003d0: 14eb dabd 7a3d 1c3d 78c2 debc 8783 49bd
000003e0: f93b ce3d a764 603d 60cf 0a3e 043b ab3c
000003f0: 52e0 ba3b a0c5 81bd cfc5 34bd 8ac4 67bd

fc1.bias f4 [128]
0.24769098 0.28874254 -0.2090699 0.046651244 -0.21025464 -0.37896383 -0.13469383 -0.06645489
0.14371663 -0.2263746 -0.084932595 -0.09153706 0.13517421 -0.34547043 0.18500423 -0.4008566
0.16888475 0.30698133 0.2991392 -0.19477235 0.069018275 -0.31095448 0.1938681 0.25273877
-0.3603723 0.22097361 0.34766328 0.23094761 -0.09479225 -0.057475954 -0.26189372 -0.025790691
0.40284312 -0.31967983 0.05647415 0.04316461 -0.00094366074 -0.060538143 -0.34664863 -0.03951946
0.025054872 -0.09674463 -0.15081102 0.31048346 -0.25034052 0.3967598 -0.06795192 -0.34878913
0.051680803 0.21784562 0.24794453 -0.336713 0.08101666 -0.18046309 0.4031641 0.40201247
-0.07833132 -0.3824912 0.14009261 0.31807178 0.038357764 0.07460314 0.33039176 0.22494888
-0.11977106 -0.08557987 0.26122886 -0.033613414 -0.014825076 -0.15152994 -0.3545197 -0.10012612
-0.31999466 -0.23895395 -0.106426686 -0.035901994 -0.2043123 0.028541297 -0.26342887 0.03708273
-0.037231892 0.11274201 -0.36350363 -0.11123225 -0.071530014 -0.26563266 0.39862943 -0.4023663
-0.23281904 0.18319607 0.18097007 0.30874145 -0.40217248 -0.23644045 0.088968515 -0.16498391
-0.05746174 0.36022365 0.32830572 0.35618156 -0.05611217 -0.02748254 -0.1136488 0.40791792
0.026707858 -0.1391671 0.16045636 -0.02630946 -0.19069776 -0.27508163 0.40331626 -0.25474706
0.18901974 0.13113761 -0.046353787 -0.36743802 -0.23157252 0.020582438 -0.11699316 0.09932244
-0.27437687 -0.21982227 -0.33825606 -0.32988495 0.077371955 -0.18495505 -0.16531178 -0.37692755
00000000: b4a2 7d3e 10d6 933e 6b16 56be 6015 3f3d
00000010: fe4c 57be 8c07 c2be 2eed 09be 8019 88bd
00000020: 742a 133e bece 67be 24f1 adbd c877 bbbd
00000030: 1c6b 0a3e 80e1 b0be c071 3d3e 143d cdbe
00000040: 20f0 2c3e a82c 9d3e c628 993e 6772 47be
00000050: 7459 8d3d 6d35 9fbe 5c85 463e fa66 813e
00000060: b882 b8be e846 623e ec00 b23e 887d 6c3e
00000070: 7022 c2bd e86b 6bbd ef16 86be 0047 d3bc
00000080: 7441 ce3e 13ad a3be 7051 673d 60cd 303d
00000090: 0060 77ba d8f6 77bd ee7b b1be 28df 21bd
000000a0: e03f cd3c 0c22 c6bd 346e 1abe b0f7 9e3e
000000b0: a22c 80be 1a24 cb3e 602a 8bbd 7d94 b2be
000000c0: 40af 533d ec12 5f3e 2ce5 7d3e a565 acbe
000000d0: 10ec a53d 51cb 38be 866b ce3e 94d4 cd3e
000000e0: 2c6c a0bd e3d5 c3be 7074 0f3e 4eda a23e
000000f0: 081d 1d3d 88c9 983d 1c29 a93e 0059 663e
00000100: 884a f5bd 8044 afbd cabf 853e 38ae 09bd
00000110: e0e4 72bc aa2a 1bbe 9b83 b5be ec0e cdbd
00000120: 57d6 a3be 58b0 74be 3cf6 d9bd f80d 13bd
00000130: 3e37 51be 70cf e93c 26e0 86be 10e4 173d
00000140: 7880 18bd 48e5 e63d 261d babe bccd e3bd
00000150: 547e 92bd 0101 88be 2819 cc3e f502 cebe
00000160: 1d68 6ebe c097 3b3e 3850 393e 5c13 9e3e
00000170: 8de9 cdbe 721d 72be 2035 b63d 8bf1 28be
00000180: 005d 6bbd 3c6f b83e b017 a83e 6e5d b63e
00000190: e0d5 65bd 1023 e1bc b4c0 e8bd 9eda d03e
000001a0: 70ca da3c d281 0ebe ac4e 243e f086 d7bc
000001b0: 4646 43be 80d7 8cbe 787f ce3e 356e 82be
000001c0: 648e 413e f048 063e 78dd 3dbd d620 bcbe
000001d0: 5921 6dbe 809c a83c 1c9a efbd 9069 cb3d
000001e0: 207b 8cbe 1719 61be e62f adbe aee6 a8be
000001f0: 3075 9e3d db64 3dbe 7e47 29be a6fc c0be

fc2.weight f4 [2, 128]
0.026431374 -0.06915472 -0.08772925 0.037880667 0.065281205 -0.00017298013 -0.033800993 -0.049931478
0.016110621 -0.0032444224 -0.026196267 -0.029369704 0.05720391 -0.01307407 -0.056020685 -0.08505568
-0.02500388 0.044297345 0.065709405 0.021087967 0.0025812313 0.023499884 -0.04952636 -0.01400584
-0.062001415 0.022108644 -0.03923098 -0.03891804 0.05976396 -0.08329131 -0.051701274 -0.061976306
0.04112982 -0.08412649 0.073770516 -0.015928462 0.053101905 0.061351307 -0.06632913 -0.021273702
0.047095053 0.033097364 0.08179801 0.004278213 -0.064710855 0.012406886 0.04036189 0.07914709
-0.008140534 -0.038603142 0.011650123 -0.00064312667 -0.056840744 0.05894188 -0.046889044 -0.039412983
-0.031714354 0.07021544 -0.08211954 0.08256083 0.041373722 0.030166365 0.020133667 -0.0045532063
-0.053580962 -0.08800365 0.04294131 -0.06820233 0.07771661 -0.038466606 -0.083446965 0.06772979
-0.062983036 0.01603654 -0.01617118 -0.014822654 0.0798906 0.016082436 -0.064607345 -0.0016226396
-0.08649271 0.03503082 -0.008081101 -0.022594094 -0.07112699 -0.008144677 0.01049719 0.068607025
0.009982526 -0.08196889 -0.08638794 0.037797518 0.008972034 -0.06542149 0.03884948 -0.073540464
0.042573042 0.00016707182 0.029830463 -0.06641705 -0.07896352 -0.06960163 0.07385204 -0.06483781
0.050435103 -0.03566618 0.013608374 0.013981082 0.014266297 0.041488774 0.01774142 -0.071850754
0.0109475255 -0.06535718 -0.08176966 -0.0070725456 -0.07189596 -0.044319496 0.06829556 0.056713067
0.06932237 0.052069865 -0.00018325448 -0.012888074 0.028858155 0.05363249 -0.03161039 -0.036662817
-0.05133881 0.06402195 -0.07493797 -0.02334474 -0.0029258728 0.055922396 0.060747825 -0.045560796
0.039784394 0.0041212365 0.0075697005 -0.033621237 -0.0575203 0.010758184 -0.06281102 -0.06626795
-0.0487256 0.003662929 0.015263692 -0.04620895 -0.024495639 -0.084612094 -0.032869767 0.0097510815
-0.05933958 -0.06840985 -0.009277448 0.031112298 -0.017810993 0.03465961 0.08671806 0.04058864
0.0095274225 -0.044515017 0.04699806 -0.060026288 0.081060074 0.024259016 -0.07781908 -0.015453279
-0.004021801 -0.06642078 0.019001052 0.07734171 0.01918891 -0.07499058 0.07522272 0.036355905
-0.08232498 -0.084113486 -0.06042172 -0.07386193 -0.063355364 -0.07761474 -0.020306297 -0.050563257
-0.057122435 -0.084867164 -0.053592667 -0.014717102 -0.0791181 -0.021741219 0.0031192154 0.05297304
-0.021265775 0.0120392665 0.022272125 0.014286883 -0.012463234 0.04069514 -0.06583879 -0.07321595
0.04787924 0.08797062 -0.04483194 -0.08755504 -0.053963814 -0.048673213 0.031743363 -0.075809896
0.07464508 -0.02434837 0.02494815 -0.018101215 -0.031650353 -0.037142333 0.042987503 -0.08134137
0.002435498 -0.07950205 -0.030580446 -0.01021529 -0.039327677 -0.005055681 -0.052718814 -0.073441796
0.07102599 0.08345189 0.021997474 -0.028090507 0.007779047 0.063964404 -0.06910863 -0.018152796
0.050814025 0.05553136 -0.025222644 0.029511116 -0.04269485 0.011793122 -0.056799475 -0.051869407
-0.08594611 0.0007851869 0.0048676208 0.03739079 -0.061723564 0.06297416 -0.04124047 -0.057310767
-0.04326552 -0.06830097 -0.04883158 0.076219626 -0.006677516 -0.028106418 0.051602058 -0.07551452
00000000: 9c86 d83c fda0 8dbd 65ab b3bd c228 1b3d
00000010: 27b2 853d 0062 35b9 e972 0abd f384 4cbd
00000020: 6cfa 833c 60a0 54bb 8e99 d6bc bc98 f0bc
00000030: a64e 6a3d a034 56bc f275 65bd ac31 aebd
00000040: f0d4 ccbc 2271 353d a792 863d acc0 ac3c
00000050: e029 293b d482 c03c 27dc 4abd c078 65bc
00000060: 32f5 7dbd 301d b53c aab0 20bd 8668 1fbd
00000070: 0ecb 743d a294 aabd b7c4 53bd deda 7dbd
00000080: be77 283d 824a acbd ff14 973d 687c 82bc
00000090: 6281 593d 824b 7b3d 91d7 87bd 3046 aebc
000000a0: bee6 403d 1a91 073d b785 a73d 4030 8c3b
000000b0: 2087 84bd 4046 4b3c 8252 253d df17 a23d
000000c0: e05f 05bc 541e 1ebd 28e0 3e3c 8097 28ba
000000d0: d7d1 68bd 0a6d 713d ba0e 40bd 826f 21bd
000000e0: e9e6 01bd 1dcd 8f3d 4a2e a8bd a715 a93d
000000f0: 7e77 293d 741f f73c 5cef a43c 1033 95bb
00000100: b677 5bbd 423b b4bd 3ae3 2f3d aaad 8bbd
00000110: e329 9f3d 298f 1dbd 3ee6 aabd ebb5 8a3d
00000120: 40fd 80bd 105f 833c 6c79 84bc b8da 72bc
00000130: af9d a33d 50bf 833c db50 84bd c0ae d4ba
00000140: 1723 b1bd 7a7c 0f3d 9866 04bc 4017 b9bc
00000150: 07ab 91bd 4071 05bc 68fc 2b3c d781 8c3d
00000160: c08d 233c 4edf a7bd 29ec b0bd 92d1 1a3d
00000170: 70ff 123c b4fb 85bd a220 1f3d 629c 96bd
00000180: 1261 2e3d 0030 2f39 045f f43c aa05 88bd
00000190: a0b7 a1bd 4d8b 8ebd bd3f 973d b0c9 84bd
000001a0: 0a95 4e3d b316 12bd a8f5 5e3c e810 653c
000001b0: 30bd 693c 22f0 293d 7456 913c 7d26 93bd
000001c0: 405d 333c fcd9 85bd da76 a7bd d0c0 e7bb
000001d0: 303e 93bd 5c88 35bd 8bde 8b3d f64b 683d
000001e0: e3f8 8d3d 3647 553d 0028 40b9 8028 53bc
000001f0: f067 ec3c bead 5b3d e579 01bd c02b 16bd
00000200: a548 52bd f11d 833d 1479 99bd 783d bfbc
00000210: 00c0 3fbb e20e 653d b6d2 783d f59d 3abd
00000220: f6f4 223d 700b 873b 400b f83b 6cb6 09bd
00000230: 689a 6bbd 1843 303c 10a3 80bd 7eb7 87bd
00000240: 7f94 47bd c00d 703b 9014 7a3c 9945 3dbd
00000250: 14ab c8bc 1b49 adbd 73a2 06bd 00c3 1f3c
00000260: 0f0e 73bd 771a 8cbd 7000 18bc 38df fe3c
00000270: 5ce8 91bc 3cf7 0d3d 3d99 b13d 4640 263d
00000280: e818 1c3c 6155 36bd 0a81 403d 20de 75bd
00000290: d302 a63d d8ba c63c 9c5f 9fbd c02f 7dbc
000002a0: 50c9 83bb 9e07 88bd 18a8 9b3c 5565 9e3d
000002b0: 1032 9d3c a994 99bd 5f0e 9a3d eee9 143d
000002c0: 009a a8bd b143 acbd c47c 77bd ec44 97bd
000002d0: 75c0 81bd 7af4 9ebd 6459 a6bc 6b1b 4fbd
000002e0: 37f9 69bd d6ce adbd fc83 5bbd 0020 71bc
000002f0: ac08 a2bd a41a b2bc c06b 4c3b 42fa 583d
00000300: 9035 aebc 5840 453c 0874 b63c 8813 6a3c
00000310: 9832 4cbc f2af 263d 7dd6 86bd 3ef2 95bd
00000320: 061d 443d f129 b43d b2a1 37bd 0f50 b3bd
00000330: 2909 5dbd 905d 47bd 5405 023d 3842 9bbd
00000340: 85df 983d 3c76 c7bc 1060 cc3c 0049 94bc
00000350: cda3 01bd 8f22 18bd aa13 303d 4e96 a6bd
00000360: e09c 1f3b f9d1 a2bd d883 fabc 085e 27bc
00000370: 0f16 21bd 20aa a5bb afef 57bd a768 96bd
00000380: 1376 913d d3e8 aa3d 0c34 b43c 101e e6bc
00000390: 60e7 fe3b c5ff 823d d388 8dbd 2cb5 94bc
000003a0: 5e22 503d da74 633d b89f cebc 4cc1 f13c
000003b0: cce0 2ebd f037 413c 91a6 68bd 0475 54bd
000003c0: 8404 b0bd 00d5 4d3a 9080 9f3b 1627 193d
000003d0: d9d1 7cbd 99f8 803d c4eb 28bd b2be 6abd
000003e0: 3037 31bd 61e1 8bbd 9f03 48bd 0919 9c3d
000003f0: 10cf dabb 6e3f e6bc ae5c 533d 5ba7 9abd

fc2.bias f4 [2]
0.06472989 -0.029074699
00000000: 1b91 843d 102e eebc
