IA/best_model.pth (torch, 6696 bytes, 4 tensors)

fc1.weight f4 [128, 6]
000000 ec c3 15 3e cc ea a8 bc 0b 47 bf bd a1 94 8f bd
       0.1462552 -0.020619772 -0.09339722 -0.070107706
000010 5a 53 54 3d ab ee f6 bc 52 5a 39 be 1c 9a 53 bd
       0.051837303 -0.030143103 -0.1810086 -0.051660642
000020 3f 9d 6c 3a e3 08 e5 bd d2 68 14 be 36 90 fc 3b
       0.0009026117 -0.11183336 -0.14493111 0.007707621
000030 1f 03 da 3d 5a a5 90 bd 7c 9b 13 be 63 34 e5 3d
       0.106451266 -0.07062788 -0.14414781 0.111916326
000040 fa c8 35 3d 99 0b 84 3e b6 74 e2 bb 30 81 1e bd
       0.04438112 0.25790098 -0.0069108857 -0.03869742
000050 74 dc 83 3d 88 b7 f4 bd 5a 51 49 bc 1b f8 bb bd
       0.064385325 -0.11949068 -0.012287462 -0.09178182
000060 18 2a ca bc 20 33 08 3e 2a 6b 35 bd 48 26 9b 3d
       -0.024678275 0.13300753 -0.044291653 0.07575661
000070 5e 53 02 3e e6 ad 10 bd 68 02 10 be 92 04 25 3d
       0.12727115 -0.035322092 -0.14063418 0.04028756
000080 56 d3 d4 3d c2 75 f8 3c 1b 1f 23 bc 4e 10 32 3e
       0.10391872 0.030329589 -0.009956147 0.17389032
000090 22 6a 08 be f9 3b 12 3e 5e 72 89 3d 06 53 37 3e
       -0.13321736 0.1428069 0.06711267 0.17902765
0000a0 c8 79 0c be 9e 34 25 3c 74 97 92 3c 3f 59 28 be
       -0.13718331 0.010083346 0.017894484 -0.16440295
0000b0 9a eb 87 bd 26 86 9d bb cc 09 bf 39 d6 19 02 be
       -0.06636734 -0.0048072515 0.00036437658 -0.12705168
0000c0 2f d9 bc 3d 81 98 5d 3c e5 5e 1f be d5 81 33 be
       0.09221112 0.013525129 -0.15563543 -0.17529996
0000d0 fc 45 17 bd 0f d6 85 3c ac 64 f8 3d 44 c9 04 3e
       -0.036931977 0.016337423 0.12128577 0.12967402
0000e0 8a 02 a3 3a c7 da f6 3d 11 3d 3b 3e 04 20 90 be
       0.001243667 0.12053447 0.18285014 -0.28149426
0000f0 14 ee 0b 3e 57 c7 97 bd b4 65 98 bc 34 71 6e 3d
       0.13665038 -0.07411068 -0.018603183 0.058213428
000100 85 a4 86 bd 42 07 fa bd 06 c6 96 bd ec 33 31 3b
       -0.06574348 -0.122084156 -0.07361989 0.0027039004
000110 16 10 b9 3d bc c2 17 be 35 45 a2 3c ec c8 5f bd
       0.09036271 -0.14820379 0.019808391 -0.054634973
000120 7e 5f 0a 3d 28 14 dc 3c f2 78 7d bd 62 c0 d3 3d
       0.033782475 0.02686508 -0.06188292 0.103394285
000130 67 e5 94 bb 8e 98 45 3e 9e b4 63 be 86 f6 fd bd
       -0.0045439485 0.19296476 -0.22236869 -0.12400536
000140 b7 d7 70 bd b6 86 ac 3c 98 b3 cb 3c 93 e8 98 bd
       -0.05879947 0.021060329 0.02486591 -0.07466235
000150 bf 54 a9 3c 32 00 3d 3d 6a a3 49 be 68 ff 79 3d
       0.020670293 0.046142764 -0.19691244 0.06103459
000160 f6 b7 e7 3d 92 97 32 bc 3c 25 25 3d 98 af 95 3d
       0.11314385 -0.010900395 0.040318713 0.073088825
000170 d5 d0 80 be 8a 30 4b bd 1d d8 ac 3d ca ca 9a 3d
       -0.25159326 -0.049606837 0.08439658 0.0755821
000180 90 37 e2 bc e8 0f 1c be 66 b4 a3 3d c6 2c 05 3d
       -0.027614385 -0.15240443 0.07993393 0.032513402
000190 70 28 11 3d 56 eb fc bd 31 e4 26 3b 48 47 85 bd
       0.035438955 -0.12349574 0.0025465603 -0.065077364
0001a0 d6 95 ac 3c ac 9c 6f 3e e4 9c 9a 3d a8 83 5a 3e
       0.021067541 0.2339961 0.07549456 0.21339285
0001b0 98 5f 65 bd 0a 6f 96 bd 2d eb ff 3d 82 8e 42 3c
       -0.05599937 -0.07345398 0.12496028 0.011874797
0001c0 46 4c ce bc 3e 74 80 bd 0b d3 10 be 6d 3c 92 3c
       -0.025182854 -0.062721714 -0.14143007 0.017851079
0001d0 31 30 a4 3d ee a3 ae bd 8c 0a 54 bd 88 65 65 bd
       0.08017004 -0.08527361 -0.05176787 -0.05600503
0001e0 ac 40 8b bd dc 72 84 bd 08 5a cc bc f0 8c 2e be
       -0.067994446 -0.0646722 -0.024945274 -0.17045951
0001f0 6c 82 8b 3d dc bc 19 3e 97 06 4e bd 1c 28 2e 3d
       0.068119854 0.1501345 -0.050299253 0.04251872
000200 be 02 43 3e b2 bd 04 3e a3 da 38 be d1 b6 27 bd
       0.19044015 0.12962988 -0.18052153 -0.04094583
000210 8f 56 7e bd b6 b2 3c 3d fc 3f 4f be 5f b3 0b be
       -0.062094267 0.04606887 -0.20239252 -0.13642643
000220 75 c6 36 3d cc 3f 97 3d e9 68 2f be 74 df 31 3e
       0.044622857 0.07385215 -0.17129864 0.17370397
000230 9e 87 2d be b4 10 f3 3b 2e d2 bd 3d 4b b9 af 3d
       -0.16946265 0.0074177627 0.09268604 0.08580264
000240 1a 4e a4 3b 12 2e db bd 32 e0 05 be 00 a2 71 3d
       0.0050141932 -0.107021466 -0.13073805 0.058992386
000250 07 a4 79 bb 23 6b 75 bd d7 7f 85 bd 08 62 58 3d
       -0.0038092153 -0.059916627 -0.06518524 0.052827865
000260 30 40 2f 3e 18 c6 13 3e d8 83 d5 3d dc 3e bc bd
       0.1711433 0.14431036 0.10425538 -0.09191677
000270 63 52 68 3d 4e 66 9c bd 8e 47 9f bd 48 b3 2d 3d
       0.056719195 -0.076367006 -0.0777732 0.042407304
000280 65 19 67 3d 70 d3 80 3d 91 2c b1 3d 18 74 46 3e
       0.056420702 0.062903285 0.086510785 0.19380224
000290 c1 5b ae bd 76 d8 a8 3d 72 a9 81 bc 08 05 45 3d
       -0.085135944 0.08244412 -0.015827868 0.0481005
0002a0 c1 47 7b 3d b3 dc 9b 3d 1c 8e 0f be 4c fe 4e 3e
       0.061347727 0.076104544 -0.14019054 0.20214194
0002b0 73 5d 27 be 32 b6 31 3c 6e 4b 47 3a 19 c0 22 bc
       -0.16344242 0.010846661 0.00076024875 -0.009933495
0002c0 c0 18 5d be 73 27 93 bd 1b 98 2a 3d b6 7f 94 bd
       -0.21591473 -0.07185259 0.041648965 -0.072509214
0002d0 3c 10 d7 3b 3a ca a7 3d 74 a3 0b bd 74 ae 09 3e
       0.0065632146 0.081928685 -0.034091428 0.13445455
0002e0 81 1e 0f 3e d2 61 b3 be b6 90 21 bd 94 af da bd
       0.1397648 -0.35035568 -0.039444648 -0.1067802
0002f0 cd fc 20 3e 80 da 62 3d d5 99 d1 bd a2 58 86 3e
       0.15721436 0.05538416 -0.10234419 0.26239496
000300 ba 6b a1 3d dc e5 2b 3e 2a 02 66 bb c1 0b 14 3c
       0.07881875 0.16786903 -0.0035096505 0.0090360055
000310 02 a0 14 3d 0d 8f 7f bd 95 4f 2b bd c4 0f 26 3e
       0.036285408 -0.062392283 -0.041823942 0.16216952
000320 08 47 65 3d 4d 98 26 be 37 30 52 3d b5 2d 5f bd
       0.055975944 -0.16269036 0.051315513 -0.05448695
000330 77 f2 b5 ba 9b 31 4a bd 90 8b 59 3d 94 f6 ff 3d
       -0.0013881464 -0.049363714 0.053111613 0.12498203
000340 e3 d9 a8 bd 60 dd ca 3d 90 19 06 be ac dc be 3d
       -0.082446836 0.09905505 -0.13095689 0.093194336
000350 79 9b 50 bd 48 e2 da 3d 1a 5c 0d be 12 2c 3b 3e
       -0.05092952 0.10687691 -0.13804665 0.1827853
000360 86 44 d0 3c db 04 d7 3d b8 ea b4 3d c0 e4 91 3d
       0.0254233 0.10498973 0.088338315 0.07123709
000370 c7 b5 64 be 7c b1 fa 3d dd c7 a4 bc 26 05 a7 3d
       -0.22334968 0.12240884 -0.020114833 0.08155279
000380 96 d4 07 3c dd f6 45 be 8a ea a6 3d fa 40 d1 bd
       0.0082904305 -0.19332452 0.081502035 -0.102174714
000390 99 ae 08 3d ce 41 09 3e 30 84 a1 3c 2e 06 51 3e
       0.033369634 0.13404009 0.019716352 0.20412514
0003a0 7a 17 ea 3d 22 89 12 3d c5 65 ee bd 02 48 d3 3d
       0.11430259 0.03577531 -0.11640505 0.10316469
0003b0 4c 82 84 3c 5e 11 30 bd 3c 64 a1 3b 89 0e b2 bc
       0.016175412 -0.042985313 0.004925279 -0.021735447
0003c0 21 f6 94 bd 04 bd 00 3e 27 ab 19 bd 22 c5 80 bd
       -0.07273508 0.12572104 -0.03751674 -0.062876
0003d0 00 29 13 be 50 41 0e 3e 2a e5 0b be 4b 60 34 be
       -0.14371109 0.13892102 -0.13661638 -0.17614858
0003e0 e6 83 c9 bc 15 c0 1f be ea 19 0a bd f8 f4 2b bd
       -0.024599027 -0.15600617 -0.03371612 -0.041981667
0003f0 b4 4a dc bd 29 75 86 bc be 74 8c bd 02 27 46 3e
       -0.10756436 -0.016413288 -0.06858204 0.19350818

fc1.bias f4 [128]
000000 88 b7 af 3d 74 7d 95 be 8c 93 cc bd 00 c8 c4 bd
       0.08579928 -0.29197276 -0.0998908 -0.096084595
000010 62 e8 1f be 70 d9 b3 bc 56 c7 ac be 10 3a 16 bd
       -0.15615991 -0.021954268 -0.3374583 -0.036676466
000020 4e e0 81 3e 94 26 4b 3e 8a cb 43 be 38 4b c2 3e
       0.25366443 0.19838935 -0.19120613 0.37948012
000030 c0 83 15 3c dc 6e 3d 3e e3 c9 3d be 9e 7e 90 3e
       0.00912565 0.18499321 -0.18534045 0.282216
000040 f0 4a 81 bc 80 f7 39 3b 14 ce 9f 3d ec 8d 33 3e
       -0.015782803 0.0028376281 0.07802978 0.17534608
000050 50 5d b4 3d ac 37 4e 3e a8 f7 7d 3e 24 2b 7f 3e
       0.088068604 0.20138425 0.24801505 0.249188
000060 4a 83 49 be 48 44 0f 3e 6c 08 34 3e ea e3 9e be
       -0.19678989 0.13990891 0.17581338 -0.3103326
000070 9e c0 9b 3e 10 cf 0c 3d cc 86 b9 3e d2 94 ce 3e
       0.30420393 0.034377158 0.36235654 0.40347916
000080 f4 5d 9a 3e 40 28 85 bc d4 13 be 3e e3 83 98 be
       0.30149806 -0.016254544 0.37124503 -0.29788122
000090 40 bb c7 3d d8 33 a8 3d 7a 95 87 3e 06 30 4c be
       0.09752512 0.082130134 0.2648123 -0.19940194
0000a0 66 45 c6 3e 40 9b b8 bb 4c 47 a5 3e 80 f6 19 bb
       0.38724822 -0.0056337416 0.32280958 -0.0023492873
0000b0 66 92 63 be e8 76 34 3e 60 ea 7b 3c 10 3d 8f bd
       -0.22223815 0.17623484 0.015375704 -0.069940686
0000c0 de 41 8e be 56 65 ad 3e 74 ba 35 3e ef 9e 8a be
       -0.27784628 0.33866376 0.17746907 -0.27074382
0000d0 99 85 c2 be 10 97 81 3e 24 c0 63 3e f0 98 22 3d
       -0.37992552 0.25310564 0.22241265 0.039696634
0000e0 0f 0b 6a be de 93 c8 3e a4 2d a3 3e 74 7b 85 bd
       -0.22855781 0.39175314 0.3187076 -0.065176874
0000f0 80 fd 2e bd c0 3d 7e be 1a 25 3f be 88 bc 18 be
       -0.042722225 -0.24828243 -0.18666497 -0.14915669
000100 30 1b 02 3e c0 67 e9 3c 80 da 69 3c 18 00 35 be
       0.12705684 0.028491855 0.014273286 -0.17675817
000110 fa b5 cd be 58 1e 00 3e 38 97 97 bd a4 d7 10 3e
       -0.401779 0.12511575 -0.074018896 0.1414476
000120 81 25 88 be d4 a1 b6 be 00 dc f0 3d b6 7f 6b be
       -0.26591113 -0.3567034 0.11760712 -0.22997937
000130 65 ac ab be f8 32 b0 bd 84 61 8b be 10 4c a9 be
       -0.33529964 -0.086034715 -0.27222836 -0.33065844
000140 90 21 20 be 9c ce 3f 3e 00 1d d5 bd 40 5f 62 3e
       -0.15637803 0.18731159 -0.10405922 0.22106647
000150 05 e9 7b be 4b 33 38 be 68 2f 70 3d 98 a8 13 3e
       -0.24600609 -0.17988317 0.05863896 0.14419782
000160 87 49 27 be c0 8a f5 3b 98 bc 88 3d 7e 67 ad be
       -0.16336642 0.007493347 0.066765964 -0.3386802
000170 55 e0 3b be f8 18 94 be 74 36 62 3e 6b 9d cb be
       -0.18347295 -0.289253 0.22091085 -0.39768538
000180 e0 59 38 bd 40 a6 24 3d 38 0c bc be 9c 20 57 3e
       -0.045007586 0.04019761 -0.36728072 0.21008533
000190 60 9d 4e 3d cc 5c 63 3e 20 c8 c0 bc d8 23 4d bd
       0.050443053 0.22203368 -0.023532927 -0.05008301
0001a0 50 02 ba bc fa 4b c6 3e e8 d4 3d 3e e0 96 67 3c
       -0.02270618 0.3872984 0.18538249 0.0141350925
0001b0 cc a7 46 be e2 a8 8e 3e 5f 70 b2 be 0e f7 c5 3e
       -0.19399947 0.27863222 -0.34851357 0.3866505
0001c0 80 12 f1 bc 1c cd d6 bd 10 b2 6a 3e 2c 73 8b 3d
       -0.029427767 -0.1048834 0.22919488 0.06809077
0001d0 44 88 19 3e dc c9 b3 bd 20 db 25 3e e0 bf a3 3d
       0.14993387 -0.08778736 0.16196871 0.079955816
0001e0 cc 22 53 3e e0 e2 42 3e 8c ba 9b bd a4 5f 86 3d
       0.20618743 0.19031858 -0.0760394 0.06561211
0001f0 62 d9 5a be f6 cf 90 be 34 2f 62 3e e2 6d ab 3e
       -0.21371987 -0.28283662 0.22088319 0.3348227

fc2.weight f4 [2, 128]
000000 48 d4 ca bc f8 2a 65 3c 93 66 09 bd 3b 7e b3 3d
       -0.024759427 0.013987295 -0.033545088 0.08764311
000010 80 af 75 bd f0 7f d7 bb 3c 58 d1 3c a0 bc 19 bd
       -0.059981823 -0.0065765306 0.025554769 -0.037533402
000020 70 c6 42 bc eb d7 68 bd 97 d1 18 bd 10 d5 de bb
       -0.0118881315 -0.05684654 -0.037309255 -0.0068003014
000030 7c be bf 3c 50 2a e4 bb 80 60 ab 3c 42 a6 66 3d
       0.02340626 -0.006963052 0.020920038 0.0563109
000040 6a eb 6c 3d 01 f1 81 bd 50 9b a7 3b 33 e7 95 bd
       0.057841696 -0.06344796 0.0051149502 -0.073194884
000050 a9 d1 b3 bd 34 ea cc 3c d6 f3 61 3d 71 23 a3 3d
       -0.08780224 0.02501402 0.05516418 0.07965744
000060 68 70 75 bc 20 cf 56 bc 2c b0 2c bd 1c 8a c6 bc
       -0.014980413 -0.013110906 -0.042160198 -0.024235778
000070 d2 4c 3b 3d 30 26 23 3c 18 17 be 3c 9b ba 40 bd
       0.04572756 0.009957835 0.023204371 -0.04705296
000080 50 6c b3 bc 2d 3e 81 3d f5 e9 96 3d c0 4c c5 bc
       -0.021902233 0.06310687 0.073688425 -0.024084449
000090 38 e9 f2 3c af 20 97 3d bd 85 0c bd 3d 3c a6 3d
       0.029652223 0.07379281 -0.03430723 0.08116958
0000a0 cd 2f 91 3d d4 04 91 bd 07 7d 3d bd 77 7b a1 3d
       0.070891954 -0.07080999 -0.046261813 0.07884877
0000b0 3f 43 9a 3d 84 4d 6e bd 54 da f7 bc 06 84 73 3d
       0.075323574 -0.058179393 -0.030255474 0.05945208
0000c0 7e f2 ae bd 88 fc 3b bc c8 17 ad bc 3b bf 8b 3d
       -0.085423455 -0.011473782 -0.021129504 0.06823584
0000d0 a4 42 a5 bd 6e 2a 0a 3d 86 e3 a9 bd f0 c1 81 bc
       -0.08069351 0.03373187 -0.0829535 -0.015839547
0000e0 62 0c 13 3d e2 32 17 3d bd 17 36 bd e0 dc 4d 3b
       0.03590048 0.03691376 -0.044456232 0.003141217
0000f0 e4 37 dd bc 1f 81 57 bd 47 15 9e bd 4c 28 cb bc
       -0.02700419 -0.052613374 -0.07718902 -0.024799488
000100 50 8c 14 bd 22 c6 ae bd c3 8c 02 bd ca 38 26 3d
       -0.036266625 -0.085338846 -0.031872522 0.040581502
000110 78 74 49 bc 0c 7d b5 bc f4 e8 91 bd 10 be d7 bb
       -0.012295835 -0.022154354 -0.071245104 -0.0065839365
000120 c2 65 7d 3d fe 08 4a 3d a2 e4 39 3d 26 e7 2c 3d
       0.061864622 0.049324982 0.045384057 0.042212628
000130 46 31 2f 3d 74 43 9c 3c c8 28 99 bd f9 82 5e bd
       0.0427716 0.019075133 -0.074784815 -0.054324124
000140 b8 e9 34 bc f3 1a a7 3d f4 5a a1 bd 82 c2 6f 3d
       -0.011042051 0.08159437 -0.07878676 0.058535106
000150 a0 b7 a7 bb e8 6b 36 bc a3 f8 95 bd e8 f9 2f bd
       -0.0051183254 -0.011134125 -0.07322814 -0.04296294
000160 aa 69 01 bd 03 08 4c bd 6c 13 14 3d 82 ba 75 bd
       -0.03159491 -0.049812328 0.036151335 -0.05999232
000170 d6 3d 7b 3d b0 13 00 3d bb 0a 8c 3d 24 44 17 bd
       0.06133827 0.031268775 0.06837984 -0.03693022
000180 8a 9e 3d 3d 0c dc b8 3c bc b1 a5 bd 96 09 32 3d
       0.046293773 0.022565864 -0.08090541 0.043466173
000190 64 22 d2 3c 8f d0 8f bd ec 2e 96 bc 8b 73 a9 bd
       0.025651164 -0.07022201 -0.018332921 -0.08273991
0001a0 98 9c 5b 3c 20 03 ae bb 20 45 c4 bb 59 57 9b bd
       0.013404034 -0.005310431 -0.0059896857 -0.075850196
0001b0 c4 69 91 3c 9c c8 a1 3c 80 f6 a7 3a 70 7c bc 3b
       0.017750628 0.019748978 0.0012814552 0.005752139
0001c0 d0 69 c5 bb 70 4b df bc 9f d5 a1 3d 53 eb 02 bd
       -0.0060245767 -0.027257651 0.07902073 -0.031962704
0001d0 f8 4e d8 bc c8 b6 06 bd 6a 14 40 bd 2b 95 98 3d
       -0.026404843 -0.032889158 -0.04689447 0.074503265
0001e0 22 dc 97 bd b0 80 d7 bc d6 e6 91 bd 0a 98 76 3d
       -0.07415034 -0.02630648 -0.071241066 0.06020359
0001f0 32 4a 5a 3d f5 19 a1 3d 8c aa b5 bc 2b 12 88 bd
       0.053293414 0.07866279 -0.02217605 -0.0664409
000200 2c 5d b0 3c fc 08 91 3c 34 0d 93 bd 40 bb cb bb
       0.021528803 0.01770448 -0.07180253 -0.0062173903
000210 68 84 74 3c 4a 03 35 3d d5 f2 a8 3d eb fd 00 bd
       0.014924146 0.04419259 0.082494415 -0.031492155
000220 3c 09 d6 3c 2c f4 83 bc 19 fb 88 3d b2 fd 48 bd
       0.02612745 -0.016107641 0.06688518 -0.049070068
000230 9e 24 41 bd 8c 4d 85 bd c0 0d 30 3b 96 9a b1 bd
       -0.04715406 -0.065089315 0.0026863664 -0.08672063
000240 c0 c6 55 3c 97 06 ae bd 57 e8 b0 3d 0a c3 4e 3d
       0.013047874 -0.08497351 0.08638065 0.050478972
000250 ae 33 a5 bd 76 a4 11 3d 73 2e 80 3d 38 c4 79 3c
       -0.08066498 0.035557233 0.062588595 0.015244536
000260 18 fc 0f 3c 88 db 3a bd 2c 6b ce 3c da 19 8e bd
       0.008788131 -0.045619518 0.025197588 -0.069385245
000270 6d fb a8 3d a0 8d 39 3b a0 7f ac 3b b0 45 45 3c
       0.08251081 0.0028313175 0.0052642375 0.012040541
000280 96 7a 4e 3d 67 36 8b bd 41 44 a4 bd 70 c7 b3 3b
       0.050409876 -0.06797486 -0.08020831 0.0054864213
000290 de fe af bd 49 bb a0 3d 58 cc 71 3c d3 91 9c 3d
       -0.08593534 0.07848222 0.014758192 0.07645001
0002a0 80 c3 2d bb 56 8a 6e 3d 1a c3 72 3d b0 91 b0 3c
       -0.0026514232 0.058237396 0.059268095 0.021553844
0002b0 41 f7 9a bd 09 88 1f bd 08 be a0 3c bc d9 fa 3c
       -0.07566691 -0.038948093 0.019621864 0.030621402
0002c0 dc 5d fd 3c f3 83 b2 3d 10 b3 bd bb e0 bc a2 bc
       0.030928545 0.087165736 -0.005789168 -0.019865453
0002d0 10 c8 6d bd ab 53 96 bd b4 86 39 bd 50 4c bb bb
       -0.058052123 -0.07340177 -0.04529448 -0.0057158843
0002e0 9a d8 aa bd 2e a6 4e 3d 1a 93 68 3d e8 aa 50 3c
       -0.08342095 0.05045145 0.056780912 0.01273606
0002f0 1e c5 6b 3d d0 db ef 3b 4e 29 28 3d 97 8c 9f 3d
       0.057561032 0.007319905 0.041055016 0.07790487
000300 96 47 64 3d d4 30 cf 3c 82 ea 9d bd ae 71 5f 3d
       0.055732332 0.025291838 -0.077107444 0.054551773
000310 0f 49 a4 bd 69 1a a2 3d 64 c0 c3 bc 5c ee 98 bd
       -0.08021747 0.079151936 -0.02389545 -0.074673384
000320 23 a7 a0 bd 78 04 01 3d 06 af 29 3d a6 c6 67 3d
       -0.07844379 0.031498402 0.04142668 0.05658593
000330 84 91 ca 3c e8 c0 e9 3c 59 18 a9 bd 0e 1c 08 bd
       0.02472759 0.028534368 -0.08256597 -0.03322988
000340 06 4e 25 3d 7d 37 95 3d 37 09 8e bd c8 af 90 3c
       0.040357612 0.07285974 -0.06935351 0.017661944
000350 9e 5b da bc 87 3b 9f bd ab 43 9f 3d 20 c3 5d bc
       -0.026655015 -0.07775026 0.077765785 -0.013535291
000360 94 2d 9d bd 32 14 1a 3d a4 d4 65 bd 87 cb 86 3d
       -0.07674709 0.037616916 -0.056110993 0.065817885
000370 76 00 1e 3d 28 fa 75 bc e0 4e 86 bd b2 bf 81 bd
       0.03857466 -0.015013255 -0.06558013 -0.06335391
000380 b0 64 74 3c b8 af 7e bc 72 31 4b 3d b4 82 df 3c
       0.014916584 -0.015544824 0.0496077 0.027284004
000390 00 5a ba b9 83 f9 04 bd a4 97 a0 bd 92 a3 22 3d
       -0.0003554374 -0.032464515 -0.07841423 0.039706774
0003a0 10 92 94 bb 0d b5 a5 3d f2 58 55 3d 1e 53 5b 3d
       -0.0045340136 0.08091173 0.052086778 0.053546064
0003b0 af ea 8d 3d b7 00 9b bd 33 d8 ad 3d 32 1e 28 bd
       0.06929528 -0.07568496 0.08488502 -0.04104442
0003c0 dd e2 ae 3d be 3c e8 bc e4 a4 82 3c e3 b3 a0 3d
       0.085393645 -0.028349277 0.015947767 0.07846811
0003d0 80 2f 29 bb 96 eb 2f 3d 42 c5 87 bd 30 d1 f4 bb
       -0.0025815666 0.04294928 -0.06629421 -0.007471226
0003e0 26 d7 a4 bd c0 d4 8a bb 40 00 74 3c 13 db 60 bd
       -0.08048849 -0.0042367876 0.014892638 -0.054896425
0003f0 d1 48 95 3d c0 6c 1c 3b 08 00 d4 bc 2a ae e0 bc
       0.07289279 0.002386853 -0.025878921 -0.027426798

fc2.bias f4 [2]
000000 aa cc 7f 3d dd 9e 42 bd
       0.062451042 -0.047514785
