IA/best_model.pth (torch, 6696 bytes, 4 tensors)

fc1.weight f4 [128, 6]
00000000: 8488 94bd 8e19 473c 36a5 193e a439 823c
00000010: 7e9c 05be 28e1 f13b 6eff 4e3e f1c0 66bc
00000020: 9a11 a93d 3636 b93d 6a6c 2fbd b7eb 003e
00000030: efd1 1cbe b296 bb3d 53ed 03be 3a3b 42be
00000040: 89f4 7a3c a6a9 2abd 51c5 5cbd 04c8 90bd
00000050: 4213 c83d 2de7 903d 4063 0ebe 78ad 22be
00000060: 4a17 613e e3cf 0fbc 2081 eabd 2c09 343c
00000070: 4e4d c0bd 176f 0b3e 7607 263e 04ce 34be
00000080: f26e 92bc 5d26 f13c 38b8 ce3d 7acf a9bd
00000090: c77a 31be 789f c7bd 3f74 2fbe 2846 f9bc
000000a0: 6433 f83c 6012 dabd c333 273d c833 4fbd
000000b0: e4e4 f2bd 175c 913d 4243 ddbd 3b80 dabd
000000c0: 7eef fb3d 588d db3c e7fd 093d 83c7 fdbd
000000d0: 6242 cdbd 987a 5ebd b983 00be 7073 b43d
000000e0: 2139 c1bc 8959 09be 12b5 223d d4d3 02be
000000f0: 5907 2abb 4ac3 16bd 00fa b33c f6ef 7dbd
00000100: 1bab cfbd ed9d 1dbd fcd5 593d a669 b53d
00000110: b025 8bba 5f89 603d ccab ec3d 47a7 6fbb
00000120: bc1e 14bc 782b e6bd 9112 323c aa5c 283e
00000130: f57f 5a3d 9582 fcba a164 883c 2a65 3bbd
00000140: d04a 60bc 0e8a 823d 90f1 bc3c f1cf 71bb
00000150: 5ef1 2e3d bab1 903b 8ee7 063e b552 1c3e
00000160: c129 bdba 38e6 7dbc 6cd1 313d 1827 223d
00000170: 74fd 5f3d 58f0 253b 52f9 7c3d 228a d3bd
00000180: dd1d e6bd 7663 5ebd edbc 5bbe 4b38 0abd
00000190: 993e 62bd bf1b 02bd 0eb2 ad3d 2b4e 133e
000001a0: 8697 e83c 0c44 d7bc 7ae7 a9bd 00e2 3cbd
000001b0: 9c69 37be 75bf fb3d a62e c73d 4816 f03d
000001c0: 4635 9e3d 6e90 c23d 5e32 d73d f62c f53c
000001d0: 622e 663d de9b 6a3d 9c10 c7bd 943c 00be
000001e0: fa26 50bd 697d fb3d 7a8c cf3c dc09 07ba
000001f0: d5e9 8abd e6a3 f13c f691 c53d 3a25 e6bd
00000200: d5f5 283e e51d e6bd e682 a0bc 7c65 24be
00000210: daec 0a3d 3a95 9e3d 2eab 843d bc68 b3bd
00000220: a27e c73d 7936 19be a937 eabc d370 03bd
00000230: 6677 8bbd 750e a8bc 8648 033e f656 75bd
00000240: c824 a13d be8c 273d b49d f53d 504d 423d
00000250: de4b 37bc aea4 e7bd 3acd b9bc a763 1abd
00000260: 9e5d dabb 7a63 e5bc 45a7 093d 2a29 4bbd
00000270: a8d3 84bc 0d26 29be 0794 e6bd 2415 d43d
00000280: 0c65 ad3d ae33 173e aa51 d73d 7ba8 cabc
00000290: 3667 13bd 50de 2a3e b1e4 2fbd 66dd 863d
000002a0: be62 2abc 1004 863d 331c bcbc 158b 093e
000002b0: caaa af3c ff58 e2bd a241 293e 18e1 ff3c
000002c0: 0cf0 d83d c312 f2bd 0298 37bd 012d 6a3e
000002d0: 58f4 ec3b b94d a13d ba5a cb3d f076 be3d
000002e0: 4c2d 9b3c 8c2f 793b ae77 103e d819 fc3d
000002f0: 7680 453d cbc5 8f3c 2c9c 0a3e f51e 6dbd
00000300: 96f6 423c da42 e33d 4904 bdbc 7db3 7abd
00000310: 007a 993d d7d5 f03d c6bd 8a3d 1cfb 18bc
00000320: 6ff3 f53c ae18 4f3d 8fc8 e5bd ac2f 4b3e
00000330: 496d a4bd fb8b eabd 4666 043d 68f0 83bd
00000340: c925 0bbd bceb 2a3e f06a 2a3d 6a39 fcbd
00000350: bcab 22be a3c8 3ebd d06d 0b3e 84fd d3bd
00000360: 4276 2dbd 589e 4fbc 029d bc3d 0cb4 e4bd
00000370: e7c0 7a3c 464b 873b 03bc 3bbd 9b3a 7a3e
00000380: f019 4dbd ee16 61be b47b 093e 11fa 683e
00000390: 10f0 ea3c 16ad 0d3d eb76 043d e7c1 303e
000003a0: c2a5 34be 152a 3e3d 7c68 813d 0082 043d
000003b0: d3f2 373e ed49 0fbe 319c 7b3d 7e39 963d
000003c0: b1c4 923d ee51 9dbc 11a6 47be bbd9 5cba
000003d0: 10dc 32be d4b9 6fbc da48 92bd 8870 0abd
000003e0: 8785 233e 94b3 d3bd fe93 e33d 2745 833d
000003f0: c81d 553d 8f23 7e3d 14eb 24be cca4 88bc
-0.07252601 0.012152089 0.15004429 0.015896626 -0.13047978 0.007381577 0.20214626 -0.014084087
0.0825531 0.09043543 -0.042828 0.12589918 -0.15314458 0.09159602 -0.12883501 -0.18967906
0.015317091 -0.041665696 -0.053899113 -0.070694 0.09769298 0.07075343 -0.13905048 -0.15886486
0.2198154 -0.008777591 -0.1145041 0.010988515 -0.09389745 0.13616596 0.16213784 -0.17656714
-0.017875168 0.029437238 0.10093731 -0.08291526 -0.17331992 -0.09747213 -0.17134188 -0.03042896
0.030297942 -0.10648036 0.04082085 -0.05058649 -0.11860064 0.07097643 -0.10803844 -0.10668989
0.12301539 0.026800796 0.033689406 -0.123915695 -0.10022427 -0.054316133 -0.12550248 0.088110805
-0.023586811 -0.13413061 0.039723463 -0.12776119 -0.002594432 -0.036807336 0.021969795 -0.061996423
-0.10140058 -0.038480688 0.053182587 0.088580415 -0.001061609 0.054818507 0.11556205 -0.003656821
-0.009040531 -0.1123876 0.010868684 0.16441599 0.053344686 -0.0019264991 0.016649546 -0.045750774
-0.013689712 0.06373988 0.023064405 -0.0036897624 0.042710654 0.004415718 0.13174269 0.15265925
-0.0014431999 -0.015496783 0.04341261 0.039588064 0.05468507 0.0025320258 0.061761208 -0.10329081
-0.11236165 -0.054294072 -0.21458788 -0.03374509 -0.05523548 -0.031764742 0.08481227 0.14385287
0.028392565 -0.026277564 -0.08296104 -0.046113968 -0.1791138 0.12292377 0.09725694 0.11723
0.07725005 0.09500204 0.10507654 0.029928666 0.056196578 0.057277553 -0.09719965 -0.12523109
-0.05081842 0.122797795 0.02533554 -0.00051513105 -0.06782881 0.029497098 0.096469805 -0.11237569
0.16500027 -0.11236171 -0.019593667 -0.16054338 0.033917286 0.077433065 0.064779624 -0.08760211
0.0974095 -0.14962186 -0.028590994 -0.03209002 -0.06809883 -0.020514706 0.12820634 -0.059897386
0.078683436 0.040905707 0.1199297 0.047437012 -0.011187522 -0.11310707 -0.022680867 -0.037692692
-0.006663992 -0.028001536 0.033606786 -0.049599804 -0.016214207 -0.16518421 -0.11258703 0.10355595
0.08466539 0.14765808 0.10513623 -0.02473854 -0.0359871 0.16686368 -0.042942706 0.06585197
-0.010399519 0.065437436 -0.022962665 0.13431962 0.021443743 -0.11052131 0.16528943 0.031235263
0.1059266 -0.11819985 -0.0448227 0.2286873 0.0072312765 0.078761525 0.09929414 0.09300029
0.018942498 0.0038022725 0.14108154 0.12309617 0.048218213 0.01755037 0.13536137 -0.05789085
0.011899611 0.11096735 -0.023073332 -0.06120633 0.07493973 0.11759537 0.06774478 -0.009337213
0.030023305 0.050560646 -0.11219894 0.19842404 -0.08028657 -0.114524804 0.032324098 -0.06442338
-0.03397158 0.16691488 0.04160589 -0.12315638 -0.15885824 -0.04657806 0.13616109 -0.10351089
-0.042349108 -0.012672029 0.09209634 -0.11167154 0.015304781 0.0041288463 -0.0458336 0.24436419
-0.050073564 -0.21981403 0.13426095 0.22751643 0.028678924 0.034588896 0.03233997 0.17261468
-0.17641357 0.04642685 0.06318757 0.03235054 0.17963724 -0.13993044 0.061428253 0.073351845
0.07166422 -0.019204106 -0.19496943 -0.00084247784 -0.1746676 -0.014631707 -0.071428016 -0.033798724
0.15968905 -0.10336986 0.11112212 0.06409674 0.052030355 0.06204563 -0.161053 -0.016680144

fc1.bias f4 [128]
00000000: 2909 72be 2e7e c13e 18d9 113e c02b 81bd
00000010: c45b fbbd 80a1 8e3d 3a27 45be f820 14bd
00000020: 3808 673e 5968 a4be 88ce bfbe 40d1 89bd
00000030: f2ae a33e 807b cf3b 4a2f a6be 6c69 3e3e
00000040: a137 d0be da31 953e 4864 283e 24c3 92bd
00000050: 7896 b33d 36c6 a73e 6e5e 2ebe 4809 9ebe
00000060: 84b8 90bd 40a1 f1bb 66f3 9d3e e018 cf3d
00000070: 6afd 81be 5cc3 d6bd 123f 02be 6038 37bd
00000080: 8d34 96be 4c40 92bd 083a 1e3d c89b 313d
00000090: 9abc bebe 6869 413e 2487 373e e7fc 99be
000000a0: 9f70 a6be 96ee adbe a07c 663d 3014 f83d
000000b0: 9100 ccbe 4855 3e3e 1cc7 96bd 19a1 99be
000000c0: c098 063e d0a6 9abc bc9e 2d3e 44ef 06be
000000d0: 6081 033c 0d69 acbe e468 4c3e 0620 84be
000000e0: f9c1 cabe d638 8c3e 7cd5 abbe ea65 b73e
000000f0: 3806 bbbe ae04 a3be f88d c1be 84c1 96be
00000100: 4b58 25be 72dd a23e 9847 babe e92c 5ebe
00000110: f61c 933e e664 893e 8c3c 823d be3e 84be
00000120: aa35 97be 7616 0cbe 92cc 64be 0031 853d
00000130: c082 473c 0ac8 96be 9f31 7dbe 6e37 1dbe
00000140: 983a 0a3e f88e 82be a818 7dbe 179a cabe
00000150: 3600 a83e b0bb d2bd f87d 723d b6eb b63e
00000160: 2cb9 acbd 4676 97be 382c 723d f699 3fbe
00000170: d022 b33e ef88 a9be 00d7 403c e699 87be
00000180: 18c8 a53d 488a 11be f808 a9bd 5469 b2be
00000190: 8ab5 903e 60e3 f13d 9427 7ebe 48fa 163e
000001a0: 4325 a5be e958 babe 5263 1fbe 58ed a63e
000001b0: ac36 773e 6c01 6f3e 7c2a abbd 6a38 8abe
000001c0: 9875 62bd 3001 e7bc d097 9c3e c079 9bbb
000001d0: 9404 ba3e ce06 95be 7aa7 59be 30bc 2c3e
000001e0: 901e 8d3e 0056 df3d 4839 493d e82e f43d
000001f0: d00b d53c f01f 30be a4c7 893e f2f3 a8be
-0.23636307 0.3779158 0.14242971 -0.06307173 -0.12273362 0.069643974 -0.19253245 -0.036164254
0.22561729 -0.3211086 -0.37462258 -0.067293644 0.3196941 0.006331861 -0.32457954 0.18594903
-0.4066744 0.29139596 0.16444504 -0.07166126 0.08768934 0.3276841 -0.1702821 -0.30866456
-0.070664436 -0.007373959 0.3084976 0.101121664 -0.25388652 -0.104864806 -0.12719372 -0.044731498
-0.29336968 -0.0714117 0.03862956 0.043361455 -0.37253267 0.18887866 0.17922646 -0.30075762
-0.32507798 -0.3397109 0.056271195 0.121132255 -0.39844182 0.1858722 -0.07362196 -0.3000572
0.13144207 -0.01887837 0.16955084 -0.1317721 0.008026451 -0.33673897 0.19961888 -0.25805682
-0.39601114 0.27387112 -0.33561313 0.35819942 -0.36528182 -0.31839508 -0.37803626 -0.29444516
-0.16146962 0.31809574 -0.36382747 -0.2169682 0.28733033 0.26834792 0.06359205 -0.25829118
-0.2953313 -0.13680443 -0.22343662 0.06503487 0.012177169 -0.29449493 -0.2472596 -0.15353176
0.13498914 -0.25499701 -0.24716437 -0.39570686 0.3281266 -0.10289705 0.059202164 0.35726708
-0.08433756 -0.29582423 0.0591242 -0.18711075 0.34987497 -0.33112285 0.01177001 -0.26484603
0.080948055 -0.14212906 -0.08253664 -0.34845984 0.28263503 0.118109465 -0.24819785 0.14743912
-0.3225499 -0.36395958 -0.15565231 0.32602954 0.2414195 0.23340386 -0.083577126 -0.26996166
-0.055287927 -0.028198808 0.30584574 -0.0047447383 0.36331618 -0.29106754 -0.21255293 0.16868663
0.2756238 0.10905075 0.049126893 0.11923009 0.02600661 -0.17199683 0.26910126 -0.32998616

fc2.weight f4 [2, 128]
00000000: 983c 753c 973d a1bd 2ea4 05bd 7e44 a5bd
00000010: 006e 15b9 4efc 453d 7a4a 763d 08cb 50bd
00000020: 1294 463d 32b0 063d c026 9bbd 5008 8dbd
00000030: b8c1 44bc af57 04bd d9b4 933d 64c3 a63c
00000040: e7cf 56bd ab7d 903d 00ae 723c 159c 9cbd
00000050: f116 b23d 30d8 ab3c 30c0 a2bd 8063 41ba
00000060: 527a 4b3d e87e d3bc 2a9f 573d f63d a9bd
00000070: c7e9 11bd a816 43bc bd32 17bd 1e9a 02bd
00000080: 558f b03d 5a6c 5a3d 60f6 aabb a0c5 71bb
00000090: cfc9 96bd 002a 153d 3074 09bc 7099 72bc
000000a0: 7421 803c 6bd9 b43d 3cd6 aabd 53d5 44bd
000000b0: 602f a5bb bd92 b43d e004 c1bb 9cc8 f23c
000000c0: e370 88bd df84 a53d 99e9 b2bd 54a2 043d
000000d0: ba53 02bd 20d1 86bc 4cc0 adbd 766b 52bd
000000e0: 4c4a 933c 40d9 e03c f03d a93c ccc3 95bc
000000f0: c8ad 7f3c a884 15bc be84 5d3d 5685 753d
00000100: abb8 1dbd 00a1 8d3b 859f a43d 0ead 5f3d
00000110: ec80 d0bc 116e 22bd ba01 113d ae5a 5a3d
00000120: 0693 0fbd fcc4 b6bc 2a02 1f3d a043 fcbb
00000130: d871 44bc 548b a63c 44fa 5ebd 7ce4 a93c
00000140: 7f7f 42bd 4064 9dbb 963a 81bd a73f 9a3d
00000150: e26b 543d e2bd aabd 403b 9e3b 19b8 81bd
00000160: f82e f2bc 8f24 44bd a042 3e3c 644d bf3c
00000170: da27 2a3d a4ca eebc 08d3 acbc 9275 8cbd
00000180: cb7b ad3d 00c6 213c b749 55bd 3471 81bd
00000190: 5f20 20bd b5aa a13d b28e 5c3d ab67 ac3d
000001a0: 6d08 36bd cf55 ac3d 18f9 513c 3b53 39bd
000001b0: 4045 5a3c 9f19 a7bd 58bc ccbc c1c6 81bd
000001c0: fddf 8a3d e6c4 9abd 9198 44bd 73d7 9f3d
000001d0: c2a4 3dbd 3abd 4abd c034 d63b c904 9e3d
000001e0: a83d 52bc ce53 573d 1a24 92bd 1a0b 0dbd
000001f0: 2643 423d 4fbe 66bd 4619 063d 0204 eabc
00000200: 8021 d63a 7486 cf3c 08a4 c6bc 3438 ef3c
00000210: e07c 99bb 8e48 48bd 3443 9a3c 4eb8 7c3d
00000220: ee4b 7b3d a281 443d 64b1 8cbd 421d 0dbd
00000230: ee0c 6b3d b2e0 acbd c276 433d e355 8b3d
00000240: 26c8 133d 5e40 113d dd09 12bd a161 b4bd
00000250: f3a1 b03d 7be1 abbd de29 5c3d fa0c 633d
00000260: 5e38 9fbd 22fc 483d 095a 9a3d b0ad b0bc
00000270: 70b5 d4bb 344d db3c 234f 3ebd 4240 1abd
00000280: 91e6 08bd 6c2f cd3c b77a 1abd 6603 2a3d
00000290: 959b 1abd b014 263c 94ff 9abd e363 a93d
000002a0: 73ae 8dbd 7024 86bd 317f 883d 62e6 b4bd
000002b0: 38d5 e73c 3e6b 483d 92cb 213d 8e7d 5c3d
000002c0: 4e64 a4bd 5f2f a23d 0e59 5f3d 06ef a4bd
000002d0: 33a7 8e3d ac58 d2bc d049 98bb 02e4 74bd
000002e0: 601a ba3b cc97 9abc 5232 0ebd 390e 8f3d
000002f0: 8070 b0bd fac6 343d 9a3c f2bc 4963 a23d
00000300: cc74 e0bc 2436 de3c 146b 80bc d4b0 9dbc
00000310: fecb 83bd be4f e0bc aca2 96bc 007f 2bba
00000320: 4b6c 90bd 20c2 2c3b d038 c9bb 829b 5dbd
00000330: a08c 98bc f097 72bd d5ca 933d 894e 9a3d
00000340: a037 cebc 8335 853d a8c0 0a3c 1700 843d
00000350: 9bc8 3ebd b0c8 0dbc d490 f8bc 460d 593d
00000360: 7404 cdbc 547d b4bd cb63 9d3d 0db8 823d
00000370: 590e 8a3d 9a50 553d 7e2d 773d 10c5 aebb
00000380: a7a7 8a3d f2a4 7abd 9ad7 1d3d 7a3e 543d
00000390: 0bd2 b2bd 205b d93b 13bb 24bd d006 9fbd
000003a0: eb07 94bd b8cd 323c 0be7 a9bd f7c0 11bd
000003b0: 269d 003d a2f6 a5bd f864 27bc 66a2 62bd
000003c0: 80a1 d2bb 4486 b7bc 0087 a63a c522 af3d
000003d0: 67fa 923d 5057 a33c a86e 59bc 907d 3ebc
000003e0: b16e 4dbd d028 663c 2bdb 6cbd 083e fd3c
000003f0: 34a1 7bbd eade 5b3d ba61 773d 8605 7b3d
0.01496806 -0.078730755 -0.032627277 -0.080697045 -0.00014250726 0.04833632 0.06012962 -0.050974876
0.048481055 0.032882877 -0.0757575 -0.06886351 -0.012009077 -0.032310184 0.07212228 0.020356841
-0.052444365 0.07055219 0.014811993 -0.07646958 0.08695782 0.02097711 -0.07946813 -0.00073771924
0.0496772 -0.02581735 0.052642025 -0.08263771 -0.035623338 -0.011907257 -0.036913622 -0.03188526
0.086210884 0.05332599 -0.0052173585 -0.0036891475 -0.07362711 0.036417007 -0.008389518 -0.01480709
0.015640952 0.08830532 -0.08341643 -0.048055004 -0.005041048 0.088170506 -0.0058904737 0.029636674
-0.066621564 0.08081984 -0.087359615 0.03238137 -0.03181813 -0.01645714 -0.08483943 -0.051372014
0.017979763 0.027447343 0.020659417 -0.01828184 0.0156053975 -0.009125866 0.05408167 0.059941612
-0.03850619 0.004322171 0.080382384 0.054608397 -0.0254521 -0.03965575 0.035402037 0.053309135
-0.03505232 -0.022310726 0.038820423 -0.007698491 -0.011990033 0.020330109 -0.05443789 0.020738833
-0.04748487 -0.0048032105 -0.063100025 0.07531672 0.051860698 -0.083369985 0.0048288405 -0.06333942
-0.029563412 -0.047886427 0.011612564 0.023352332 0.04154191 -0.029149361 -0.021096721 -0.06858362
0.08470877 0.009873867 -0.052072253 -0.0632042 -0.03909337 0.07893888 0.053847022 0.084182106
-0.04444163 0.08414804 0.012815736 -0.04524539 0.013322175 -0.08159184 -0.024992153 -0.063367374
0.067810036 -0.07557087 -0.04799706 0.078047656 -0.046299703 -0.049496867 0.00653705 0.077157564
-0.012832083 0.052570157 -0.07135792 -0.034434415 0.04742732 -0.056333836 0.032738946 -0.028566364
0.0016336888 0.025332667 -0.024248138 0.029201604 -0.0046840757 -0.04889732 0.018830873 0.061699204
0.06135171 0.04797519 -0.06869772 -0.03445173 0.057385378 -0.08441295 0.04772068 0.06803491
0.03607955 0.035461776 -0.035653938 -0.08807684 0.08624639 -0.08392616 0.053750865 0.055432297
-0.07774423 0.049068578 0.07536704 -0.021567196 -0.0064913556 0.026770212 -0.04646219 -0.037658937
-0.03342301 0.025047027 -0.037714686 0.041507147 -0.03774603 0.010136768 -0.07568279 0.08271005
-0.06918039 -0.06549919 0.06664885 -0.088330045 0.028299913 0.0489304 0.03950078 0.053830676
-0.08026944 0.079191916 0.05452829 -0.080534026 0.069654845 -0.025677048 -0.004647471 -0.059787758
0.0056794137 -0.01887121 -0.034715958 0.06985135 -0.08615208 0.04413507 -0.029569913 0.079290934
-0.027399443 0.027125426 -0.015676059 -0.019249357 -0.06435393 -0.027381774 -0.018388115 -0.0006542057
-0.07051905 0.0026360825 -0.006140806 -0.054103382 -0.018621743 -0.05922693 0.072164215 0.07534511
-0.025173008 0.06504347 0.008468784 0.0644533 -0.04657803 -0.008653805 -0.030342497 0.052991174
-0.025026537 -0.08812967 0.076850496 0.06382761 0.06741018 0.05207882 0.06034612 -0.0053335503
0.067702584 -0.06119246 0.03853569 0.051817395 -0.08731469 0.0066331774 -0.04021747 -0.07764971
-0.07228073 0.010913305 -0.08296021 -0.035584416 0.03139987 -0.08103682 -0.010216944 -0.055330656
-0.0064279437 -0.02240289 0.0012705028 0.08551554 0.07176667 0.019939095 -0.013271011 -0.011626616
-0.05015439 0.014047816 -0.057826202 0.030913368 -0.061433032 0.053679384 0.060395934 0.061284564

fc2.bias f4 [2]
00000000: 3c25 e63c 807e fcba
0.028093927 -0.0019263774
