IA/best_model.pth (torch, 6696 bytes, 4 tensors)

fc1.weight f4 [128, 6]
000000 69 84 b4 3b e0 b5 86 bd 1b 03 d4 3c 2e 1e e4 bd
       0.0055089486 -0.06577659 0.025880387 -0.11138569
000010 02 cd 98 bd 47 cd fe bd 9c 57 a7 3d c3 83 0c be
       -0.07460977 -0.12441497 0.08171007 -0.13722138
000020 0a 12 6e bd ce b6 36 3d 4c 65 6e bd b0 1a 4a 3e
       -0.058122672 0.04460793 -0.058202073 0.19736743
000030 c9 55 5a 3c 90 01 0b 3e 87 41 1d 3c 5a a1 14 bd
       0.013326117 0.13574815 0.0095981425 -0.03628669
000040 d5 a9 91 3d e4 c7 1f be 65 dc 36 3d 00 45 29 bd
       0.07112471 -0.15603596 0.04464378 -0.04132557
000050 f7 18 21 be 02 71 20 3b 66 21 20 be 37 65 c1 bc
       -0.1573218 0.002448142 -0.1563774 -0.023607833
000060 a2 0b fa bd 43 30 46 bd 80 2f 39 be d2 b0 01 3d
       -0.1220925 -0.04838587 -0.18084526 0.03166277
000070 56 98 86 3d 8f 07 e7 bd c0 f7 16 3e f1 7e 48 3d
       0.065720245 -0.112807386 0.14742947 0.048949186
000080 06 7a 19 3d eb 33 fd bd 7b 0d 4d bc e8 31 00 3b
       0.037469886 -0.12363418 -0.012515421 0.0019560996
000090 a2 3e 5e 3d bc ba 14 3e 95 02 24 bd ae 6a 83 3d
       0.05425895 0.14524359 -0.040041525 0.06416832
0000a0 be 68 0b 3c 38 ca f1 3d 95 f6 a0 bd 84 4c 6f 3d
       0.008508859 0.11806148 -0.07859532 0.05842258
0000b0 c0 bb 5e 3d d6 4f 39 be 93 15 04 bd 84 b5 05 3c
       0.05437827 -0.18096861 -0.032247137 0.0081609525
0000c0 c8 da 3a bd 66 b3 fb bd d0 82 d6 bd 0e 7d d9 3b
       -0.045618802 -0.12290077 -0.10474169 0.006637222
0000d0 0a 78 ff 3d e6 fa 98 3d 9a f0 9d 3c 76 24 12 bc
       0.124740675 0.0746973 0.019279767 -0.008919826
0000e0 d9 41 08 bc 5e 1a 96 3d 83 f4 d5 3c 0c 82 03 be
       -0.008316481 0.07329248 0.026117569 -0.12842578
0000f0 86 94 e9 3d bc 6f 28 be 5b 04 42 3d ba bc 1f 3e
       0.11405282 -0.16448873 0.047367435 0.15599337
000100 31 a6 c8 bd f9 95 75 bd bc b5 3f 3e 06 97 94 3d
       -0.097973235 -0.05995748 0.1872167 0.07255368
000110 74 e1 19 bd d6 30 52 3d e6 08 90 3d 40 1b 36 bd
       -0.037568524 0.051316105 0.07032947 -0.04445958
000120 3e 70 d3 b9 8e 86 30 be 4e 49 5a 3d f6 b2 b9 bc
       -0.00040328683 -0.17238829 0.053292565 -0.022668343
000130 2f 3c 70 3e ca 2a c5 bd 84 c4 e9 bb d6 14 48 3b
       0.23460458 -0.09627302 -0.007134022 0.0030529997
000140 11 ae cf 3d 70 1b 1b bd 62 07 f7 3d 59 8e 6d bd
       0.101406224 -0.037867963 0.12061955 -0.05799708
000150 2c aa 80 3d ca ce 56 bb fc 6c 78 3d e8 6c c2 3d
       0.06282458 -0.0032777064 0.06065081 0.094934285
000160 b8 85 2e bc da e9 0d bd aa 75 dc 3c 9a 1b 91 bb
       -0.010651998 -0.034646846 0.026911575 -0.004428339
000170 74 8e 0c be 3a c0 a7 bd 38 11 26 be ca 18 92 bd
       -0.13726217 -0.08190961 -0.16217506 -0.071336344
000180 19 a8 e4 bc 56 9c 2f bc ac 17 9d bc bb 6e c4 bd
       -0.027912186 -0.010718426 -0.019176327 -0.09591433
000190 e1 ef 30 3c 7d 6b d2 3d f0 62 c8 3d 42 69 8e bb
       0.010799379 0.10274408 0.09784496 -0.004346044
0001a0 9f 1f bc bd 61 bd 8b 3e aa 72 1b 3e 60 cf 4b bd
       -0.09185719 0.27292922 0.1518046 -0.049758315
0001b0 07 67 e1 bd 05 b9 b5 bd f8 6f 86 3d 11 11 e3 bd
       -0.11005979 -0.0887318 0.06564325 -0.110872395
0001c0 08 7a 0e 3c 9e 2a 37 bc d3 8a d9 ba d0 74 82 3c
       0.008696087 -0.011179594 -0.0016597159 0.015924841
0001d0 7e 4b 95 3d c3 ff ca bd 32 1b 34 3e d8 20 ee 3d
       0.072897896 -0.09912064 0.17588499 0.11627358
0001e0 f4 be 91 bd 7a 04 6a bd b1 d3 1d be 0a d4 d2 3d
       -0.071164995 -0.057133175 -0.15412785 0.102943495
0001f0 d6 4a 9d 3c 2d c7 0c 3e c0 51 22 bc 76 10 4e be
       0.019200724 0.13747855 -0.009907186 -0.20123467
000200 b0 9a 02 3d ca d4 13 3e dc 3c fd 3d 28 97 69 bd
       0.031885803 0.14436641 0.12365124 -0.05702892
000210 10 f3 96 3c 85 27 71 bc e8 38 5a bd 2c 51 dc 3d
       0.018426448 -0.014718895 -0.053276926 0.1075767
000220 34 63 de 3c 34 46 16 be 2a a3 1a 3d 0a 74 19 3e
       0.027146913 -0.14675218 0.03775326 0.14985672
000230 f4 64 a2 3d 98 27 5e 3e 99 08 e3 bd 66 ac 2e be
       0.079294115 0.21694791 -0.11085624 -0.17057952
000240 4c 36 f7 bc 67 ca 35 be dd 2a 38 bd de fc fd bc
       -0.030177258 -0.17752992 -0.044962753 -0.031004366
000250 8c d5 b7 bc b6 b2 5a bd a5 b2 ca bd 9e 02 75 bd
       -0.022440694 -0.05339309 -0.09897355 -0.05981695
000260 66 c4 3d 3d 9d 12 f4 bd ca dd 4c 3d b4 52 2d be
       0.04632988 -0.11917613 0.050016202 -0.1692608
000270 e4 9b 15 be 0a cc b6 bd 6a 4c 72 3d 5c 59 7e 3d
       -0.14610249 -0.08925636 0.059154905 0.06209694
000280 fb ab 5b 3e 34 9b 74 3d da 66 83 bc 22 69 39 be
       0.21452324 0.059718326 -0.016040254 -0.18106511
000290 0f ba 34 3d 8a b5 a0 3a e4 dc 7e bd 30 f8 1d 3e
       0.04412275 0.0012261134 -0.062222376 0.15426707
0002a0 d5 2d ba 3d 81 9b 26 3e a0 ff 0c 3d 0a 03 d4 3d
       0.09090773 0.16270258 0.03442347 0.10352142
0002b0 76 f5 72 bd f1 b6 af 3d ea f5 bc 3d ba 72 5f bd
       -0.05931612 0.08579815 0.09226592 -0.05455277
0002c0 06 76 0f bc 56 29 4e bd e4 f0 91 3d 51 7f f5 3d
       -0.008756166 -0.05033239 0.07126024 0.11987174
0002d0 3e 8d 5a be 37 ce 25 bd 5c 62 be bd 19 ec 58 3b
       -0.21342942 -0.040479865 -0.09296104 0.003309971
0002e0 88 d1 b0 bd f4 2f ae 3b d8 a2 b6 3d 56 53 d4 bc
       -0.08633715 0.005315775 0.08917779 -0.025918644
0002f0 d2 a8 9e ba 0a ad 5f 3c 3f 09 c9 3c a0 85 86 bd
       -0.0012104756 0.013652096 0.024540542 -0.06568456
000300 ed 27 01 be 40 07 58 be b8 4d 67 3e 16 6b 95 3d
       -0.12612887 -0.21096516 0.22588241 0.07295816
000310 a0 0b 29 3e ee 63 9a 3d 84 19 8e 3d 90 0f 42 3e
       0.16508341 0.07538591 0.069384605 0.18951249
000320 ba 40 c0 3d b0 b4 f6 bc 14 97 97 bd f5 7b 85 3d
       0.093873456 -0.030115455 -0.07401863 0.065177836
000330 10 d1 36 bd 7f 98 4b 3d 14 94 58 3b 76 cc 14 3d
       -0.04463297 0.04970598 0.0033047246 0.0363278
000340 dc bd 9b 3d 54 3d bc bc 9c b7 ce bc 85 ab 1c 3d
       0.07604572 -0.022978462 -0.025234036 0.03824951
000350 67 19 02 bd ac ec eb bb bc ec cc 3d 94 4a a8 bc
       -0.031762507 -0.0071998443 0.10006091 -0.020543374
000360 84 ba 09 be 60 d9 37 3d 12 33 e3 3d b3 61 82 3c
       -0.13450056 0.04488504 0.11093725 0.015915727
000370 8a cf 2f 3c 43 25 83 bd 92 7a 10 bc d8 c8 89 bd
       0.0107306335 -0.064035915 -0.008818286 -0.06727761
000380 9f 97 8b bd 03 cd 02 3e 64 f2 d0 bd d8 bd ec bd
       -0.06816029 0.12773518 -0.10202482 -0.11559647
000390 35 4f b1 bc 72 c7 97 3d 70 33 0a 3e 18 77 f1 bd
       -0.021644214 0.07411088 0.13496184 -0.117902935
0003a0 1e 43 ed bd 3a 5f a1 bd c3 d0 73 3d 74 3a b3 bc
       -0.11585067 -0.07879491 0.059525263 -0.021878459
0003b0 bd 98 90 3c 2c 88 b3 bd 04 93 b0 bd f5 d9 8a 3d
       0.017650956 -0.08766207 -0.08621791 0.06779853
0003c0 f2 62 46 be 46 e8 c3 3c 95 1a c3 3d d6 eb c2 bd
       -0.19373682 0.023914468 0.095265545 -0.095176384
0003d0 9c 8c b1 bb 6d 7c 73 bb fc 28 c3 3d 54 21 34 be
       -0.0054183733 -0.003715302 0.095293015 -0.17590839
0003e0 d5 3b fb bd 2f 2b 3f 3d 0a 69 bd bb d8 fd 8d bd
       -0.122672714 0.046672042 -0.005780344 -0.069331825
0003f0 08 6e 27 bd ec d2 1e be 24 a8 88 bd 47 c9 55 be
       -0.04087642 -0.15510148 -0.06672695 -0.20877562

fc1.bias f4 [128]
000000 64 5b 3f 3e b8 84 92 be c6 54 ca be 18 1f e0 3d
       0.18687207 -0.2861688 -0.39517802 0.10943431
000010 1c 78 af 3e 25 79 26 be e6 bd 6e be ca 62 30 be
       0.34271324 -0.1625715 -0.23314628 -0.17225185
000020 f8 66 3d 3e 70 01 25 3d a0 88 09 3d 3e 0f a2 3e
       0.1849631 0.040284574 0.03357756 0.31652254
000030 68 2f 7e 3d c3 3b 39 be 36 04 92 3e 68 94 c7 3e
       0.06205693 -0.18089204 0.28518838 0.38980412
000040 ec 3f c7 bd 18 ee a9 bd 60 16 12 bc 68 64 87 be
       -0.09728989 -0.08297366 -0.008916467 -0.2644379
000050 cc bb 19 3e 94 82 4d be 2c e6 c6 3e e0 e4 f3 3c
       0.15013045 -0.20069343 0.38847482 0.029772222
000060 40 31 a7 3c 18 e3 95 be f0 cd fe 3c 64 bc 57 3e
       0.020409226 -0.2927482 0.031104058 0.21067959
000070 26 57 72 be c2 70 b6 3e aa 22 81 3e 36 e2 83 be
       -0.23666057 0.35632902 0.2522176 -0.25758523
000080 30 8f 47 3d 68 7d 29 3d 84 0f ac be 8c cb 21 be
       0.04872054 0.041379362 -0.33605587 -0.15800303
000090 b4 b5 93 3e b4 1e 9f bd e0 26 5a 3d 14 b1 b8 3e
       0.28849566 -0.07769528 0.05325973 0.360726
0000a0 54 80 8f bd b4 54 bc 3e 88 16 08 bd 6c 9d 71 be
       -0.070068985 0.36783373 -0.033224612 -0.23595208
0000b0 8a 55 9b be f8 7a 0c 3e 18 7d 48 bd 20 db de 3d
       -0.303387 0.13718784 -0.048947424 0.108816385
0000c0 b0 a6 95 3e ca 57 a7 be 00 b2 3d 3b 14 2b 0d 3e
       0.29228735 -0.32684165 0.0028945208 0.13785964
0000d0 10 4c 55 3e e9 ad a6 be 7e d2 a6 be da f4 c4 3e
       0.20829797 -0.32554558 -0.32582468 0.38468057
0000e0 de fa 45 be 8a dd a8 3e fa 9c a9 3e 14 5e 99 bd
       -0.1933398 0.3298152 0.33127576 -0.07488647
0000f0 88 54 a5 3d 90 2b 50 3d af 12 c0 be d6 ab 64 be
       0.08072764 0.050822794 -0.37514254 -0.22331175
000100 d4 8f 9c 3d a8 7d 8a be 38 aa 7e 3e 68 26 b1 3e
       0.076446205 -0.27048993 0.24869621 0.34599614
000110 20 fd 24 bd 24 37 c2 3e b7 fb c2 be 82 16 96 be
       -0.04028046 0.37932694 -0.38082668 -0.29314047
000120 f0 4a a1 be b6 e4 b0 3e de 1f c8 3e f8 0f 2f 3e
       -0.31502485 0.34549493 0.39086813 0.17095935
000130 03 67 7d be a6 12 b0 be a0 5a ca 3c df 50 3b be
       -0.24746327 -0.34389228 0.024701416 -0.18292569
000140 98 eb 83 3e 0c ea ab 3e c8 61 77 3e 74 45 d0 bd
       0.2576568 0.33577 0.24158394 -0.10169497
000150 a2 32 83 be a2 ed 01 be d0 49 7d 3e bc 95 20 3e
       -0.25624567 -0.12688306 0.24735188 0.15682119
000160 e9 be 83 be 18 17 28 3d 40 5c eb bb c0 b1 df 3b
       -0.2573159 0.04103765 -0.007182628 0.0068266094
000170 6c 8a 9e 3e f5 4c 71 be 29 70 2f be 26 17 0f be
       0.30964983 -0.23564513 -0.1713263 -0.13973674
000180 40 54 14 3c 8e 7a af 3e 23 c8 46 be ba 0f 98 3e
       0.00905329 0.3427319 -0.19412284 0.29699498
000190 be 5b 51 be 27 a1 77 be 3a f3 97 be 96 97 d0 be
       -0.20445153 -0.24182568 -0.29677755 -0.4074065
0001a0 30 83 4f 3e f0 91 9d 3d a8 56 f3 3d 9c 0a 22 3e
       0.20264888 0.07693851 0.11881763 0.1582436
0001b0 fc 44 81 3e 55 93 c7 be 80 9d 57 3b dc 47 c4 be
       0.25247943 -0.38979593 0.0032900274 -0.38336074
0001c0 e0 1e 18 3e f0 70 ae bc c0 12 27 3d 30 97 f5 bd
       0.14855528 -0.021294087 0.040789366 -0.11991727
0001d0 4e 3d 10 be 5a f9 b6 be 38 4b 3c 3e 66 e5 c5 3e
       -0.14085886 -0.35737115 0.18388069 0.3865158
0001e0 64 f3 a9 be 38 f5 c5 3d c4 73 9f 3e 5c aa 6c 3e
       -0.33193505 0.096659124 0.3114301 0.23111862
0001f0 54 b8 13 3e d5 f3 94 be cc fd a9 bd b6 c7 c7 3e
       0.14425784 -0.2909228 -0.08300361 0.39019555

fc2.weight f4 [2, 128]
000000 56 17 a2 bd f9 32 14 bd 1e 85 43 bd 66 36 75 3d
       -0.07914607 -0.036181424 -0.047734372 0.05986633
000010 66 3a af bd 86 aa 0f bd 46 9d 05 3d 84 fd 86 bd
       -0.085560605 -0.035074733 0.03262069 -0.06591323
000020 60 ea 85 bd d4 d2 5d bd a0 0b cd bb 4f d6 99 3d
       -0.06538844 -0.05415614 -0.0062574893 0.07511579
000030 38 25 85 bd c0 52 75 bd 60 c8 9c 3b 76 c0 f0 bc
       -0.065012395 -0.05989337 0.0047846287 -0.029388648
000040 c8 2f a9 bd 19 75 ad 3d 3e da a6 bd a8 8e 0e 3d
       -0.08261067 0.084696 -0.08147095 0.034804016
000050 98 da 8c bd a4 ce 87 bd 84 70 d0 3c 2d 7b a3 bd
       -0.06877631 -0.066312104 0.025444277 -0.07982478
000060 15 5e 94 3d 0f b9 81 3d f9 e7 1a bd f8 33 62 3c
       0.07244507 0.06334125 -0.037818883 0.013806336
000070 04 a0 aa bc f8 1f bf 3c 76 53 70 3d fd 9e ab 3d
       -0.020828255 0.023330674 0.058673345 0.08379934
000080 80 1f 64 bc 26 f7 1f 3d ce 8b 3d 3d 26 d9 8a bd
       -0.013923526 0.03905406 0.046275906 -0.06779699
000090 1c 22 30 bd 70 e9 b4 3c 8f 2d 87 3d 77 15 9a 3d
       -0.04300128 0.022083968 0.066004865 0.07523625
0000a0 08 ae a0 bd cf 50 8a bd 90 00 c7 bb 60 73 c1 3c
       -0.07845694 -0.06753694 -0.006073065 0.023614585
0000b0 46 07 4a 3d 24 3a 0f 3d 60 b9 2c 3b d0 3f dc 3b
       0.049323343 0.034967557 0.002635561 0.006721474
0000c0 71 5b 0a bd af f3 9f 3d 96 7b 7d bd 78 fd 5d 3c
       -0.03377861 0.07810151 -0.06188544 0.013549201
0000d0 1a 45 61 3d 5b 30 03 bd 51 ed 56 bd b1 b5 90 3d
       0.05499754 -0.032028537 -0.052472416 0.07065905
0000e0 f0 27 ae bd c4 e8 db bc 40 9e ed bb 2a c4 4f 3d
       -0.08503711 -0.02684439 -0.007251531 0.050724186
0000f0 57 92 86 3d 3c d8 2c bd 7c c7 d4 bc fb 70 16 bd
       0.06570881 -0.042198405 -0.025974028 -0.03672884
000100 d4 57 71 bd 59 ff 8b bd d0 ce 82 3b 50 f5 43 bd
       -0.05892165 -0.06835813 0.003991939 -0.04784137
000110 42 8a 67 3d 3e dd 41 3d 25 71 8e 3d a0 12 6e bd
       0.056528337 0.047330134 0.06955174 -0.05812323
000120 86 56 6d bd 40 7d 09 bc 40 dc 57 3c 28 bc 34 3c
       -0.057943843 -0.008391678 0.01317507 0.011031188
000130 e2 36 20 3d f8 02 8b bd 4a 78 19 3d 4a cb 91 bd
       0.03911484 -0.067876756 0.037468232 -0.071188524
000140 6e 3e 6b 3d 9e 39 64 3d 90 aa 14 bc b2 a4 da bc
       0.057432584 0.05571901 -0.009073868 -0.026689861
000150 0b 25 a5 3d 9d 75 a8 bd 60 0c 26 bc 18 b0 eb bc
       0.08063706 -0.08225558 -0.010134786 -0.028770491
000160 84 37 79 bd 07 31 87 3d b2 e9 05 3d c0 1a ac ba
       -0.06084396 0.06601148 0.032693572 -0.0013130531
000170 bd bb 4c bd 1a 8d e9 bc 41 07 8f 3d 47 6e a6 3d
       -0.04998373 -0.028509665 0.069838054 0.081265025
000180 02 cd 4a 3d 00 96 75 39 be ea 38 3d 68 a3 83 bd
       0.049511917 0.000234209 0.045145743 -0.06427652
000190 60 71 a6 bd b0 40 b6 3b e4 e4 93 3c 00 84 e4 bc
       -0.08127093 0.0055619106 0.01805348 -0.027894974
0001a0 5e 2a 73 bd 41 df a2 3d 69 39 7a bd ae 1c 1b 3d
       -0.059366576 0.079527386 -0.061089907 0.037869148
0001b0 e3 ca a7 3d 55 83 9e bd 98 5d 31 3c a0 26 f6 3b
       0.081929944 -0.07739893 0.010825537 0.0075119287
0001c0 e3 f7 7c bd 03 b9 80 3d 65 ba 10 bd 64 8d fd 3c
       -0.06175984 0.06285288 -0.03533401 0.03095121
0001d0 d0 e8 9c bc 48 3d bd bc d8 57 ae bd ee 7f 7d 3d
       -0.019153982 -0.02310051 -0.085128486 0.06188958
0001e0 78 b1 2a bc 1a 60 da bc f8 f0 1f bc 03 10 2a bd
       -0.010418288 -0.026657153 -0.009762041 -0.041519176
0001f0 95 aa af bd c0 a9 b0 bc 19 de 90 bd 6c 65 12 3d
       -0.08577458 -0.021565318 -0.07073612 0.035741255
000200 60 11 b8 bc f6 b6 41 3d a5 90 a8 3d 2d cd 97 3d
       -0.022469223 0.047293626 0.08230714 0.07412181
000210 f2 6f a1 bd 08 52 99 3c fc d0 f1 bc d5 0e a2 3d
       -0.0788268 0.018715873 -0.029518597 0.07912985
000220 f9 b8 85 3d d3 23 a2 3d e6 e5 67 bd a9 1e 94 3d
       0.06529421 0.07916989 -0.056615733 0.072324105
000230 80 25 f7 3c 04 6b 8b bd 8c 39 ee 3c d8 17 a3 3c
       0.030169249 -0.06807521 0.029080175 0.01990883
000240 a8 ec e0 3c 90 97 8b 3c 6e 03 7e bd e0 31 0c bc
       0.027456596 0.017040044 -0.06201499 -0.008556813
000250 4a e6 32 3d c1 75 af bd 80 c3 e0 ba 80 93 be 3c
       0.043676652 -0.08567382 -0.0017148107 0.023263693
000260 e0 a6 b9 bc 78 03 e2 3c 20 2a a3 3b ff a0 8e 3d
       -0.02266258 0.027589545 0.004979387 0.06964301
000270 6c d3 8b bc 00 87 61 bc a2 61 64 3d 40 a6 05 3c
       -0.017068587 -0.013765097 0.055757172 0.008157313
000280 c5 d9 06 bd 29 51 8c 3d 33 ff 99 3d 00 db 3b 3a
       -0.032922525 0.068514176 0.075193785 0.00071661174
000290 80 2a cc bb f0 d8 ae 3c de c5 73 3d 95 2d 81 bd
       -0.0062306523 0.021343678 0.059514873 -0.06307522
0002a0 e4 5f 22 bd 9e 50 77 bd 3d d3 9c 3d ea d8 45 3d
       -0.03964223 -0.060379617 0.07657478 0.04830257
0002b0 48 ae 8e bd 80 1e 2f ba 3c ff a7 bc e5 18 8b 3d
       -0.06966835 -0.0006680265 -0.020507447 0.06791858
0002c0 3c 19 bd 3c 2c 4a b3 bd d4 fc 84 3c 92 9c 69 3d
       0.023083322 -0.087543815 0.01623384 0.057034083
0002d0 20 72 d7 bb f3 90 91 3d 34 98 88 3c c8 51 a1 bc
       -0.006574884 0.07107725 0.016674139 -0.019692317
0002e0 a9 b1 9f bd da c0 4c bd 7a 37 00 bd 58 de be bc
       -0.07797558 -0.049988605 -0.031302907 -0.023299381
0002f0 33 84 b4 bd 20 cd 5e bc bd 14 9a 3d dc 37 c2 3c
       -0.088142775 -0.01359871 0.07523487 0.023708276
000300 04 d4 f9 bc 15 2f 17 bd dc f2 92 3c 1e dd 1a 3d
       -0.030496605 -0.036910135 0.01793807 0.03780853
000310 a2 d8 2f 3d 10 31 af bc b6 f1 42 3d e0 60 64 3b
       0.042931207 -0.0213857 0.047593795 0.003484778
000320 92 32 40 3d 86 bd 2f bd 40 3d 97 bb 7c f3 a5 bc
       0.046923228 -0.042905353 -0.004615456 -0.020257704
000330 68 6e c3 bc c0 75 43 bb 68 3e ad bd 74 60 2f bd
       -0.023856357 -0.0029824823 -0.08459169 -0.042816594
000340 76 9d 97 bd b3 21 ac bd 7c 6e e9 3c 20 14 0d 3b
       -0.0740308 -0.08404865 0.028495066 0.0021526888
000350 64 a9 0a 3d 50 33 97 bc 12 7d 8e bd cc 57 8f bc
       0.03385295 -0.018457085 -0.06957449 -0.01749792
000360 57 7d 9f bd a4 74 2e bd af 12 9a 3d 09 d2 30 bd
       -0.077875786 -0.042591706 0.07523095 -0.043169055
000370 88 5f 12 3c c0 44 c1 bc 2c 2b 12 3d c7 a2 0d bd
       0.008933909 -0.023592353 0.035685703 -0.034579065
000380 e3 be a8 3d a2 9d 60 3d 36 47 70 3d cd e5 8e 3d
       0.08239534 0.05483783 0.058661662 0.06977425
000390 64 b5 fe 3c 88 01 42 3c 78 72 04 3c d9 16 96 3d
       0.031092353 0.011841185 0.008083932 0.073285766
0003a0 e3 7a 82 3d 4e 64 2a 3d e6 ae db bc d3 b4 5a bd
       0.06371095 0.041599564 -0.026816797 -0.053395104
0003b0 8f bd 39 bd 45 92 a4 3d 31 1f 17 bd 14 7e 9d 3c
       -0.045346793 0.08035711 -0.03689498 0.019225158
0003c0 c0 cb 39 3b 87 15 85 3d e8 c2 6d bc e0 c2 5f bd
       0.0028350204 0.06498247 -0.014511801 -0.054629207
0003d0 3f 6b b3 bd f2 46 58 3d 9a ae 72 bd 53 17 a4 3d
       -0.0876069 0.052802034 -0.059248544 0.08012261
0003e0 1d ba ab bd 47 85 1a bd 4c 98 a0 3c 0c fd 0f bd
       -0.08385108 -0.03772476 0.01960387 -0.035153434
0003f0 20 bc 52 3b 77 16 8e 3d e8 c7 67 3c c8 1d a1 bc
       0.0032155588 0.069378786 0.014146782 -0.019667521

fc2.bias f4 [2]
000000 4c 77 a0 bd 63 d6 af 3d
       -0.07835254 0.08585813
