IA/best_model.pth (torch, 6696 bytes, 4 tensors)

fc1.weight f4 [128, 6]
0.16533399 -0.0729928 0.0887773 -0.32728034 -0.20254466 0.1526618 -0.1588734 -0.22428353
-0.095615596 -0.09447557 -0.07650149 0.36851603 0.18822229 -0.11602214 0.018125057 -0.03895399
0.22888196 0.076056 0.20905137 -0.15283075 0.06308776 0.28026783 0.013780206 -0.09268564
0.23982155 -0.2184466 0.23202467 -0.3059854 0.2681672 0.40408045 0.20451146 0.114540994
-0.29044926 -0.30273554 0.3638692 -0.36780423 -0.3958633 -0.19052115 -0.23755619 0.21044248
-0.28876665 -0.18214361 -0.17373122 -0.38542417 -0.20850506 -0.24380085 0.026943177 -0.40036777
0.3054073 -0.23730828 0.061558098 0.017088294 -0.34709224 -0.2291133 0.3365395 -0.272893
-0.12902951 0.012387246 0.28441668 -0.06397718 0.17275304 -0.1598955 -0.13518375 -0.32386178
-0.29390603 -0.19907856 -0.28629613 -0.37550282 0.2659191 -0.3970777 0.03405851 -0.38289067
-0.025508702 -0.13861108 0.26736444 -0.3398118 -0.22660173 0.19379151 0.12376982 -0.12173343
-0.12617972 -0.23313713 -0.14478707 -0.38284042 0.20110106 -0.3895776 -0.35694176 -0.32482922
-0.15770188 0.19789386 -0.24142954 0.11782181 0.32618803 -0.059632003 0.28735155 0.06585583
0.25544578 0.26509494 0.045453012 0.1638965 -0.24496496 -0.045323074 -0.19857705 0.27573276
-0.17055634 -0.3698104 -0.036961854 -0.21975103 0.36801827 0.18769294 0.30208194 0.22543031
0.30893964 0.2928365 0.05532989 0.12369174 -0.19394214 0.3058983 -0.086548805 0.113714635
0.0012889802 -0.29332063 -0.34294564 -0.21695657 0.39492625 -0.12122047 -0.13790935 0.040527254
0.24975532 0.34524179 0.04432234 0.22098988 0.31325197 0.36419278 -0.111827165 -0.27073237
-0.21933517 -0.3072381 0.16011667 -0.029459208 0.19991219 -0.013627976 0.067955285 0.21241957
0.057447135 0.06116268 0.08099043 -0.22528179 -0.39958063 0.061775506 0.059939593 -0.2171632
0.062874675 -0.1791796 0.074680805 0.3963856 -0.093704164 0.38288403 0.18474084 0.15151429
-0.13468462 -0.20030443 0.24643523 0.13959539 0.227027 0.116737366 0.28213745 0.23850155
-0.33663684 0.27996385 0.029663712 -0.29403943 0.07913777 0.037873834 0.04884413 0.36398804
0.28229797 -0.36391142 0.021877259 -0.3361578 -0.011059761 0.15985328 -0.34181654 -0.10656977
0.07441503 0.3145284 -0.09212613 -0.3864986 -0.15093824 0.34838384 -0.30420583 0.27842706
0.029351562 0.11550391 -0.18640319 -0.34061253 0.054361552 0.27623487 -0.10339564 -0.0010831952
-0.3795727 0.14468175 0.21944267 0.0075758994 0.057784855 0.10514581 0.21542782 -0.20558679
0.15545934 0.38886958 -0.33378616 0.16273767 0.001688391 0.040921777 -0.33931813 -0.15062517
0.056488663 -0.043129474 -0.020871997 -0.12694064 0.05613777 0.052820235 -0.013835818 -0.26034343
-0.114975035 0.33602452 0.26958704 -0.37932652 0.33356506 -0.10854554 0.20011437 -0.2848532
0.27509695 -0.18190159 -0.004314661 -0.3373302 0.36201918 0.03610015 -0.083275825 0.12564433
-0.3708226 -0.077846795 -0.2901684 -0.20994662 -0.1568098 0.3742844 -0.33234912 -0.35881174
-0.025653988 0.281174 0.11175597 0.0072535276 -0.046857744 -0.039420307 -0.342152 -0.051857114
00000000: 504d 293e 407d 95bd e0d0 b53d 4a91 a7be
00000010: de67 4fbe 6053 1c3e b5af 22be 95aa 65be
00000020: 1cd2 c3bd 687c c1bd d0ac 9cbd 22ae bc3e
00000030: 58bd 403e 049d edbd 007b 943c 388e 1fbd
00000040: 0860 6a3e 40c3 9b3d 9011 563e aa7f 1cbe
00000050: 2834 813d 447f 8f3e 60c6 613c f8d1 bdbd
00000060: c893 753e 77b0 5fbe e097 6d3e 1eaa 9cbe
00000070: 364d 893e a2e3 ce3e 746b 513e 7894 ea3d
00000080: c4b5 94be 2700 9bbe 104d ba3e d650 bcbe
00000090: 98ae cabe fa17 43be ee41 73be 3c7e 573e
000000a0: 39d9 93be db83 3abe 99e6 31be 5156 c5be
000000b0: 5a82 55be eea6 79be f0b7 dc3c 01fd ccbe
000000c0: 585e 9c3e f100 73be 5824 7c3d c0fc 8b3c
000000d0: 13b6 b1be ad9c 6abe e84e ac3e a2b8 8bbe
000000e0: 5020 04be e0f3 4a3c 109f 913e 7806 83bd
000000f0: 2ce6 303e a5bb 23be 9c6d 0abe 36d1 a5be
00000100: da7a 96be 40db 4bbe 6895 92be e841 c0be
00000110: 8c26 883e c54d cbbe f080 0b3d 3f0a c4be
00000120: a0f7 d0bc 10f0 0dbe fee3 883e d0fb adbe
00000130: 490a 68be 4871 463e 087b fd3d 604f f9bd
00000140: 4235 01be 80bb 6ebe 1043 14be a903 c4be
00000150: 70ed 4d3e b776 c7be 12c1 b6be 0450 a6be
00000160: 9a7c 21be b0a4 4a3e 4e39 77be 904c f13d
00000170: 1e02 a73e b040 74bd be1f 933e 6cdf 863d
00000180: cac9 823e 86ba 873e f02c 3a3d 7cd4 273e
00000190: 18d8 7abe b0a4 39bd c857 4bbe d82c 8d3e
000001a0: 52a6 2ebe ca57 bdbe 5065 17bd 6a06 61be
000001b0: e46c bc3e 9432 403e 7caa 9a3e 34d7 663e
000001c0: 562d 9e3e aaee 953e 98a1 623d 1852 fd3d
000001d0: c598 46be b49e 9c3e 8040 b1bd 38e3 e83d
000001e0: 00f3 a83a 1f2e 96be 9296 afbe dd29 5ebe
000001f0: c633 ca3e 7042 f8bd 1c38 0dbe e8ff 253d
00000200: dcbf 7f3e 88c3 b03e 588b 353d 2c4b 623e
00000210: 9062 a03e 7a77 ba3e a405 e5bd 6f9d 8abe
00000220: 6699 60be 504e 9dbe a0f5 233e 7054 f1bc
00000230: c8b5 4c3e e047 5fbc 242c 8b3d 8484 593e
00000240: b04d 6b3d b885 7a3d 50de a53d 45b0 66be
00000250: d595 ccbe 5008 7d3d 3883 753d 0860 5ebe
00000260: 70c4 803d db7a 37be 40f2 983d 0ef3 ca3e
00000270: f8e7 bfbd 6009 c43e b42c 3d3e 9026 1b3e
00000280: c4ea 09be 9b1c 4dbe 8459 7c3e 18f2 0e3e
00000290: c479 683e 0014 ef3d 5274 903e c039 743e
000002a0: aa5b acbe 6c57 8f3e 5001 f33c 568c 96be
000002b0: fc12 a23d 9821 1b3d c810 483d a45c ba3e
000002c0: 5c89 903e 9952 babe f037 b33c e01c acbe
000002d0: 0034 35bc 94b0 233e 9402 afbe 4041 dabd
000002e0: e866 983d de09 a13e a0ac bcbd 25e3 c5be
000002f0: 8e8f 1abe 5e5f b23e dec0 9bbe fe8d 8e3e
00000300: b072 f03c 508d ec3d 7ae0 3ebe c464 aebe
00000310: 38aa 5e3d a86e 8d3e 18c1 d3bd 00fa 8dba
00000320: 5a57 c2be 7427 143e 94b5 603e 403f f83b
00000330: d0af 6c3d b056 d73d 1c99 5c3e 5885 52be
00000340: bc30 1f3e ea19 c73e 05e6 aabe b4a4 263e
00000350: 004d dd3a 989d 273d 1bbb adbe 7c3d 1abe
00000360: a860 673d 88a8 30bd c0fb aabc bafc 01be
00000370: b8f0 653d 085a 583d a0af 62bc bc4b 85be
00000380: 0878 ebbd 680b ac3e 5007 8a3e 1637 c2be
00000390: 0ac9 aa3e 204d debd c8ea 4c3e 47d8 91be
000003a0: 82d9 8c3e 6944 3abe 0062 8dbb 8bb6 acbe
000003b0: 945a b93e c0dd 133d 848c aabd e8a8 003e
000003c0: 76dc bdbe 246e 9fbd f490 94be 3ffc 56be
000003d0: c092 20be 34a2 bf3e aa29 aabe 2cb6 b7be
000003e0: 5028 d2bc 0af6 8f3e 50e0 e43d 00af ed3b
000003f0: e8ed 3fbd 3077 21bd 8c2e afbe 2068 54bd

fc1.bias f4 [128]
-0.20269339 -0.27544785 -0.0148715675 -0.29479575 -0.07933295 -0.036693156 0.27798557 0.3589952
0.31977254 0.32326204 -0.06904191 0.05004105 0.026576132 0.27444798 0.20119351 -0.2606495
-0.26655155 0.35781544 -0.30584508 0.007578373 0.15845108 0.16261548 0.31337398 -0.11774638
0.17727208 0.20059049 0.1461783 0.20314962 0.20157057 -0.1935166 -0.06708005 -0.091487676
0.34996182 0.062452167 -0.030535966 -0.10308942 -0.32225734 0.3595416 -0.33650193 -0.20282066
0.17150873 -0.3975926 0.121284306 0.398367 0.26556426 -0.24390976 -0.05011931 -0.30897805
-0.053953975 -0.1619652 0.33772874 0.079645514 -0.37974975 0.1945489 -0.24507144 -0.07610232
0.30696672 -0.12756425 0.34445596 0.21704155 -0.34482077 0.3015647 -0.3234819 0.29448748
0.2622059 -0.35088986 -0.054374605 0.13400441 0.18406457 -0.40531203 -0.17991598 0.31704092
0.0071389973 0.26576763 0.22405934 0.13510269 0.2524407 -0.18100281 0.1770382 -0.24061763
0.05651197 0.14199579 0.21623248 -0.011484861 0.31310934 -0.39354497 0.02778092 -0.0824773
0.31372666 -0.13165915 -0.046737254 0.041573882 0.32966143 0.23469889 0.08683416 -0.08438215
0.19132924 0.13821608 -0.11386499 0.10345578 0.0976634 0.38201272 -0.0027888715 0.02840498
-0.21671012 0.19373083 0.30649686 0.3591575 -0.3922196 -0.062943876 -0.102627695 0.14575994
-0.21148494 -0.10945317 -0.28356197 -0.1502445 -0.21495217 0.25643772 -0.17114604 0.08115098
0.3035617 -0.038547456 -0.34577307 0.07943812 0.0044459105 0.20156413 -0.13981178 0.12274879
00000000: db8e 4fbe 8007 8dbe e0a7 73bc 78ef 96be
00000010: 5079 a2bd 904b 16bd 2054 8e3e 38ce b73e
00000020: 3ab9 a33e 9a82 a53e d865 8dbd d8f7 4c3d
00000030: 30b6 d93c 7284 8c3e ac05 4e3e da73 85be
00000040: 7279 88be 9633 b73e ba97 9cbe 0054 f83b
00000050: 0041 223e ac84 263e 8e72 a03e 0425 f1bd
00000060: d086 353e 9867 4d3e c4af 153e 7406 503e
00000070: 8468 4e3e 3729 46be 4461 89bd e45d bbbd
00000080: 322e b33e d8cd 7f3d 9026 fabc 8c20 d3bd
00000090: eafe a4be d615 b83e fb49 acbe 38b0 4fbe
000000a0: fc9f 2f3e 4291 cbbe e863 f83d c2f6 cb3e
000000b0: 0af8 873e 7bc3 79be e849 4dbd 5f32 9ebe
000000c0: d8fe 5cbd 35da 25be c8ea ac3e 301d a33d
000000d0: 8f6e c2be d437 473e 02f4 7abe 88db 9bbd
000000e0: be2a 9d3e 34a0 02be 885c b03e 2440 5e3e
000000f0: 598c b0be b066 9a3e 6b9f a5be 10c7 963e
00000100: da3f 863e d6a7 b3be e8b7 5ebd 7438 093e
00000110: 6c7b 3c3e 0f85 cfbe e53b 38be 3053 a23e
00000120: 40ee e93b b212 883e d06f 653e 5c58 0a3e
00000130: e83f 813e cd58 39be 8049 353e 7864 76be
00000140: 1879 673d 5867 113e 0c6c 5d3e 002b 3cbc
00000150: de4f a03e ba7e c9be d094 e33c dce9 a8bd
00000160: c8a0 a03e a8d1 06be 906f 3fbd 6049 2a3d
00000170: 62c9 a83e e854 703e 1cd6 b13d 8cd0 acbd
00000180: d0eb 433e 8488 0d3e 0c32 e9bd a0e0 d33d
00000190: c003 c83d 2c97 c33e 80c5 36bb 90b1 e83c
000001a0: 42e9 5dbe 6061 463e 28ed 9c3e 7ee3 b73e
000001b0: 02d1 c8be b8e8 80bd 782e d2bd 1842 153e
000001c0: 828f 58be fc28 e0bd 092f 91be b2d9 19be
000001d0: 6c1c 5cbe ce4b 833e e840 2fbe 7c32 a63d
000001e0: 706c 9b3e f0e3 1dbd 2b09 b1be 74b0 a23d
000001f0: 00af 913b d466 4e3e d22a 0fbe b863 fb3d

fc2.weight f4 [2, 128]
0.03410189 0.05835811 -0.07708446 0.018067017 0.0033816844 0.014952488 -0.013758607 -0.08802678
-0.048576064 -0.0017338544 -0.03191174 0.052747615 -0.08615719 -0.032103717 -0.082395725 0.023815975
0.0643445 0.010831498 -0.03573724 0.062139787 0.051368974 0.06233617 -0.024002165 -0.0683955
0.023066513 0.010862306 0.0649065 0.08185505 -0.0692207 -0.061042152 -0.051091854 -0.07298949
0.08082784 0.045120455 0.016522132 0.033341214 -0.0027281865 0.031009778 0.07687559 -0.008312978
-0.028600786 0.060753606 -0.0318949 0.02070874 -0.05091518 -0.019223318 -0.016653076 0.07247531
-0.0641008 -0.06865898 -0.020413086 0.041762747 0.057965778 0.0028680414 0.033474162 0.039780118
0.069206364 0.046992205 0.084791 0.0012534857 -0.066482455 0.031372726 0.058792315 0.014652342
0.06428345 -0.037735023 -0.04888002 0.06442887 -0.050004948 -0.072647214 -3.0629337e-05 0.030607484
0.029788084 0.06491775 -0.032469224 -0.027130011 -0.07250736 0.022294208 0.009008244 -0.043981638
-0.0694877 -0.065174125 -0.0010979772 -0.038251087 0.0067711994 0.07555493 0.0136998445 0.029025562
-0.045040302 0.08799138 -0.03869168 0.021122687 -0.014340915 0.02011203 -0.010332838 -0.058227956
-0.04718247 0.04463903 -0.013745941 0.06783771 -0.08575712 -0.078178376 -0.0758765 0.024321437
-0.05635433 -0.053384714 -0.081253886 -0.071251005 0.08524213 -0.017391883 0.0119340345 0.06207066
0.009482145 0.05376347 0.070657335 0.07825019 0.017441317 -0.044452384 -0.0160067 -0.034653842
-0.04407688 -0.006341614 0.020932756 -0.030359756 -0.07156168 0.026574075 0.083062075 -0.07006538
-0.05874297 0.08471122 0.086607836 -0.05311708 0.044005416 0.044823624 -0.007133372 0.07264619
0.012382269 -0.0063388944 0.07343099 -0.0104069635 -0.0848433 0.03934229 -0.05215842 -0.06453683
-0.031543005 0.06607098 0.04197509 0.067007326 0.08388614 -0.002134487 -0.02726255 0.07219898
0.04318694 -0.07688677 -0.029583704 -0.033014596 0.08630773 -0.022712149 0.002674967 -0.08449132
0.06961531 0.022427969 0.042884283 0.08527105 0.032766655 -0.08697851 0.06047743 -0.01702717
0.03743892 0.065914415 -0.031786572 0.0011012554 -0.026806597 -0.038846876 0.038702168 -0.06293389
0.004385583 -0.04306706 -0.08161184 -0.037357006 0.008947745 -0.04053768 -0.070990644 0.06727447
-0.06383393 0.04661309 -0.06687892 -0.05116051 0.07907637 0.08017544 -0.063661546 -0.007708028
-0.06390267 0.052419074 0.022669598 -0.08230928 -0.031714175 0.0760402 -0.06023069 -0.0060349777
-0.04957858 0.06433245 -0.047249474 -0.08020822 -0.055524245 0.019277796 -0.042325784 0.0208437
0.017108098 -0.038931105 0.005461991 -0.040450405 0.057339303 0.019710511 0.047924407 -0.06377591
-0.008791484 -0.021728262 0.06645455 0.052265875 0.03370633 -0.080319576 0.06288069 0.034118608
-0.009231068 0.025020584 0.039025523 -0.082093686 -0.07457415 0.006200999 0.08584621 -0.0260255
0.055335827 -0.014400862 0.04788149 0.0755169 0.0070888475 0.058379553 0.044242643 -0.024612077
-0.012948975 -0.021556713 -0.052799284 0.021061338 -0.0022333264 0.05961149 0.08405077 -0.060334604
0.056607 -0.0053946674 -0.035373334 -0.016702235 -0.07091586 -0.063533224 0.0462744 0.08698607
00000000: 6cae 0b3d ea08 6f3d 75de 9dbd 4801 943c
00000010: 409f 5d3b 48fb 743c c86b 61bc 6247 b4bd
00000020: b2f7 46bd 8042 e3ba e2b5 02bd e20d 583d
00000030: 2e73 b0bd 307f 03bd 17bf a8bd b819 c33c
00000040: 0dc7 833d 9876 313c 3661 12bd 4a86 7e3d
00000050: 4668 523d 3654 7f3d 30a0 c4bc f112 8cbd
00000060: fcf5 bc3c d0f7 313c b3ed 843d 9fa3 a73d
00000070: 95c3 8dbd 5607 7abd b145 51bd 847b 95bd
00000080: 1189 a53d 3ad0 383d 6c59 873c cc90 083d
00000090: 60cb 32bb 3808 fe3c f370 9d3d 2833 08bc
000000a0: 324c eabc c6d8 783d 3aa4 02bd 60a5 a93c
000000b0: 708c 50bd 387a 9dbc 086c 88bc ef6d 943d
000000c0: 4847 83bd 149d 8cbd 5839 a7bc 6a0f 2b3d
000000d0: 866d 6d3d c0f5 3b3b 341c 093d 7af0 223d
000000e0: 11bc 8d3d e67a 403d e7a6 ad3d 004c a43a
000000f0: f427 88bd b080 003d 36d0 703d 6010 703c
00000100: 0ba7 833d 0a90 1abd 6a36 48bd 49f3 833d
00000110: fdd1 4cbd 10c8 94bd 0078 00b8 8cbc fa3c
00000120: 2406 f43c 99f3 843d 73fe 04bd c23f debc
00000130: bd7e 94bd 58a2 b63c 5097 133c 1726 34bd
00000140: 914f 8ebd 037a 85bd 00ea 8fba 2cad 1cbd
00000150: f0e0 dd3b 8bbc 9a3d 5075 603c 04c7 ed3c
00000160: 2e7c 38bd d334 b43d 2b7b 1ebd 7c09 ad3c
00000170: 28f6 6abc fcc1 a43c 104b 29bc 7080 6ebd
00000180: 6842 41bd 6ad7 363d a836 61bc 7fee 8a3d
00000190: 6ea1 afbd fc1b a0bd 2365 9bbd c03d c73c
000001a0: ccd3 66bd eea9 5abd 7068 a6bd 0cec 91bd
000001b0: 6d93 ae3d 6c79 8ebc f886 433c ce3d 7e3d
000001c0: 005b 1b3c 1637 5c3d cbb4 903d a341 a03d
000001d0: 18e1 8e3c b413 36bd 7c20 83bc 30f1 0dbd
000001e0: f589 34bd 50cd cfbb 2c7b ab3c 06b5 f8bc
000001f0: ee8e 92bd e0b1 d93c 731c aa3d 707e 8fbd
00000200: 789c 70bd 137d ad3d 735f b13d 4c91 59bd
00000210: 063f 343d fa98 373d 10bf e9bb 87c7 943d
00000220: 00df 4a3c 80b6 cfbb fd62 963d f881 2abc
00000230: 53c2 adbd 6225 213d 11a4 55bd e32b 84bd
00000240: 3d33 01bd 3950 873d 12ee 2b3d 233b 893d
00000250: 7fcc ab3d c0e2 0bbb b655 dfbc 0fdd 933d
00000260: cae4 303d d076 9dbd 8659 f2bc 503a 07bd
00000270: 1bc2 b03d d40e babc 804e 2f3b c909 adbd
00000280: 7992 8e3d dcba b73c 6ea7 2f3d 97a2 ae3d
00000290: 5436 063d ca21 b2bd 2eb7 773d 907c 8bbc
000002a0: 8e59 193d 23fe 863d a332 02bd 0058 903a
000002b0: 8299 dbbc e71d 1fbd 2a86 1e3d 7ce3 80bd
000002c0: f0b4 8f3b 1667 30bd 1c24 a7bd a903 19bd
000002d0: 9099 123c d70a 26bd 8b63 91bd 33c7 893d
000002e0: 5dbb 82bd 5eed 3e3d d1f7 88bd af8d 51bd
000002f0: cbf2 a13d 0533 a43d fc60 82bd a093 fcbb
00000300: 67df 82bd 62b5 563d 98b5 b93c c591 a8bd
00000310: b9e6 01bd f7ba 9b3d 75b4 76bd 10c1 c5bb
00000320: e912 4bbd bbc0 833d aa88 41bd 3544 a4bd
00000330: 646d 63bd 78ec 9d3c cd5d 2dbd 68c0 aa3c
00000340: 4826 8c3c 3976 1fbd 80fa b23b 53af 25bd
00000350: 9edc 6a3d f077 a13c 624c 443d f29c 82bd
00000360: 280a 10bc 78ff b1bc 5319 883d be14 563d
00000370: a60f 0a3d 977e a4bd 97c7 803d f4bf 0b3d
00000380: e83d 17bc f8f7 cc3c 3ad9 1f3d bc20 a8bd
00000390: 55ba 98bd c031 cb3b 23d0 af3d 6e33 d5bc
000003a0: d2a7 623d 98f1 6bbc 621f 443d 9ba8 9a3d
000003b0: 9049 e83b 661f 6f3d c637 353d 449f c9bc
000003c0: f027 54bc b497 b0bc 1044 58bd d488 ac3c
000003d0: 005d 12bb 2e2b 743d cf22 ac3d 6b21 77bd
000003e0: bedc 673d c0c5 b0bb a1e3 10bd 20d3 88bc
000003f0: 563c 91bd b51d 82bd 3a8a 3d3d c125 b23d

fc2.bias f4 [2]
0.0011472777 0.086526774
00000000: 4060 963a f334 b13d
