IA/best_model.pth (torch, 7016 bytes, 4 tensors)

fc1.weight f4 [128, 6]
-0.09882455 0.03698757 -0.05905742 0.012948964 0.009724372 0.054542102 0.00814143 -0.0050605778
0.012672797 -0.0054982235 0.10396099 0.011038412 0.12052475 -0.0058107628 0.013453612 -0.035898566
-0.08133635 0.068611994 -0.010009645 -0.031046852 -0.07115418 -0.021781085 0.030582484 -0.008606382
-0.016153002 0.06035289 0.15406565 0.08333993 -0.08636264 0.020346526 0.036459416 -0.18954428
0.22213858 -0.025680166 0.060607847 0.077034935 -0.0924132 0.15791768 0.086804874 -0.053882033
-0.063340634 0.01983719 -0.13583383 -0.030150156 -0.027028173 0.013126562 -0.07366127 0.10065989
0.010755521 -0.05393311 0.017148852 0.033848472 -0.06392152 -0.1447702 -0.010859931 0.10693174
-0.048443362 0.123701245 0.0940161 0.06298125 0.09398617 -0.08902094 0.08038084 -0.0031604175
0.03155568 -0.10946599 0.028331155 -0.019834017 0.0036622668 0.019123334 -0.11128696 -0.027247265
-0.066265225 -0.09422861 0.106801435 0.022634372 -0.12623087 0.13873203 0.2749328 -0.17069954
-0.15392153 -0.039669257 -0.035021536 0.111864835 0.1409004 -0.13038501 -0.058325082 0.053710118
-0.17690046 -0.06918047 -0.1163663 -0.07857072 0.059264835 -0.12438318 -0.16898549 -0.0056380015
0.09960188 -0.03741774 0.13168025 0.045364015 -0.05401104 -0.1991805 -0.05065672 0.12661716
0.012647312 -0.040381677 0.04449748 0.013494532 0.12497448 -0.052292082 0.0702892 -0.0007694345
0.19805332 -0.07928087 -0.1739448 0.16571784 0.007309126 -0.012600534 -0.028048271 0.11607802
-0.011838538 -0.041877087 0.020670809 -0.08617377 -0.058383994 -0.008260724 0.07150355 -0.053522944
-0.08504462 0.008863748 -0.023748506 -0.114319354 0.2172605 -0.0339913 0.02167812 -0.064810455
-0.043095708 0.15515997 0.041219242 0.05958713 0.042620707 -0.15946668 0.008703218 -0.20038319
-0.10637586 0.100102395 -0.031588342 -0.08723973 0.0293633 -0.042952936 -0.1758287 -0.061697215
-0.036114335 0.07041792 -0.088036984 0.051242393 0.03458026 0.04267866 0.031297073 0.011997817
-0.045273326 -0.09326649 0.004100757 0.07264677 -0.028194813 -0.053313527 -0.008001236 0.050910108
0.06621334 -0.23544645 0.035753485 -0.07631631 0.13903977 0.0023542326 -0.019359749 -0.03292454
-0.19498509 0.036051057 -0.0052425005 0.01308017 0.02801798 0.14765686 -0.0014764061 -0.06518082
0.08860843 0.14761326 0.08497925 -0.11550924 -0.025163045 0.18667755 -0.12349829 -0.11233758
-0.0734243 0.026026506 -0.0069027245 -0.061809123 -0.096608534 0.13163038 0.010496879 -0.070032485
-0.15109694 0.00648302 -0.022139281 0.051227227 0.13191055 -0.057477977 0.10383693 -0.06941497
0.12000342 0.011932647 0.12572792 0.13003166 0.07907888 -0.046142403 0.007372403 0.12335288
-0.0153879225 0.0102327 0.040945657 0.05521317 -0.008338807 0.10102833 0.047910072 -0.01910427
-0.043230653 -0.07870747 0.073534265 0.17035258 -0.03770026 -0.10467492 -0.11885564 -0.070992
0.035701923 0.010094377 0.08260587 0.087864526 -0.05853107 -0.044972196 -0.020671874 -0.021862932
-0.06855131 0.16473252 -0.029890299 -0.08736476 0.0012762068 0.034984138 -0.023704195 0.06477713
-0.06492287 -0.07557951 0.0032919217 -0.025746007 -0.041568805 0.022400491 -0.06010774 0.076047055
00000000: 8764 cabd 4780 173d 31e6 71bd e427 543c
00000010: f952 1f3c 8a67 5f3d a263 053c 34d3 a5bb
00000020: 90a1 4f3c 712a b4bb 80e9 d43d 75da 343c
00000030: aed5 f63d 3668 bebb 8a6c 5c3c 600a 13bd
00000040: ac93 a6bd 7284 8c3d 7eff 23bc f855 febc
00000050: 48b9 91bd 3f6e b2bc 1e88 fa3c c801 0dbc
00000060: 4d53 84bc 9834 773d 63c3 1d3e 20ae aa3d
00000070: e5de b0bd c2ad a63c 7856 153d e517 42be
00000080: 4c78 633e 365f d2bc ef3f 783d 7ec4 9d3d
00000090: 2243 bdbd 2cb5 213e c1c6 b13d 68b3 5cbd
000000a0: bcb8 81bd 9a81 a23c 0618 0bbe 76fd f6bc
000000b0: 306a ddbc cb10 573c b8db 96bd c626 ce3d
000000c0: ed37 303c f7e8 5cbd c07b 8c3c b2a4 0a3d
000000d0: 49e9 82bd a43e 14be daed 31bc 07ff da3d
000000e0: 8c6c 46bd 1457 fd3d 838b c03d 50fc 803d
000000f0: d27b c03d 9c50 b6bd b69e a43d 021f 4fbb
00000100: 8740 013d b42f e0bd bd16 e83c f37a a2bc
00000110: a402 703b 8aa8 9c3c 6bea e3bd a835 dfbc
00000120: 10b6 87bd eefa c0bd b6ba da3d b86b b93c
00000130: aa42 01be c50f 0e3e fec3 8c3e dccb 2ebe
00000140: 9b9d 1dbe 3b7c 22bd be72 0fbd 6419 e53d
00000150: 3248 103e a683 05be 48e6 6ebd 24ff 5b3d
00000160: 6525 35be 7eae 8dbd 7451 eebd b0e9 a0bd
00000170: afbf 723d 9cbc febd 880a 2dbe fcbe b8bb
00000180: 12fc cb3d 5843 19bd 30d7 063e 9ecf 393d
00000190: ae3a 5dbd f9f5 4bbe 6c7d 4fbd eea7 013e
000001a0: ac36 4f3c 4267 25bd fd42 363d 2b18 5d3c
000001b0: 9ff2 ff3d 3930 56bd c9f3 8f3d e0b3 49ba
000001c0: 7dce 4a3e 025e a2bd 961e 32be f0b1 293e
000001d0: 6581 ef3b 7872 4ebc 7dc5 e5bc 50ba ed3d
000001e0: 6df6 41bc 4f87 2bbd d455 a93c e07b b0bd
000001f0: 0e24 6fbd fd57 07bc 7470 923d e03a 5bbd
00000200: e02b aebd 4139 113c 3a8c c2bc 4420 eabd
00000210: 8979 5e3e 763a 0bbd 5096 b13c 58bb 84bd
00000220: 2085 30bd 41e2 1e3e 82d5 283d a211 743d
00000230: 0d93 2e3d 3c4b 23be f197 0e3c 4031 4dbe
00000240: 96db d9bd 7c02 cd3d c762 01bd beaa b2bd
00000250: 4e8b f03c 6bef 2fbd 700c 34be 38b6 7cbd
00000260: a0ec 13bd 4537 903d bc4c b4bd 8be3 513d
00000270: 08a4 0d3d d2cf 2e3d 5c31 003d 7e92 443c
00000280: 8670 39bd 8002 bfbd a55f 863b d4c7 943d
00000290: cff8 e6bc 495f 5abd 9e17 03bc 1e87 503d
000002a0: dc9a 873d e018 71be 3f72 123d ba4b 9cbd
000002b0: 7160 0e3e 7849 1a3b 5698 9ebc e2db 06bd
000002c0: 2caa 47be 46aa 133d 48c9 abbb 364e 563c
000002d0: f685 e53c 5c33 173e f883 c1ba 867d 85bd
000002e0: 5678 b53d ee27 173e 9a09 ae3d 1c90 ecbd
000002f0: bb22 cebc 6628 3f3e acec fcbd 3f11 e6bd
00000300: 7b5f 96bd 8a35 d53c 4030 e2bb 902b 7dbd
00000310: b2da c5bd 1dca 063e 1afb 2b3c 316d 8fbd
00000320: 28b9 1abe 836f d43b 705d b5bc a4d3 513d
00000330: 8f13 073e 076e 6bbd 75a8 d43d 7029 8ebd
00000340: 5ac4 f53d 2681 433c d2be 003e 0527 053e
00000350: 1cf4 a13d d1ff 3cbd 3394 f13b 6fa0 fc3d
00000360: a01d 7cbc 0ea7 273c a2b6 273d 3427 623d
00000370: 7e9f 08bc f1e7 ce3d 5a3d 443d 8f80 9cbc
00000380: a012 31bd 6231 a1bd 2299 963d e870 2e3e
00000390: 966b 1abd ce5f d6bd 966a f3bd 4164 91bd
000003a0: 2e3c 123d e362 253c 442d a93d 51f2 b33d
000003b0: 46be 6fbd c434 38bd 1058 a9bc e419 b3bc
000003c0: a164 8cbd a4af 283e 80dc f4bc 4cec b2bd
000003d0: 6546 a73a 874b 0f3d 4d2f c2bc dfa9 843d
000003e0: 48f6 84bd 6ec9 9abd 48bd 573b 4ae9 d2bc
000003f0: 0d44 2abd 3c81 b73c 8933 76bd 8fbe 9b3d

fc1.bias f4 [128]
0.26636094 -0.38699374 0.037577868 0.27591574 0.35981798 0.30214894 -0.022125125 -0.013082951
0.3389626 0.10289794 -0.060801715 -0.13195115 -0.004678935 -0.19469215 -0.016080707 -0.04814154
-0.28962797 -0.16392644 0.07911283 0.2056824 -0.35361013 0.35099977 -0.2055843 -0.3883164
-0.30520856 -0.009780109 -0.051490128 -0.1888125 0.28624904 -0.33211535 -0.06106803 0.0064889193
0.25180632 0.22895616 0.34808326 -0.0387927 -0.3100272 -0.16350366 -0.27748594 -0.29690203
0.34721303 0.38863444 -0.30300885 0.27764648 -0.070741475 -0.2631632 -0.37092024 0.11860448
-0.06588212 -0.24737981 -0.3395821 0.1342941 -0.23218481 0.1575985 -0.37649155 -0.32521522
-0.10190138 -0.07001901 0.026389956 0.14928943 0.33754295 -0.17311949 -0.28997666 -0.31568283
0.21840346 -0.17012005 0.21432751 0.08811504 -0.30838627 -0.26978713 0.0026524067 0.107831776
-0.03721419 0.1335175 0.34172553 0.021281987 0.10515386 -0.35248858 -0.3733849 -0.3658524
-0.12173405 0.004198611 -0.33775368 0.3209828 -0.1142565 -0.05169174 0.031348944 -0.13350362
0.35711533 0.22033155 -0.031749517 0.08665314 0.3125313 -0.1333181 -0.25518468 -0.27625614
0.20014763 -0.0022774637 0.2338183 -0.27336195 0.38114738 0.2542075 0.34900653 0.2928213
0.25854445 0.38655442 -0.12359756 0.19596589 -0.2915157 0.19638479 0.27533084 -0.39695716
0.014392763 -0.25434726 -0.08558869 0.0747616 0.16017073 -0.007115692 -0.09137738 0.4068297
-0.13106814 0.09568733 0.3168835 0.019761711 -0.06310415 -0.38980222 0.003554672 -0.003598094
00000000: 7660 883e 0b24 c6be 40eb 193d d444 8d3e
00000010: 103a b83e 44b3 9a3e c03f b5bc e059 56bc
00000020: 828c ad3e 28bc d23d 380b 79bd 341e 07be
00000030: c051 99bb 615d 47be b0bb 83bc 1030 45bd
00000040: 1e4a 94be 55dc 27be e805 a23d 689e 523e
00000050: 630c b5be 3eb6 b33e b184 52be 68d1 c6be
00000060: 4c44 9cbe c03c 20bc 50e7 52bd 1058 41be
00000070: 3c8f 923e 060b aabe 7822 7abd 00a1 d43b
00000080: c2ec 803e 7c73 6a3e f837 b23e 18e5 1ebd
00000090: e3bb 9ebe 816d 27be a312 8ebe 8b03 98be
000000a0: e8c5 b13e 18fb c63e fa23 9bbe ae27 8e3e
000000b0: e8e0 90bd 54bd 86be 42e9 bdbe e8e6 f23d
000000c0: 34ed 86bd 2251 7dbe b4dd adbe 6484 093e
000000d0: dbc1 6dbe 8061 213e 80c3 c0be 9c82 a6be
000000e0: acb1 d0bd 2066 8fbd c02f d83c 54df 183e
000000f0: 6ed2 ac3e 3c46 31be d277 94be 2ea1 a1be
00000100: 28a5 5f3e f333 2ebe ac78 5b3e a875 b43d
00000110: cee4 9dbe 8a21 8abe 00d4 2d3b e8d6 dc3d
00000120: e86d 18bd d0b8 083e a6f6 ae3e 9057 ae3c
00000130: e85a d73d 6279 b4be 4e2c bfbe 0151 bbbe
00000140: b44f f9bd 8094 893b 0dee acbe dc57 a43e
00000150: 50ff e9bd b8ba 53bd c067 003d 2cb5 08be
00000160: d2d7 b63e 989e 613e c80b 02bd 3477 b13d
00000170: 1a04 a03e 8a84 08be 91a7 82be 7271 8dbe
00000180: 80f3 4c3e 8041 15bb 106e 6f3e 19f6 8bbe
00000190: c025 c33e 7c27 823e fcb0 b23e acec 953e
000001a0: f05f 843e 76ea c53e b820 fdbd 48ab 483e
000001b0: 8c41 95be 1819 493e 2af8 8c3e f83d cbbe
000001c0: a0cf 6b3c ce39 82be 2049 afbd 9c1c 993d
000001d0: cc03 243e c02a e9bb 1024 bbbd fc4b d03e
000001e0: ba36 06be b8f7 c33d 8e3e a23e 50e3 a13c
000001f0: c03c 81bd 2894 c7be 80f5 683b 00ce 6bbb

fc2.weight f4 [2, 128]
0.010252707 0.022031002 -0.019764319 0.037033908 0.051863916 0.010277428 0.07138803 0.06053614
-0.07715762 0.05310885 0.036170647 -0.05415596 0.003468655 -0.00065165013 0.008053787 0.083466075
0.03334099 -0.07840764 0.024507739 -0.050118607 0.084749244 0.025722295 0.026447654 -0.057040237
-0.035307847 0.029069923 -0.04425713 0.07575851 0.08527265 -0.03863864 0.034376852 0.08320043
-0.014247075 0.031834915 -0.026238658 0.04667627 0.037678503 -0.03468302 -0.060098015 -0.06757063
-0.006412789 0.08183368 -0.07041445 -0.045517173 0.01204811 -0.005477637 0.05902975 -0.08243206
0.017918177 0.0090831965 0.018300802 -0.061450355 0.025672816 -0.002120398 0.08193319 -0.013184369
0.075499155 0.062076233 -0.05955809 0.005925499 -0.029553108 -0.0329407 -0.022471406 -0.050502628
0.03129842 -0.061636195 -0.03533383 0.024437487 0.023096666 -0.05172493 0.049719714 0.07396791
-0.031040985 -0.049943045 0.025897406 -0.028972872 0.024879508 -0.031022713 -0.017617531 -0.017164
0.0028561875 -0.052208744 0.047023498 0.082479395 0.02059526 -0.032783777 -0.04378127 -0.053249042
0.084391885 -0.0038854554 0.05863156 -0.07456741 0.007904202 0.061458863 -0.024288714 0.04947027
-0.04901357 -0.05704288 -0.059879847 -0.0031386316 0.03895875 0.0057882443 0.020233177 -0.0570536
0.05912056 0.039029695 -0.08600306 -0.077349305 -0.01693704 -0.04270954 0.033400282 -0.06027098
-0.03822464 -0.073282875 0.059489526 0.07861137 -0.02793882 0.048644595 0.0019552335 -0.0421
0.075949125 0.0029990524 0.024746694 -0.019504204 -0.06645711 0.058491684 0.056458704 0.07042872
-0.016118005 0.00664255 0.054276653 -0.009063914 -0.052179683 -0.053034265 -0.06878305 -0.08427326
-0.023083769 0.0065674484 0.023308165 -0.026922796 0.031534567 0.06579132 -0.078242965 0.065273575
0.011298157 0.073296554 0.0022756457 -0.05465348 -0.07672582 0.04429517 0.077286266 -0.027530607
-0.024636842 -0.0766426 -0.047017064 -0.005037792 -0.0050062314 0.047637902 -0.017229632 0.04937982
-0.005377315 0.019397527 -0.06666869 0.06352881 -0.060129993 -0.039762273 -0.011875212 0.010695204
-0.02568335 -0.059582546 0.08311381 -0.07146573 0.067614414 -0.007796049 0.08158334 0.0059630647
-0.030798052 0.026138686 0.041694142 -0.07882424 -0.05818703 0.0144439265 0.081223466 0.013583846
0.073084496 0.012578346 0.0057670698 0.01717282 -0.074003965 -0.07456444 0.08613909 0.03625475
0.04253141 0.041255064 0.0630398 -0.022180945 0.067726426 -0.084930584 -0.043035284 0.05964265
-0.040596202 0.017865308 -0.07159531 -0.069656715 0.061563842 0.07665906 -0.02184271 -0.042382766
0.04368072 -0.0070506185 0.056903683 0.07375326 0.059674896 -0.012073241 -0.018198095 -0.03759897
-0.028829075 0.055862106 -0.0065645278 -0.055745948 -0.035547104 0.08793942 0.041769333 0.038437836
0.04102608 -0.051109374 -0.0021442175 -0.047538515 0.050070263 -0.040250357 0.0062218755 0.010741405
0.07192864 -0.0019032806 0.065785326 0.027521081 -0.06064137 0.08796332 -0.03711734 -0.029402599
0.0669852 0.037484728 -0.010809079 -0.012267537 0.024473093 -0.038131602 0.08778883 0.07435771
-0.0872741 -0.049709424 0.0839287 -0.010573655 0.030145712 -0.05755127 -0.06798719 -0.078085415
00000000: f8fa 273c 5c7a b43c c8e8 a1bc deb0 173d
00000010: 426f 543d a862 283c e333 923d bef4 773d
00000020: d004 9ebd aa88 593d ac27 143d a4d2 5dbd
00000030: 6052 633b 80d3 2aba 08f4 033c 43f0 aa3d
00000040: 9090 083d 2f94 a0bd 74c4 c83c 2b49 4dbd
00000050: 0391 ad3d 90b7 d23c c0a8 d83c 06a3 69bd
00000060: f69e 10bd 0c24 ee3c f746 35bd 4727 9b3d
00000070: 6da3 ae3d 8d43 1ebd bece 0c3d fd64 aa3d
00000080: 906c 69bc 5465 023d 74f2 d6bc 9e2f 3f3d
00000090: c654 1a3d c80f 0ebd 5629 76bd 7862 8abd
000000a0: 6022 d2bb 6b98 a73d 7335 90bd 3770 3abd
000000b0: 7065 453c c07d b3bb 2ec9 713d 24d2 a8bd
000000c0: 24c9 923c b0d1 143c 90eb 953c 5eb3 7bbd
000000d0: cc4f d23c 60f6 0abb 97cc a73d 4003 58bc
000000e0: 4d9f 9a3d a643 7e3d 2ff3 73bd b02a c23b
000000f0: 5c19 f2bc d4ec 06bd f415 b8bc d8db 4ebd
00000100: c632 003d 3c76 7cbd 35ba 10bd 2031 c83c
00000110: 3835 bd3c 85dd 53bd e6a6 4b3d 7d7c 973d
00000120: aa49 febc 1491 4cbd cc26 d43c 8458 edbc
00000130: 1cd0 cb3c 5823 febc a452 90bc 849b 8cbc
00000140: e02e 3b3b d6d8 55bd b69b 403d f5ea a83d
00000150: 64b7 a83c 4848 06bd fd53 33bd ab1b 5abd
00000160: a7d5 ac3d 20a3 7ebb a627 703d ccb6 98bd
00000170: a080 013c 4abc 7b3d 20f9 c6bc 56a1 4a3d
00000180: 74c2 48bd cca5 69bd 9244 75bd 80b1 4dbb
00000190: 3693 1f3d 50ab bd3b 0cc0 a53c 09b1 69bd
000001a0: 6628 723d 9add 1f3d 5f22 b0bd 5069 9ebd
000001b0: 8cbf 8abc 33f0 2ebd bcce 083d b4de 76bd
000001c0: 7191 1cbd 5515 96bd 4aab 733d fffe a03d
000001d0: f4df e4bc 8e3f 473d 6023 003b 0d71 2cbd
000001e0: 378b 9b3d c08b 443b 94b9 ca3c 48c7 9fbc
000001f0: aa1a 88bd fa94 6f3d 3e41 673d ef3c 903d
00000200: e809 84bc c0a9 d93b 3251 5e3d d080 14bc
00000210: 5dba 55bd 753a 59bd 21de 8cbd 7597 acbd
00000220: 2c1a bdbc c033 d73b c4f0 be3c 328d dcbc
00000230: 642a 013d 99bd 863d d93d a0bd 27ae 853d
00000240: e81b 393c 811c 963d 0023 153b 54dc 5fbd
00000250: 6d22 9dbd da6e 353d 4348 9e3d de87 e1bc
00000260: 34d3 c9bc ccf6 9cbd f794 40bd 1014 a5bb
00000270: 500b a4bb f61f 433d 2825 8dbc 7e42 4a3d
00000280: 3034 b0bb 90e7 9e3c 9889 88bd 651b 823d
00000290: de4a 76bd c4dd 22bd 4090 42bc f03a 2f3c
000002a0: e465 d2bc d40c 74bd 9337 aa3d a05c 92bd
000002b0: 6d79 8a3d 0076 ffbb 2b15 a73d d065 c33b
000002c0: 324c fcbc cc20 d63c 7ac7 2a3d 9a6e a1bd
000002d0: 8655 6ebd 38a6 6c3c 7d58 a63d c88e 5e3c
000002e0: 53ad 953d 6815 4e3c b0f9 bc3b 04ae 8c3c
000002f0: 648f 97bd 3eb5 98bd b169 b03d dc7f 143d
00000300: 6a35 2e3d 12fb 283d 031b 813d d0b4 b5bc
00000310: 27b4 8a3d 16f0 adbd c445 30bd da4b 743d
00000320: 3448 26bd 445a 923c 90a0 92bd 2ea8 8ebd
00000330: 5e2a 7c3d 6dff 9c3d 7cef b2bc 8d99 2dbd
00000340: 8eea 323d e008 e7bb d613 693d f30b 973d
00000350: aa6d 743d d8ce 45bc 2c14 95bc 6101 1abd
00000360: f42a ecbc aacf 643d 401b d7bb dd55 64bd
00000370: d799 11bd 9519 b43d 5216 2b3d fe70 1d3d
00000380: f60a 283d 1058 51bd 0086 0cbb bfb7 42bd
00000390: 7a16 4d3d 8fdd 24bd e0e0 cb3b b8fc 2f3c
000003a0: 534f 933d 8077 f9ba 75ba 863d e473 e13c
000003b0: 1663 78bd 1d26 b43d 5a08 18bd b8dd f0bc
000003c0: 892f 893d 9689 193d 9018 31bc c8fd 48bc
000003d0: cc7b c83c e22f 1cbd a1ca b33d db48 983d
000003e0: c3bc b2bd 1c9c 4bbd cfe2 ab3d 203d 2dbc
000003f0: 24f4 f63c e1ba 6bbd de3c 8bbd 3feb 9fbd

fc2.bias f4 [2]
0.012633361 -0.019286148
00000000: 28fc 4e3c fcfd 9dbc
