IA/best_model.pth (torch, 7016 bytes, 4 tensors)

fc1.weight f4 [128, 6]
0.014502962 0.07956627 0.0011619115 -0.038543124 0.058490008 -0.08478259 0.04853198 -0.08092686
-0.23123956 -0.0015291071 0.11429545 -0.034587216 -0.025297265 0.21810174 -0.26309043 0.16419095
0.06379096 -0.08808226 0.004176921 0.07168789 -0.00044542766 -0.04260749 0.0054092174 -0.03174961
-0.06082704 -0.047578573 0.010044923 -0.070786774 0.17874831 -0.08546551 0.13791922 -0.0008865222
0.15120614 -0.009713447 -0.094141096 -0.07825182 -0.113085985 -0.0679484 -0.1978082 0.13027628
-0.05612868 -0.026318552 0.13040395 -0.084561184 0.016282473 -0.07057376 -0.009876882 -0.0056277225
0.07636752 -0.08214847 0.031077323 0.013073393 -0.11342852 0.024454175 -0.2553566 0.10910615
0.09178062 0.073592894 -0.06662184 -0.011055949 0.029422667 -0.05591917 0.08785549 0.13050768
0.012306927 0.006149712 -0.11512864 0.06618589 0.010926023 0.12801078 -0.06189858 -0.0039454056
-0.07151359 -0.036109284 0.06727105 0.07679386 -0.0785764 -0.023288801 -0.09975922 -0.0659875
-0.15587118 0.10940817 0.018328823 0.18253651 -0.10530278 -0.031066477 0.17233425 -0.09250601
0.10129379 0.10867363 0.12330671 -0.03939701 0.07089512 0.010008119 -0.019870192 -0.081087306
-0.031272337 0.022169076 0.0063135745 0.015282701 0.11966312 0.12116216 -0.0081146555 -0.0048569683
0.060346812 0.042018298 -0.10536027 -0.11365061 0.0776536 0.10612947 -0.057297744 0.13140142
0.00262136 -0.025445512 0.035358347 0.04967405 -0.040020835 0.16685793 0.015334748 0.09426591
-0.15686905 0.045082636 -0.042837754 0.16999373 0.0015902487 -0.06846212 -0.03207968 -0.09926327
-0.03255522 0.007918071 -0.02992589 -0.053129833 -0.16116968 -0.008217027 0.006225179 0.14362516
0.060886655 -0.02514268 0.061287764 -0.05650939 -0.03479846 0.10424474 0.045976207 -0.08506927
-0.014857075 -0.0979835 -0.042806327 -0.012293805 -0.008703226 0.030543635 0.044863746 -0.054676257
0.039906427 -0.056758683 0.02316118 -0.0824682 0.03834773 0.025010636 0.085774265 0.12858209
0.092886224 -0.007946357 -0.13710159 -0.06882173 -0.086142495 -0.087037414 -0.15604216 -0.08673709
-0.102972366 -0.12453619 -0.11795026 0.18772332 -0.13000923 -0.054375026 0.02583554 0.112641245
-0.17334008 -0.025025332 -0.2292685 -0.030750386 0.14051738 -0.15212685 0.016378723 -0.047244716
-0.054014646 -0.072301656 -0.16227704 -0.12071783 -0.022391347 0.20045383 0.11163308 0.099714234
-0.00016486818 -0.03408793 0.013996914 0.008557794 -0.273812 0.0057836818 0.013790641 0.09843746
0.041396335 0.107565776 0.06673017 0.108702034 0.0531541 0.087864175 0.14924419 0.06297998
-0.050483424 0.028596845 -0.06729041 -0.08451156 0.05252423 -0.059084475 0.17817926 0.18769154
-0.05304659 -0.07177717 -0.18770882 -0.031893708 0.08609952 -0.104731336 -0.05432763 0.0056112455
0.032564633 0.069570534 -0.11391641 0.025132503 0.12601297 0.12817293 0.16907656 0.086895026
0.025631348 -0.117081165 -0.09396897 0.042175792 0.15524343 0.12715915 -0.223715 0.117060214
-0.014658804 -0.12942985 -0.032030694 -0.049721386 -0.017556451 -0.12495009 0.101234905 0.022971962
0.02798999 0.10554331 0.055676162 -0.02629256 -0.05636484 -0.026495209 -0.01726231 0.012842344
00000000: d59d 6d3c a4f3 a23d 484b 983a 65df 1dbd
00000010: 3893 6f3d 7fa2 adbd 78c9 463d fbbc a5bd
00000020: 10ca 6cbe 526c c8ba bc13 ea3d 53ab 0dbd
00000030: 363c cfbc 1056 5f3e cab3 86be ac21 283e
00000040: d6a4 823d 7964 b4bd 8ede 883b 1ad1 923d
00000050: 4a88 e9b9 3185 2ebd ce3f b13b e10b 02bd
00000060: c625 79bd c0e1 42bd 7693 243c a8f8 90bd
00000070: cc09 373e 8b08 afbd b23a 0d3e 7f65 68ba
00000080: c8d5 1a3e 2625 1fbc 0ccd c0bd 7d42 a0bd
00000090: a099 e7bd 8828 8bbd 3c8e 4abe 2567 053e
000000a0: 30e7 65bd 019a d7bc 9d88 053e 6a2e adbd
000000b0: d262 853c fa88 90bd a5d2 21bc c268 b8bb
000000c0: 9366 9c3d 753d a8bd df95 fe3c c931 563c
000000d0: 364d e8bd 1f54 c83c 1abe 82be 0c73 df3d
000000e0: 7af7 bb3d dfb7 963d 0871 88bd 0324 35bc
000000f0: ce07 f13c 800b 65bd 94ed b33d cea3 053e
00000100: fea2 493c 8683 c93b 90c8 ebbd 788c 873d
00000110: 1003 333c 4215 033e 5e89 7dbd 7648 81bb
00000120: b875 92bd 54e7 13bd 67c5 893d 1946 9d3d
00000130: aaec a0bd 28c8 bebc 904e ccbd 7424 87bd
00000140: b29c 1fbe 6411 e03d 5426 963c daea 3a3e
00000150: fca8 d7bd 207f febc 6478 303e ca73 bdbd
00000160: 1e73 cf3d 4890 de3d 3a88 fc3d c25e 21bd
00000170: 7631 913d 18f9 233c d0c6 a2bc 1a11 a6bd
00000180: 6c17 00bd ec9b b53c 1ae2 ce3b 4b64 7a3c
00000190: f011 f53d de23 f83d 55f3 04bc 3427 9fbb
000001a0: 382e 773d 611b 2c3d 20c7 d7bd a7c1 e8bd
000001b0: da08 9f3d 685a d93d 0ab1 6abd 188e 063e
000001c0: 1fcb 2b3b 1b73 d0bc ead3 103d 0477 4b3d
000001d0: e3ec 23bd cedc 2a3e 983e 7b3c 7c0e c13d
000001e0: 48a2 20be 92a8 383d a476 2fbd d612 2e3e
000001f0: e46f d03a de35 8cbd fc65 03bd 8b4a cbbd
00000200: 9f58 05bd ccba 013c 2427 f5bc ab9e 59bd
00000210: aa09 25be b6a0 06bc 96fc cb3b 7912 133e
00000220: 4964 793d 06f8 cdbc e108 7b3d 6476 67bd
00000230: d488 0ebd 447e d53d 8c51 3c3d cc38 aebd
00000240: 176b 73bc 93ab c8bd b055 2fbd f56b 49bc
00000250: fa97 0ebc a536 fa3c 0cc3 373d 36f4 5fbd
00000260: ec74 233d cb7b 68bd 84bc bd3c 16e5 a8bd
00000270: 8212 1d3d 1be3 cc3c 6baa af3d 06ab 033e
00000280: 223b be3d 7031 02bc 5c64 0cbe 68f2 8cbd
00000290: 7a6b b0bd ac40 b2bd 84c9 1fbe 37a3 b1bd
000002a0: 2de3 d2bd d40c ffbd e88f f1bd 8b3a 403e
000002b0: 2421 05be 59b8 5ebd 0ea5 d33c 74b0 e63d
000002c0: 1080 31be ed01 cdbc 5dc5 6abe 3ce8 fbbc
000002d0: cae3 0f3e 24c7 1bbe ac2c 863c ad83 41bd
000002e0: 763e 5dbd e412 94bd f42b 26be e93a f7bd
000002f0: 0f6e b7bc c543 4d3e e29f e43d fa36 cc3d
00000300: 77e0 2cb9 c99f 0bbd 5053 653c fd35 0c3c
00000310: 1631 8cbe 0a85 bd3b 24f2 613c 9499 c93d
00000320: 348f 293d 724b dc3d d4a9 883d 2c9f de3d
00000330: 1db8 593d 22f2 b33d 78d3 183e a6fb 803d
00000340: b5c7 4ebd ee43 ea3c 8ecf 89bd 6614 adbd
00000350: a623 573d 9002 72bd a074 363e 3632 403e
00000360: 6247 59bd e9ff 92bd be36 40be faa2 02bd
00000370: f254 b03d 627d d6bd a686 5ebd 8ade b73b
00000380: 7e62 053d ff7a 8e3d 024d e9bd aee2 cd3c
00000390: 8b09 013e c43f 033e 6822 2d3e 05f6 b13d
000003a0: d5f8 d13c 40c8 efbd ce72 c0bd 86c0 2c3d
000003b0: 22f8 1e3e 0236 023e 8c15 65be 44bd ef3d
000003c0: 7b2b 70bc 4289 04be 9e32 03bd a7a8 4bbd
000003d0: 8cd2 8fbc d5e5 ffbd 3f54 cf3d b22f bc3c
000003e0: 434b e53c 1727 d83d b00c 643d 7f63 d7bc
000003f0: d2de 66bd 7b0c d9bc b069 8dbc b268 523c

fc1.bias f4 [128]
0.3092398 0.049979 0.13571781 -0.18761621 0.18646419 -0.012515217 -0.09885934 0.37403786
-0.3747832 0.29669833 -0.17218639 0.037837893 -0.2722988 -0.35609198 -0.050965518 0.19557273
-0.01616183 0.08122131 0.18541765 0.10014075 -0.040787667 -0.09956628 0.37853372 0.13743687
-0.071428925 0.25869578 0.19218177 0.37140262 -0.09184444 -0.19892316 0.32045817 0.25863636
-0.22420493 0.357338 -0.097174555 -0.18854225 0.01697728 0.115097046 0.37994546 0.38706338
0.06208715 -0.1053783 0.014079809 -0.26908618 -0.35302022 0.1929549 -0.17914611 0.21747172
-0.081977755 0.28898954 -0.30008703 0.22694278 -0.18771297 -0.0083348155 -0.2746424 -0.34902954
-0.28937355 0.17714459 -0.101582795 0.13197887 0.23777449 -0.22214155 -0.16923854 0.35702223
-0.29357174 0.35747558 -0.1519123 -0.34911895 -0.12065199 0.1944173 -0.35709107 -0.005448669
0.2526219 0.3814028 -0.2431688 0.38923472 -0.34623957 0.20377278 0.4078623 0.24395311
-0.28246862 -0.32825553 0.3735423 0.13343668 0.23255771 -0.23165789 -0.305422 -0.020254046
-0.15755403 0.105484545 0.0034926236 0.39421362 -0.30773076 0.25050455 -0.36712533 0.11514974
-0.16184466 0.31241918 -0.1508685 0.025796562 -0.07661995 0.060628206 0.089714676 -0.4035025
-0.3708985 0.32085264 0.080281645 -0.343177 -0.35152054 -0.28484133 0.1685304 -0.34878027
0.3764354 -0.14789021 -0.35085002 -0.061857015 -0.018228382 -0.32858676 0.064373046 0.23486835
0.3365848 0.2800328 -0.3003442 -0.10522047 -0.14227912 0.27707 0.15387589 0.3002829
00000000: ae54 9e3e c8b6 4c3d 9cf9 0a3e 771e 40be
00000010: 78f0 3e3e a00c 4dbc c476 cabd e481 bf3e
00000020: 95e3 bfbe d8e8 973e a151 30be e8fb 1a3d
00000030: c06a 8bbe b051 b6be 38c1 50bd 3844 483e
00000040: d065 84bc 5c57 a63d 20de 3d3e 9816 cd3d
00000050: f810 27bd 68e9 cbbd 2ccf c13e 40bc 0c3e
00000060: 5449 92bd c673 843e 4ccb 443e 7c28 be3e
00000070: f018 bcbd 83b2 4bbe 1813 a43e fc6b 843e
00000080: fa95 65be 02f5 b63e 7403 c7bd 3811 41be
00000090: f013 8b3c 00b8 eb3d 3688 c23e 2c2d c63e
000000a0: 184f 7e3d 94d0 d7bd 00af 663c aac5 89be
000000b0: 11bf b4be f895 453e 1472 37be e8b0 5e3e
000000c0: f4e3 a7bd 70f6 933e 02a5 99be b063 683e
000000d0: d437 40be c08e 08bc ee9d 8cbe 00b4 b2be
000000e0: c528 94be 6465 353e a40a d0bd 7825 073e
000000f0: 287b 733e 1379 63be de4c 2dbe 9ecb b63e
00000100: 094f 96be 0a07 b73e e68e 1bbe b8bf b2be
00000110: 6418 f7bd 5415 473e a4d4 b6be c08a b2bb
00000120: a857 813e 3a47 c33e 3e01 79be c649 c73e
00000130: 5046 b1be d0a9 503e 54d3 d03e d8ce 793e
00000140: ba9f 90be 1c11 a8be f040 bf3e a0a3 083e
00000150: 9c23 6e3e ba37 6dbe 4660 9cbe d0eb a5bc
00000160: d855 21be 4808 d83d 80e4 643b 5ed6 c93e
00000170: e38e 9dbe 2242 803e daf7 bbbe a0d3 eb3d
00000180: 9bba 25be 68f5 9f3e 467d 1abe 5053 d33c
00000190: ecea 9cbd 4855 783d 54bc b73d e197 cebe
000001a0: 68e6 bdbe cc46 a43e b46a a43d e5b4 afbe
000001b0: 80fa b3be b9d6 91be 3c93 2c3e 5493 b2be
000001c0: 24bc c03e 8870 17be 9da2 b3be c85d 7dbd
000001d0: b053 95bc 863c a8be 04d6 833d 5481 703e
000001e0: d854 ac3e 7660 8f3e b7c6 99be d47d d7bd
000001f0: 9eb1 11be 1edc 8d3e a491 1d3e aebe 993e

fc2.weight f4 [2, 128]
0.010208443 0.080913134 0.080800466 0.0261157 0.08568629 0.07849682 0.029840939 0.057567693
0.0076101795 0.036543436 -0.02181916 -0.04237478 0.017867863 0.027200662 0.08015155 -0.019472353
0.0741856 0.035230227 0.025756791 -0.080905564 -0.057328366 0.084207244 -0.085539706 -0.073227115
-0.07388678 -0.043077018 0.058012016 0.043788843 0.040693365 -0.031119611 0.010743946 -0.066149324
-0.04421413 0.05783946 -0.0400893 -0.08490967 0.05206781 -0.036694143 -0.06396568 0.009470545
-0.05027572 0.08714194 0.053232588 -0.00033133477 -0.023621336 -0.06256649 0.012030177 0.043861397
0.010400727 0.040982164 -0.08510172 0.048762403 0.07105056 -0.013905488 0.013687767 0.08518907
-0.05034816 -0.08652162 0.07701961 0.08033598 0.040514328 -0.082994 -0.06583306 0.051568024
-0.076987445 0.0673595 -0.021904916 0.06232757 -0.034970462 -0.028228052 0.062908284 0.009201661
0.08131022 -0.023738198 -0.028176263 0.046651773 -0.059000805 -0.006985903 -0.054362953 -0.0047416687
-0.022509143 0.0407862 -0.037914537 0.074185185 -0.08013241 0.06270485 -0.03515257 -0.047650922
0.036631964 -0.057072785 -0.036543213 0.044581972 0.052439176 0.021844946 -0.058598407 0.08115672
0.0239769 0.06287482 -0.046367306 -0.017539084 -0.06362322 -0.016573004 0.048348315 -0.052535012
-0.07205224 -0.058012333 -0.025477156 0.0058857426 0.07880866 -0.085639626 -0.05364434 -0.008240141
0.026845433 -0.009140089 0.060292475 -0.019817196 -0.04243572 -0.01646439 0.0673001 0.028936684
0.052985884 0.06157761 0.04856219 0.07109859 -0.057348818 0.070162155 -0.015354753 0.054127507
-0.08680051 0.0137731135 0.07434244 -0.039385732 -0.038334783 -0.026175331 -0.06227696 -0.02662114
-0.02989206 0.014860354 -0.044623587 0.07951129 -0.007657334 -0.08201649 -0.07047308 0.0410456
-0.047796875 0.051565714 0.051146038 0.029929414 -0.049553968 0.058071084 -0.07639704 -0.02223321
-0.025485106 0.062497728 0.029205866 0.04517802 -0.018396616 0.059206076 0.079243116 0.030065887
-0.08174428 -0.055349328 -0.006979421 0.08677473 -0.002052091 -0.0262664 -0.07152727 0.0868878
0.081853546 -0.08269085 -0.024958543 0.048441388 0.009117521 0.06995975 0.024993442 -0.023346417
-0.0470225 -0.007559143 -0.016195968 -0.03285215 -0.057073016 0.05606786 0.08167849 -0.0152146
-0.038221564 -0.0767205 -0.088177726 -0.051390737 0.02786813 0.056067534 0.062594496 0.07581983
0.051919125 -0.023659788 0.05232241 0.017304592 0.086798064 0.0080276355 0.022620521 0.02982238
0.0451385 0.03374584 0.087164976 -0.08236557 -0.026899826 0.021945044 -0.06533026 0.06303599
0.025925323 -0.00178615 0.04801794 0.06061212 -0.035685264 0.026980251 0.044707693 0.034801327
-0.034588434 -0.088045694 -0.05087822 -0.06842218 0.08241267 -0.011398897 0.07375624 -0.052747115
0.055947386 0.014829092 0.012825184 -0.02247914 0.017439365 0.05509218 -0.07422393 -0.0032276884
-0.03469811 0.06565476 -0.08568812 -0.0126298815 0.018556185 -0.03227536 0.00068936497 -0.057852335
-0.083310254 -0.036141176 0.014127769 -0.07314981 0.007116303 0.014781982 -0.0711813 -0.07266112
-0.03714507 -0.025424436 -0.053349268 -0.083954066 0.06182427 -0.06506904 0.03709244 0.08518537
00000000: 5041 273c c9b5 a53d b77a a53d 98f0 d53c
00000010: 4b7c af3d f1c2 a03d fc74 f43c 1acc 6b3d
00000020: d05e f93b 92ae 153d 18be b2bc 2d91 2dbd
00000030: a05f 923c ecd3 de3c 7f26 a43d 7c84 9fbc
00000040: 9fee 973d 924d 103d e8ff d23c d1b1 a5bd
00000050: 26d1 6abd d974 ac3d 712f afbd 19f8 95bd
00000060: f451 97bd 8771 30bd 029e 6d3d ee5b 333d
00000070: 16ae 263d 8eee febc 6007 303c 4c79 87bd
00000080: e019 35bd 12e9 6c3d ae34 24bd 1fe5 adbd
00000090: 0e45 553d 994c 16bd 7000 83bd 582a 1b3c
000000a0: eaed 4dbd 7977 b23d 6a0a 5a3d 00b7 adb9
000000b0: 8881 c1bc dc22 80bd 381a 453c 02a8 333d
000000c0: d067 2a3c eadc 273d d049 aebd 16bb 473d
000000d0: f582 913d d8d3 63bc a842 603c 9b77 ae3d
000000e0: df39 4ebd 3f32 b1bd 75bc 9d3d 3187 a43d
000000f0: 5af2 253d c2f8 a9bd 7cd3 86bd fe38 533d
00000100: 98ab 9dbd c7f3 893d f071 b3bc 324b 7f3d
00000110: 303d 0fbd 843e e7bc 0fd6 803d 90c2 163c
00000120: f985 a63d 9c76 c2bc e8d1 e6bc ee15 3f3d
00000130: d4aa 71bd 00ea e4bb b0ab 5ebd 0060 9bbb
00000140: 1865 b8bc 6e0f 273d 464c 1bbd 67ee 973d
00000150: 761c a4bd 676b 803d 24fc 0fbd 9d2d 43bd
00000160: 660b 163d 27c5 69bd 56ae 15bd 969b 363d
00000170: 76ca 563d 2cf4 b23c e204 70bd 7f35 a63d
00000180: 346b c43c 83c4 803d a5eb 3dbd 20ae 8fbc
00000190: e44c 82bd 1cc4 87bc e208 463d f42e 57bd
000001a0: 2090 93bd 579e 6dbd 78b5 d0bc 30dd c03b
000001b0: 6f66 a13d d463 afbd 2bba 5bbd a801 07bc
000001c0: f4ea db3c 50c0 15bc 3ef5 763d ac57 a2bc
000001d0: 14d1 2dbd 54e0 86bc a3d4 893d a00c ed3c
000001e0: ba07 593d ce38 7c3d 26e9 463d 239c 913d
000001f0: 98e6 6abd 2db1 8f3d 8092 7bbc ceb4 5d3d
00000200: 77c4 b1bd a0a8 613c d940 983d ef52 21bd
00000210: ef04 1dbd a66d d6bc 2016 7fbd 9414 dabc
00000220: 32e0 f4bc d878 733c 39c7 36bd d1d6 a23d
00000230: 60ea fabb 43f8 a7bd 3154 90bd 6e1f 283d
00000240: a8c6 43bd 9236 533d 827e 513d 882e f53c
00000250: 1af9 4abd f2db 6d3d 0d76 9cbd 6c22 b6bc
00000260: 24c6 d0bc 9efd 7f3d 2441 ef3c 960c 393d
00000270: 80b4 96bc 1282 723d 374a a23d bc4c f63c
00000280: 8c69 a7bd fab5 62bd a0b3 e4bb f3b6 b13d
00000290: 607c 06bb a22c d7bc e47c 92bd 3bf2 b13d
000002a0: d5a2 a73d d259 a9bd dc75 ccbc 7a6a 463d
000002b0: a861 153c 0f47 8f3d 0cbf cc3c fc40 bfbc
000002c0: aa9a 40bd b0b2 f7bb 68ad 84bc fa8f 06bd
000002d0: 65c5 69bd 6aa7 653d 0d47 a73d a846 79bc
000002e0: 378e 1cbd a31f 9dbd 8696 b4bd 187f 52bd
000002f0: b44b e43c 12a7 653d 8b31 803d 6d47 9b3d
00000300: 26a9 543d 2cd2 c1bc 0650 563d 5cc2 8d3c
00000310: 2fc3 b13d 5886 033c ac4e b93c 104e f43c
00000320: 26e3 383d 1439 0a3d 8d83 b23d 48af a8bd
00000330: 065d dcbc 18c6 b33c dfcb 85bd 0319 813d
00000340: 5861 d43c 401d eaba 76ae 443d 6a44 783d
00000350: b62a 12bd b005 dd3c 6a1f 373d d68b 0e3d
00000360: 9aac 0dbd 4d51 b4bd ae65 50bd ee20 8cbd
00000370: f9c7 a83d 70c2 3abc 830d 973d 5c0d 58bd
00000380: 1629 653d b8f5 723c b820 523c 2c26 b8bc
00000390: 00dd 8e3c 56a8 613d b702 98bd a087 53bb
000003a0: 9b1f 0ebd 0176 863d 417d afbd 90ed 4ebc
000003b0: 2403 983c 2b33 04bd 80b6 343a 92f6 6cbd
000003c0: 919e aabd c508 14bd 2878 673c 91cf 95bd
000003d0: e02f e93b 2030 723c 80c7 91bd 5acf 94bd
000003e0: 6e25 18bd e846 d0bc c384 5abd 1cf0 abbd
000003f0: 723b 7d3d eb42 85bd 3eee 173d ab75 ae3d

fc2.bias f4 [2]
-0.0050267503 -0.0697342
00000000: 70b7 a4bb ced0 8ebd
