IA/best_model.pth (torch, 7016 bytes, 4 tensors)

fc1.weight f4 [128, 6]
0	0xbd86864a	-0.06568582
1	0x3c9e1bea	0.01930042
2	0x3db658d6	0.08903663
3	0x3d724304	0.059145942
4	0xbe006c16	-0.12541232
5	0xbcc30c19	-0.02380948
6	0xbd974a88	-0.073872626
7	0x3c227254	0.009914953
8	0x3df16b24	0.117880136
9	0x3c9c97ca	0.019115347
10	0x3d067ec0	0.032835722
11	0x3cf5fdbf	0.030028222
12	0x3da829b9	0.08211083
13	0xbdf1e2fc	-0.11810872
14	0x3d053089	0.03251699
15	0x3d0cba16	0.034357153
16	0xbc1be5b9	-0.009515219
17	0x3d5835b6	0.052785598
18	0xbdb63ad4	-0.08897939
19	0x3b4beab0	0.0031115226
20	0x3da5a14e	0.08087407
21	0xbe40c368	-0.18824542
22	0x3d92b634	0.07163659
23	0x3d55514e	0.05207949
24	0x3d9f5cd8	0.077813804
25	0x3d5be898	0.053688616
26	0xbe01da78	-0.12680995
27	0xbd8fa08d	-0.070130445
28	0xbd05e270	-0.03268665
29	0xbda98bdd	-0.0827863
30	0xbdef576c	-0.11686596
31	0x3e228713	0.15871839
32	0x3ded72fe	0.11594199
33	0x3bd7ad7a	0.0065819593
34	0xbd8a4acd	-0.06752548
35	0xbe55c3e1	-0.20875503
36	0x3e2b327a	0.16718474
37	0x3d17945f	0.037006732
38	0xbdc0c5da	-0.09412737
39	0x3dc9518c	0.09830007
40	0xbe002c2f	-0.12516855
41	0x3d233a3c	0.03985046
42	0xbcdb3670	-0.026759356
43	0xbdaa78a6	-0.08323793
44	0x3e223d33	0.15843658
45	0xbcf615d3	-0.030039703
46	0xbe09f20b	-0.13471238
47	0x3da8d447	0.08243614
48	0xbdfe1c69	-0.124077626
49	0xbc593d80	-0.013259292
50	0xbdbfc0e4	-0.09362963
51	0x3da19769	0.07890207
52	0x3dcc4f2f	0.099760406
53	0x3d32233c	0.043490633
54	0xbd858adc	-0.06520626
55	0x3ccd6d50	0.025076538
56	0x3c95a13a	0.018265355
57	0x3deae68e	0.11469756
58	0xba283432	-0.0006416469
59	0x3dc66c00	0.09688568
60	0x3ae9e563	0.0017844852
61	0x3da1534a	0.07877214
62	0x3e8156ea	0.25261623
63	0x3b8ba8ca	0.0042620646
64	0x3e3ddf04	0.18542105
65	0x3e79ba9d	0.24387594
66	0x3e4ac7cc	0.19802779
67	0xbd908676	-0.070568964
68	0xbd95c824	-0.073135644
69	0x3ddfba2a	0.1092418
70	0x3cd3ae82	0.025840048
71	0xbd228e30	-0.03968638
72	0x3d5359fe	0.051599495
73	0xbbc4c6e9	-0.0060051573
74	0xbddddb98	-0.108329
75	0x3cd33232	0.02578077
76	0xbcfb7891	-0.030697139
77	0x3e034636	0.12819752
78	0xbe16f058	-0.14740121
79	0x3c8192c2	0.01581705
80	0xbde9b0a6	-0.11410646
81	0xbc272e51	-0.010203914
82	0x3d0da482	0.034580715
83	0xbc2423f3	-0.010018337
84	0xbc8e7750	-0.017390877
85	0xbb180ce2	-0.0023201038
86	0x3c978ecc	0.018500708
87	0xbd4a9ce2	-0.04946602
88	0x3bc9b322	0.0061553875
89	0xbe25b2ce	-0.1618149
90	0xb7b95a80	-2.2095861e-05
91	0x3d19bdf6	0.037534676
92	0x3d08231d	0.03323661
93	0xbd565b38	-0.052333087
94	0x3e25e42c	0.16200322
95	0x3b85bd83	0.0040814294
96	0xbde1c271	-0.11023415
97	0xbe0fc356	-0.14039358
98	0xbd59e29a	-0.05319462
99	0x3e146000	0.14489746
100	0x3cbb8222	0.0228892
101	0xbdab20fa	-0.08355899
102	0xbde70f56	-0.11282222
103	0x3a8c90c6	0.0010724298
104	0xbe1dcd58	-0.15410364
105	0x3e3010da	0.17193928
106	0x3e298c49	0.16557421
107	0xbdfe57d4	-0.12419096
108	0x3cb4d2ae	0.022073116
109	0xbe061d8d	-0.1309721
110	0xbc8763d5	-0.016527096
111	0xbde509ce	-0.11183511
112	0xbd66952a	-0.056294598
113	0x3d06f015	0.032943804
114	0xbd6ea93e	-0.05826687
115	0xbde37242	-0.11105777
116	0x3d3c7a20	0.046014905
117	0x3cfeff9e	0.031127747
118	0xbc949516	-0.018137496
119	0xbb88ef9d	-0.0041789548
120	0x3cfe375e	0.03103226
121	0x3da24af1	0.0792445
122	0xbd2e2628	-0.042516857
123	0x3d2867f9	0.04111478
124	0x3d7c6a23	0.061624657
125	0xbd969805	-0.07353214
126	0xbe699f28	-0.2281462
127	0xbd9f3e9a	-0.07775612
128	0xbb260e16	-0.0025337986
129	0xbd252c6e	-0.040325575
130	0x3d395ad8	0.04525265
131	0xbd20f3c4	-0.039294973
132	0xbdc83e3a	-0.09777494
133	0x3d50f14a	0.05101136
134	0x3dbdbabe	0.09264134
135	0x3d8f960c	0.07011041
136	0xbc55b0a2	-0.013042601
137	0xbdb23365	-0.08701209
138	0xbdb97688	-0.09055811
139	0xbe458f1e	-0.19292876
140	0xbd4f6fd6	-0.050643764
141	0x3e0785b7	0.13234602
142	0x3c7fcd94	0.0156129785
143	0xbd909178	-0.07058996
144	0xbd80cfdb	-0.06289645
145	0x3e2e466c	0.17019051
146	0xbc83320a	-0.016015071
147	0x3c10d710	0.008840337
148	0xbd3c0312	-0.045901366
149	0x3c905672	0.017619345
150	0x3da29cd7	0.07940071
151	0xbd52338a	-0.051318683
152	0xbccbcb18	-0.024877116
153	0xbd799ba0	-0.06093943
154	0x3c169bce	0.00919242
155	0x3ca46cb6	0.020071369
156	0xbdbdcc6c	-0.09267506
157	0xbd10f73f	-0.035392042
158	0x3b889b23	0.0041688844
159	0xbe2b7b31	-0.16746213
160	0xbcac769a	-0.021052647
161	0xbc829cf4	-0.015943982
162	0xbce5af82	-0.02803779
163	0x3d81dc92	0.063408986
164	0x3ca6d3b6	0.020364624
165	0xbe02168e	-0.12703916
166	0xbd3922b8	-0.045199126
167	0xbe57af5c	-0.21062988
168	0xbca65185	-0.020302543
169	0x3bdd9329	0.0067619276
170	0x3bb07384	0.0053848643
171	0x3e37136c	0.17878503
172	0x3a3a2406	0.0007100705
173	0x3dc564bd	0.09638355
174	0x3d70f6ab	0.05882899
175	0xbb337845	-0.0027384919
176	0xbdee7673	-0.11643686
177	0x3dd7187e	0.105027184
178	0xbc59f4e6	-0.013303017
179	0x3e3fdc9c	0.187365
180	0xbc46c6f2	-0.012132393
181	0xbe414d0a	-0.18877044
182	0xbd98bb86	-0.07457642
183	0x3cd565a3	0.02604944
184	0xbe03b63f	-0.1286249
185	0x3d6b6d47	0.057477262
186	0xbe639537	-0.2222489
187	0x3dd40148	0.10351807
188	0x3d5abf6f	0.05340522
189	0xbced06ed	-0.028933967
190	0xbdd2728e	-0.10275756
191	0xbcbc5734	-0.0229908
192	0xbe416c9a	-0.18889084
193	0xbd4ecb88	-0.05048707
194	0x3e0c7283	0.13715558
195	0xbd4f8f79	-0.050673936
196	0x3c73cbf2	0.014880167
197	0x3d57a305	0.052645702
198	0xba05e806	-0.00051081215
199	0xbd3f7794	-0.046744898
200	0xbcc95c66	-0.024580192
201	0xbca298b0	-0.019848198
202	0x3d062105	0.032746334
203	0xbe6256a6	-0.22103366
204	0x3dd9c6af	0.10633599
205	0x3d142e39	0.036176894
206	0xbc94f119	-0.01818137
207	0xbd940c26	-0.0722888
208	0x3cf1542b	0.02945908
209	0x3d5bb051	0.053634945
210	0xbd78fb26	-0.06078639
211	0x3e255870	0.16147017
212	0x3d6eb96b	0.058282297
213	0xbcc74b81	-0.024327995
214	0xbd02446b	-0.03180353
215	0x3d63150c	0.055439994
216	0xbdf63058	-0.120209396
217	0x3bbd0c69	0.0057693017
218	0xbd2c4c2c	-0.04206483
219	0xbd3ccdb2	-0.046094604
220	0x3d665922	0.056237347
221	0xbe2e471e	-0.17019317
222	0x3ce8b662	0.02840728
223	0x3dd64476	0.10462277
224	0x3cc5ce54	0.024146236
225	0x3de219c0	0.11040068
226	0xbd896e50	-0.067104936
227	0xbcdb126a	-0.026742179
228	0x3cdbf420	0.026849806
229	0x3d597c36	0.053096972
230	0x3d823bf0	0.063590884
231	0xbda0d710	-0.0785352
232	0x3d1bc247	0.038027074
233	0x3c11cf6c	0.008899551
234	0x3d8e9aa0	0.06963086
235	0x3c809e64	0.015700527
236	0x3dc6c7b2	0.097060576
237	0xbe27e8bd	-0.16397376
238	0xbdd8489d	-0.10560725
239	0x3db521de	0.0884435
240	0xbd28d2b9	-0.041216586
241	0xbc90e4c4	-0.017687209
242	0xbd09383e	-0.033500902
243	0xbd07bacc	-0.033137128
244	0xbbe96e80	-0.0071237683
245	0x3d36d93d	0.04464077
246	0xbc7395f1	-0.014867292
247	0xbe04eb2e	-0.12980339
248	0x3e1ae9aa	0.15128198
249	0xbd4ce571	-0.0500235
250	0x3b648b82	0.0034873192
251	0x3d4fc3ba	0.05072377
252	0x3d4ee6e4	0.050513163
253	0xbe081064	-0.13287503
254	0x3c93f40c	0.018060707
255	0x3dcc27f0	0.09968555

fc1.bias f4 [128]
0	0x3e483740	0.19552326
1	0x3df34cd8	0.11879891
2	0xbe0630aa	-0.13104501
3	0x3eb01a8c	0.34395254
4	0x3ebb5af6	0.36592835
5	0x3e30c9cc	0.1726448
6	0x3e8a7376	0.27041215
7	0x3c356840	0.011072218
8	0xbcd35a10	-0.025799781
9	0xbeb433f2	-0.3519588
10	0x3e45ded8	0.1932329
11	0xbdba49c0	-0.09096098
12	0xbeadcdf0	-0.3394618
13	0xbdc92d28	-0.09823066
14	0x3ec53bea	0.38522273
15	0x3e74ed28	0.23918593
16	0xbe9a08c4	-0.30084813
17	0x3e0d1690	0.13778138
18	0x3dfc9368	0.12332803
19	0xbeb3824e	-0.35060352
20	0xbd19dd38	-0.037564486
21	0xbe8f20f3	-0.27954826
22	0x3e600df0	0.21880317
23	0x3e951bb4	0.29122698
24	0xbe3c3df3	-0.18383007
25	0x3e04bfec	0.12963837
26	0xbeccd0c1	-0.40003017
27	0xbe14a92c	-0.14517659
28	0x3ebb659e	0.36600965
29	0x3e804a0e	0.250565
30	0x3d55f3f8	0.05223462
31	0x3e4be2bc	0.19910711
32	0x3d8c5e8c	0.06853971
33	0x3e1d7e44	0.15380198
34	0xbe7f5b97	-0.24937283
35	0x3e324638	0.17409599
36	0x3dbab9ac	0.09117445
37	0x3be14f40	0.0068759024
38	0xbca34c30	-0.01993379
39	0x3e871fa6	0.26391333
40	0xbd5ac988	-0.05341485
41	0x3dee7b58	0.1164462
42	0xbd90c874	-0.070694834
43	0xbe35341f	-0.17695664
44	0xbe0fadcc	-0.14031142
45	0x3ded1c60	0.11577678
46	0x3e9f41e4	0.31104958
47	0xbebdf6ff	-0.37102506
48	0xbddbd634	-0.107342154
49	0xbe87513e	-0.2642917
50	0x3e4c8490	0.19972444
51	0xbe974b24	-0.29549515
52	0x3dd14a78	0.10219282
53	0xbe35c071	-0.17749192
54	0xbd9b556c	-0.07584652
55	0xbd5550b8	-0.052078933
56	0xbe9ea4b4	-0.30985034
57	0x3be11d40	0.006869942
58	0x3ea3a422	0.3196116
59	0x3eb50c80	0.353611
60	0x3e47b9d0	0.19504476
61	0xbe44eb3e	-0.19230363
62	0xbdedcebc	-0.11611697
63	0xbdf50f3c	-0.11965796
64	0x3e61d750	0.22054791
65	0xbe144fc2	-0.1448355
66	0x3e98bed2	0.29833084
67	0xbda3f3ac	-0.08005461
68	0xbe6ad28a	-0.22931877
69	0x3d898410	0.06714642
70	0x3ebf7050	0.37390375
71	0x3e966424	0.29373276
72	0x3e8c602e	0.2741713
73	0x3eb77cb0	0.35837317
74	0x3ca3afa0	0.019981205
75	0x3cd26730	0.02568397
76	0x3e51e9f4	0.20499402
77	0x3e99f5e4	0.30070412
78	0xbebfeb0d	-0.37484017
79	0x3e8b08fc	0.27155292
80	0x3b500900	0.0031743646
81	0x3e1ca610	0.15297723
82	0x3ecff490	0.40616274
83	0x3ea0d37a	0.31411344
84	0x3e047624	0.12935692
85	0xbe3b5771	-0.18295075
86	0x3de9bbc8	0.114127696
87	0xbcd8d110	-0.026466876
88	0xbe76bd53	-0.24095659
89	0x3cd61d70	0.026137084
90	0xbeaad530	-0.33365774
91	0x3d402cd8	0.046917766
92	0x3da58cb0	0.08083475
93	0x3e9bac64	0.3040496
94	0xbea23ff1	-0.31689408
95	0x3e7f2200	0.24915314
96	0xbd2da270	-0.04239124
97	0x3eae4322	0.34035593
98	0xbd2a50b8	-0.041580886
99	0x3db3d1d4	0.08780256
100	0xbd958550	-0.07300818
101	0xbdcedfbc	-0.10101268
102	0x3ea710b4	0.3262993
103	0x3dc5b498	0.09653586
104	0x3e234ca0	0.15947199
105	0xbdc67640	-0.09690523
106	0xbd614ae0	-0.055003047
107	0xbebd27fa	-0.36944562
108	0x3d411038	0.047134608
109	0x3e574a24	0.21024376
110	0xbead2d70	-0.3382373
111	0x3da83ab4	0.08214322
112	0xbc211360	-0.0098312795
113	0xbea7d4a7	-0.32779428
114	0xbe59e8fa	-0.2128028
115	0xbd8c28b8	-0.06843704
116	0xbecdbc67	-0.40182802
117	0xbe648e46	-0.22319898
118	0xbd484850	-0.048897088
119	0x3e9f8a2c	0.31160104
120	0x3d1afd48	0.037839204
121	0x3df06a28	0.11738998
122	0x3e465da4	0.19371659
123	0x3e38b710	0.18038583
124	0xbd9cb2e4	-0.07651308
125	0xbe92e7b6	-0.28692406
126	0xbeba9b06	-0.36446398
127	0x3ddc38d8	0.107530296

fc2.weight f4 [2, 128]
0	0xbc8916b8	-0.016734466
1	0x3d122df8	0.03568837
2	0x3cf7ce14	0.030249633
3	0x3ceb7fec	0.028747521
4	0xbcf67076	-0.030082922
5	0xbd55aa4d	-0.052164365
6	0xbd5b6ebd	-0.053572405
7	0x3d8a73f9	0.06760401
8	0x3c02db88	0.007986911
9	0xbd5b5c14	-0.05355461
10	0x3db2e625	0.08735303
11	0xbd1e86d9	-0.03870282
12	0x3db44967	0.08803063
13	0xbca84c90	-0.02054432
14	0x3bbc0ae0	0.005738601
15	0x3d033ffe	0.03204345
16	0xbc51e608	-0.012811191
17	0x3d7297ba	0.05922673
18	0x3d0a59e8	0.033777148
19	0xbbe6b070	-0.007040076
20	0xbd83628b	-0.0641528
21	0xbcb7ff90	-0.022460729
22	0x3daef7ff	0.08543395
23	0x3da3eaa3	0.08003738
24	0x3d99d997	0.07512205
25	0xbcb0612c	-0.02153071
26	0x3bda0be0	0.0066542476
27	0xbd6c293e	-0.05765652
28	0x3d0fc9fe	0.035104744
29	0xbd977a73	-0.07396402
30	0xbda75000	-0.08169556
31	0x3d88b3bb	0.06674906
32	0xbb83e5e0	-0.004025206
33	0xbd3215d9	-0.043477867
34	0xbd149fd3	-0.036285233
35	0x3c2e9fb8	0.010658197
36	0x3daa6007	0.08319097
37	0x3d981cf3	0.074273966
38	0x3ca53d18	0.020170733
39	0xbbcd4bd0	-0.006265141
40	0xbd919c81	-0.07109929
41	0xbd25c561	-0.04047144
42	0xbd265792	-0.040610857
43	0xbce17e40	-0.027526021
44	0x3c3404d0	0.0109874755
45	0x3d0e61e8	0.03476134
46	0x3d5a3dfe	0.053281777
47	0xbce50124	-0.027954645
48	0x3d8ed99f	0.06975102
49	0xbca15ae8	-0.019696668
50	0xbc616490	-0.013756886
51	0xbd909016	-0.07058732
52	0xbcda2df8	-0.026633248
53	0x3bd9d3f0	0.0066475794
54	0xbcd8bcae	-0.026457157
55	0x3c490340	0.012268841
56	0xbcfe8fee	-0.03107449
57	0x3d813f5f	0.06310915
58	0xbd126d06	-0.035748504
59	0x3d888de7	0.06667691
60	0x3db2f091	0.08737291
61	0x3d1471e2	0.03624142
62	0xbd0ffc87	-0.03515294
63	0xbd981644	-0.07426122
64	0x3dab681d	0.083694674
65	0x3d740572	0.059575506
66	0xbc9bbca4	-0.01901085
67	0x3cff61d0	0.03117457
68	0xbc060c10	-0.008181587
69	0xbd0ea51d	-0.034825433
70	0xbceeb578	-0.029139265
71	0xbc80912c	-0.015694223
72	0xbbdbae40	-0.006704122
73	0x3d771dfe	0.060331337
74	0xbc5cae58	-0.013469301
75	0xbc8930fc	-0.01674699
76	0x3ceae748	0.028674737
77	0x3be2aef0	0.006917827
78	0x3c81c090	0.015838891
79	0x3dab9e27	0.083797745
80	0xbda11ea4	-0.07867172
81	0xbc9675ac	-0.018366657
82	0xbd4917c0	-0.049094915
83	0x3dac4693	0.084118985
84	0xbda8463e	-0.08216523
85	0x3d23da76	0.040003262
86	0xbcf84442	-0.030305985
87	0x3d655a4a	0.05599431
88	0x3c4163d0	0.011803582
89	0xbc5bc3f8	-0.013413422
90	0xbcfc4bf4	-0.030797936
91	0xbc3c9878	-0.011510961
92	0x3d926e0d	0.07149897
93	0xbd63f1a2	-0.05565036
94	0x3d0627b0	0.032752693
95	0x3db4d347	0.088293605
96	0x3d37cdfa	0.04487417
97	0xbd7df46a	-0.06200067
98	0x3b843140	0.0040341914
99	0xbd677bbf	-0.056514498
100	0x3d633ef2	0.05547995
101	0xbd3580ce	-0.04431229
102	0x3d803e2b	0.062618576
103	0x3d83ba77	0.0643205
104	0x3ceda8d8	0.029011175
105	0x3db21a9b	0.08696481
106	0xbd5bcdfa	-0.05366323
107	0xbb36be60	-0.0027884468
108	0xbb5691a0	-0.0032740608
109	0x3db442f5	0.088018335
110	0x3bc61b70	0.0060457513
111	0x3d0a533e	0.033770792
112	0xbd7cc8aa	-0.061714806
113	0xbb35f1e0	-0.0027762577
114	0xbcdd3d54	-0.027006783
115	0xbdb1fb4b	-0.086905085
116	0x3d3b4386	0.045718692
117	0xbc8139ec	-0.01577469
118	0xbdb2fc01	-0.08739472
119	0x3d984767	0.07435494
120	0xbcb13f34	-0.021636583
121	0x3cb02898	0.021503732
122	0x3d841429	0.06449158
123	0x3c4f9338	0.012669377
124	0x3da01687	0.07816797
125	0xbd7dbc9e	-0.061947457
126	0xbc629ae8	-0.013830878
127	0xbd7f2d79	-0.062299225
128	0x3d46146e	0.048359327
129	0xbbe0a170	-0.0068551823
130	0x3d2ba83e	0.041908495
131	0xbc8657e8	-0.016399339
132	0xbd9ccd9e	-0.07656406
133	0x3d3a1132	0.045426555
134	0xbd5e96da	-0.054343082
135	0x3d0d1cc0	0.034451246
136	0xbd5e014c	-0.054200456
137	0xbd2b44f1	-0.041813795
138	0xbcb3d280	-0.02195096
139	0xbdad49c0	-0.08461332
140	0x3d17921e	0.037004583
141	0xbd00a032	-0.031402774
142	0x3c58c4b0	0.013230488
143	0x3daa687d	0.08320711
144	0x3d8b2541	0.06794215
145	0x3d8782cb	0.06616744
146	0x3d15a9f6	0.03653904
147	0xbd9365f4	-0.071971804
148	0xbd9335b0	-0.071879745
149	0x3cf410e8	0.029793218
150	0xbd9d283a	-0.07673688
151	0x3d687b96	0.056758486
152	0xbd40805c	-0.046997413
153	0x3d18526a	0.03718797
154	0x3d88859b	0.06666108
155	0x3d8ae23b	0.06781431
156	0x3d909261	0.070591696
157	0x3daa2d93	0.08309474
158	0xbd49a10a	-0.049225844
159	0x3d395362	0.045245536
160	0x3d806d4f	0.06270849
161	0x3ca7cbac	0.02048286
162	0x3d9d9a73	0.076954745
163	0xbd59ff79	-0.053222153
164	0x3da116f5	0.07865707
165	0x39967f00	0.00028704852
166	0x3d39ff4a	0.04540948
167	0xbd360cc4	-0.044445768
168	0x3c996164	0.018723197
169	0x3c689a38	0.014196925
170	0xbd454fe5	-0.048171896
171	0x3d14e60a	0.036352195
172	0x3d57fe3a	0.052732684
173	0xbcbe36c8	-0.023219481
174	0xbcf7af0a	-0.030234832
175	0xbda4ac7e	-0.08040713
176	0x3d606872	0.054787107
177	0x3d780176	0.06054827
178	0xbca93158	-0.020653412
179	0x3daaccc5	0.08339838
180	0xbda64115	-0.08117882
181	0x3d88001b	0.06640645
182	0xbd8ebc43	-0.06969502
183	0xbcde46d4	-0.027133383
184	0x3b3fa620	0.0029243305
185	0xbda0ccb6	-0.078515455
186	0x3d27c1c2	0.040956266
187	0x3d10f542	0.035390146
188	0x3d010626	0.031500004
189	0xbd81028c	-0.06299314
190	0x3daeec27	0.08541136
191	0x3d91e53d	0.07123802
192	0xbcf378a2	-0.029720608
193	0x3c20bfb8	0.009811334
194	0xbd81a45c	-0.06330177
195	0x3d3eb08e	0.046555094
196	0x3d2ae5ba	0.04172299
197	0xbc3ae3b8	-0.011406831
198	0xbd0e0037	-0.034668174
199	0x3da546d9	0.08070154
200	0x3d249cb2	0.0401885
201	0x3d49845a	0.049198486
202	0x3d28af7e	0.041182987
203	0xbd11cab0	-0.03559369
204	0xbc353270	-0.0110593885
205	0xbd86b3c5	-0.06577257
206	0x3d6a60ee	0.057221346
207	0xbc5930b0	-0.013256237
208	0x3c373420	0.011181861
209	0x3d8d745b	0.06906959
210	0x3d1606c6	0.036627553
211	0xbd0779e8	-0.033075243
212	0xbd337558	-0.04381308
213	0xbc395080	-0.011310697
214	0xbd2bca8a	-0.041941203
215	0xbc611258	-0.013737284
216	0x3ce93b3c	0.028470628
217	0x3d10cfe2	0.035354502
218	0xbd00a99e	-0.03141176
219	0xbdb1c160	-0.086794615
220	0x3cdfe418	0.027330443
221	0x3d4173d6	0.04722961
222	0x3b7d0280	0.0038606226
223	0x3b189360	0.0023281202
224	0x3cd408c4	0.025883086
225	0x3ace2c40	0.001572974
226	0xbd807f7f	-0.06274318
227	0x3d22e8ca	0.039772786
228	0x3b803700	0.0039128065
229	0xbbacfd80	-0.005279243
230	0xbca641d8	-0.020295069
231	0xbdb293fa	-0.087196305
232	0x3d870361	0.06592441
233	0xbd83a96a	-0.064287975
234	0x3d6ff20a	0.058580436
235	0xbda4d0a7	-0.0804761
236	0xbce2644e	-0.02763572
237	0xbd68311e	-0.056687467
238	0x3cb105d0	0.021609217
239	0x3d85657f	0.065134995
240	0xbdb33423	-0.08750179
241	0xbd8a3c98	-0.067498386
242	0xbd4d2617	-0.050085153
243	0x3d36efda	0.044662334
244	0x3d01d818	0.031700224
245	0x3d6330f6	0.055466615
246	0x3d883407	0.066505484
247	0xbd6abe63	-0.057310473
248	0x3d896995	0.06709591
249	0x3d7eefda	0.06224046
250	0x3cb760a8	0.022384956
251	0xbd758b02	-0.05994702
252	0x3d5674be	0.052357428
253	0xbd8108ec	-0.0630053
254	0x3d6014fa	0.054707505
255	0x3d6c635e	0.05771195

fc2.bias f4 [2]
0	0xbd9532da	-0.0728509
1	0xbbe3ea20	-0.0069554
