IA/best_model.pth (torch, 6696 bytes, 4 tensors)

fc1.weight f4 [128, 6]
0.18553546 0.08869853 -0.0032764622 -0.013940914 0.07873039 -0.086004965 -0.046895508 -0.0052348953
0.16057432 -0.01696557 -0.06033706 0.07346684 -0.053771876 -0.07911079 -0.10769221 0.00038232963
0.05075389 -0.031586386 -0.013249055 -0.11965349 0.15528798 -0.007426122 0.0031420763 0.34302446
0.11230218 -0.17527035 0.012275428 0.09641336 0.007124301 -0.07984551 0.040424567 0.1680663
-0.14965859 -0.06356714 -0.035124697 0.09991142 0.12986854 -0.038248032 -0.02577812 -0.055399615
0.08513312 -0.007123082 0.02345836 -0.023728728 0.08833475 0.09714789 -0.114879236 -0.060707703
-0.12604582 0.086237304 -0.042179987 -0.019383771 0.11551708 0.044459697 0.07008532 0.0069260397
-0.017568972 0.07210166 0.19305557 0.0013287849 -0.04611232 0.094985545 0.03378751 0.01115592
-0.055347867 -0.09535344 -0.059341714 -0.11235173 -0.10562733 0.0058474485 -0.11227893 0.057493333
0.07368323 -0.06745365 0.25291127 0.066442594 -0.016078541 -0.02039522 0.0022512223 0.03019427
-0.04095561 -0.1883302 -0.07756342 -0.09603326 0.14942478 0.13407403 -0.06964247 -0.03322254
-0.13312174 -0.09719713 -0.01111272 0.010565061 0.08780967 -0.08979641 0.0058693592 -0.038728
0.03458009 -0.18694784 -0.17670691 -0.09813412 0.09549536 -0.16493951 -0.061215155 -0.009620033
0.0975146 -0.075969964 -0.012292425 -0.021287862 0.1704648 0.012616413 -0.20030943 -0.03798937
-0.037113763 -0.10098873 -0.09617381 -0.08616919 -0.020722086 -0.12131947 0.1623311 -0.086105585
-0.11618392 -0.014206251 0.07772367 -0.010829423 0.050205827 -0.05805318 -0.061469417 -0.04868237
-0.11109551 -0.15944606 -0.06583358 -0.1204263 0.061704565 -0.15252414 0.003328391 0.14342993
0.22731662 -0.0253083 -0.027477916 -0.10683093 -0.08869238 -0.02997807 0.114134476 0.048941948
-0.05322925 -0.08533438 0.09766012 -0.08923361 0.10310337 0.13633491 -0.029930761 0.025859307
0.012260476 -0.047908943 0.052201018 0.009562606 -0.055072524 0.08067946 0.06580153 0.061930705
0.031095937 -0.07106615 0.032152504 0.022648208 0.0031320541 0.05944922 0.093247056 -0.059434794
-0.02405898 -0.021752395 0.016656592 0.08448715 -0.0022395737 -0.00075546425 -0.10170753 -0.07717372
-0.12090066 -0.04345688 -0.094082855 0.107727215 -0.02388521 0.045546032 0.01834014 0.010412039
-0.12173287 0.031195085 -0.009890154 0.076637 0.028285522 -0.11398941 0.09953375 -0.093803674
0.11453056 -0.0078075645 0.06934927 -0.009545875 0.107918695 -0.03843192 0.1272292 0.021961
-0.10721713 0.007412567 0.12325871 -0.0076249884 0.15150663 -0.01805105 0.11587631 -0.09541202
-0.06314655 -0.14250454 0.019087825 0.118205056 -0.19716886 0.008106093 0.12504496 -0.06211865
-0.03130912 0.05134148 -0.013423099 0.013826605 0.06690282 -0.04657181 0.13837792 -0.034742508
0.11261439 -0.01022114 0.08929352 -0.080492035 0.016168945 -0.014413846 -0.10102087 -0.015888501
0.10343118 0.09692319 0.03712885 0.08673952 0.020877343 -0.040966995 0.004849006 -0.053693783
-0.05305744 0.027403593 -0.060293525 0.12130301 0.036021106 0.1284114 0.046350945 0.073922664
-0.049086086 -0.044858713 0.061322846 -0.038314257 0.055713233 -0.06545515 -0.22410125 0.1605808
00000000: 02fd 3d3e 93a7 b53d eab9 56bb 6e68 64bc
00000010: 663d a13d 5f23 b0bd 8115 40bd 7c89 abbb
00000020: 986d 243e 61fb 8abc fe23 77bd c875 963d
00000030: e63f 5cbd d604 a2bd bc8d dcbd 6a73 c839
00000040: 50e3 4f3d ba60 01bd 9012 59bc e40c f5bd
00000050: d003 1f3e d456 f3bb 4beb 4d3b e7a0 af3e
00000060: affe e53d 127a 33be e01e 493c 5e74 c53d
00000070: f872 e93b 0b86 a3bd 3b94 253d 9219 2c3e
00000080: 1a40 19be 7d2f 82bd eade 0fbd 5c9e cc3d
00000090: 42fc 043e f8a9 1cbd a32c d3bc b5ea 62bd
000000a0: 465a ae3d be68 e9bb bf2b c03c c062 c2bc
000000b0: d9e8 b43d 79f5 c63d ce45 ebbd a4a8 78bd
000000c0: 2812 01be 2f9d b03d ecc4 2cbd b7ca 9ebc
000000d0: 3894 ec3d 5f1b 363d e488 8f3d d5f3 e23b
000000e0: ceec 8fbc 09aa 933d 5cb0 453e 9f2a ae3a
000000f0: 46e0 3cbd c887 c23d c664 0a3d 52c7 363c
00000100: 72b4 62bd aa48 c3bd 4c10 73bd aa18 e6bd
00000110: 2453 d8bd f49b bf3b 7ff2 e5bd 217e 6b3d
00000120: 3ce7 963d 2425 8abd 967d 813e 0e13 883d
00000130: 25b7 83bc e013 a7bc 3e89 133b f959 f73c
00000140: 12c1 27bd a2d9 40be 92d9 9ebd 16ad c4bd
00000150: cf02 193e b44a 093e b6a0 8ebd 5c14 08bd
00000160: 1151 08be 4a0f c7bd 2012 36bc 1419 2d3c
00000170: 8ed5 b33d 2ee7 b7bd c153 c03b 40a1 1ebd
00000180: daa3 0d3d 416f 3fbe a8f2 34be 8bfa c8bd
00000190: 1293 c33d e7e5 28be bebc 7abd 589d 1dbc
000001a0: bcb5 c73d 2496 9bbd 2b66 49bc e263 aebc
000001b0: 538e 2e3e 12b5 4e3c ea1d 4dbe be9a 1bbd
000001c0: 9a04 18bd 2ed3 cebd c6f6 c4bd 7979 b0bd
000001d0: 5dc1 a9bc 5876 f8bd 203a 263e 2058 b0bd
000001e0: d6f1 edbd 56c1 68bc 962d 9f3d e46d 31bc
000001f0: a0a4 4d3d 2cc9 6dbd 5bc7 7bbd 2a67 47bd
00000200: 0b86 e3bd d445 23be c2d3 86bd 10a2 f6bd
00000210: edbd 7c3d 4a2f 1cbe 2221 5a3b 4cdf 123e
00000220: b0c5 683e 5a53 cfbc 5e19 e1bc 2dca dabd
00000230: 5aa4 b5bd 9294 f5bc 56bf e93d 5a77 483d
00000240: ea06 5abd cbc3 aebd 0702 c83d 1cc0 b6bd
00000250: dc27 d33d 619b 0b3e 5b31 f5bc e6d6 d33c
00000260: 2ae0 483c 2b3c 44bd bcd0 553d 7aac 1c3c
00000270: ba93 61bd 463b a53d f4c2 863d 0dab 7d3d
00000280: e8bc fe3c 218b 91bd 58b2 033d bc88 b93c
00000290: 2643 4d3b 0681 733d 50f8 be3d e671 73bd
000002a0: 5717 c5bc 1432 b2bc 6873 883c 9907 ad3d
000002b0: d0c5 12bb 590a 46ba 0a4c d0bd 410d 9ebd
000002c0: c49a f7bd d7ff 31bd 83ae c0bd 16a0 dc3d
000002d0: eaaa c3bc 7a8e 3a3d 103e 963c 4297 2a3c
000002e0: 154f f9bd d68c ff3c 500a 22bc dcf3 9c3d
000002f0: 0ab7 e73c 4873 e9bd 5ad8 cb3d 241c c0bd
00000300: 008f ea3d 99d6 ffbb fd06 8e3d 4d66 1cbc
00000310: 7a04 dd3d ca6a 1dbd 5f48 023e 8ee7 b33c
00000320: a894 dbbd 1ee5 f23b 106f fc3d 0adb f9bb
00000330: 8e24 1b3e ccdf 93bc 8f50 ed3d 6167 c3bd
00000340: fa52 81bd b6ec 11be 125e 9c3c 7e15 f23d
00000350: a2e6 49be 6bcf 043c c90b 003e 2070 7ebd
00000360: fe3d 00bd 724b 523d 8fec 5bbc fc88 623c
00000370: 5804 893d 15c2 3ebd f1b2 0d3e 294e 0ebd
00000380: 60a2 e63d 9276 27bc 85df b63d 02d9 a4bd
00000390: bc74 843c 0d28 6cbc 08e4 cebd 9a28 82bc
000003a0: bad3 d33d aa7f c63d 6c14 183d 7da4 b13d
000003b0: f606 ab3c 02cd 27bd 69e4 9e3b 03ee 5bbd
000003c0: c252 59bd 807d e03c 58f6 76bd b66d f83d
000003d0: de8a 133d 477e 033e 7dda 3d3d c464 973d
000003e0: 7e0e 49bd c5bd 37bd aa2d 7b3d 69ef 1cbd
000003f0: 8f33 643d 5a0d 86bd cc7a 65be 4b6f 243e

fc1.bias f4 [128]
-0.22400238 0.29490548 0.37745595 -0.16075675 -0.3716578 0.25620997 0.04529977 0.38848424
0.096265376 0.3360659 0.16748196 0.2240296 -0.14247143 -0.2695796 0.04110253 -0.34797177
0.29993653 0.31871665 -0.18970378 0.09805322 0.003993213 0.033562124 -0.40100086 0.3020432
-0.045167625 0.2662754 -0.084236085 0.014268339 -0.22922683 -0.21087348 0.18298948 0.031811625
0.30943978 -0.11425662 0.33861 -0.15490839 -0.20315087 0.21961701 -0.08645564 -0.24869718
-0.119264096 -0.35343906 0.3569731 0.2863403 -0.25738195 -0.30569395 0.023673922 -0.046295494
-0.2732517 -0.21870168 -0.37978506 0.35929936 0.15537083 -0.25951564 0.088501126 -0.2654436
-0.16754287 -0.070130825 0.32811314 0.34321165 0.19231975 0.13967878 0.08842456 -0.35615546
0.23606104 -0.32822686 -0.16812149 -0.19290914 0.23029208 0.10037023 -0.07057527 -0.2347407
0.36500502 -0.07331917 -0.17357422 -0.18900706 0.09875262 -0.24719341 -0.1151537 0.054006696
-0.37564808 0.105232954 0.24900323 -0.20840262 -0.37361124 0.13239342 -0.22916779 -0.38429987
0.29684567 0.28511107 -0.2513572 -0.39402342 0.09137884 -0.057440877 0.21220446 -0.36709058
0.2775324 0.006662935 0.011769235 -0.16715175 -0.39564028 -0.15851423 -0.22407007 -0.3506602
0.2965172 0.3017084 -0.07577923 0.33153313 -0.04420957 0.34183526 -0.034980804 -0.25705603
-0.3788751 0.22539574 0.27309364 -0.17385323 0.08131796 -0.3344053 -0.33433837 0.35605007
0.09705639 -0.1300604 -0.034507662 0.2643916 -0.123615175 0.35051817 -0.33307 -0.3333244
00000000: e160 65be dafd 963e e841 c13e 6b9d 24be
00000010: ee49 bebe f42d 833e 408c 393d 68e7 c63e
00000020: c826 c53d d410 ac3e 6480 2b3e 0468 653e
00000030: 08e4 11be 5606 8abe 205b 283d 5b29 b2be
00000040: 4891 993e d42e a33e b541 42be 20d0 c83d
00000050: 80d9 823b 7078 093d fc4f cdbe 68a5 9a3e
00000060: b001 39bd 4055 883e f883 acbd c0c5 693c
00000070: 70ba 6abe 38ef 57be 9861 3b3e e84c 023d
00000080: e46e 9e3e 60ff e9bd 4a5e ad3e 4ea0 1ebe
00000090: c806 50be 48e3 603e a80f b1bd 79aa 7ebe
000000a0: bc40 f4bd f7f5 b4be 2ec5 b63e 329b 923e
000000b0: 91c7 83be eb83 9cbe d0ef c13c 58a0 3dbd
000000c0: a6e7 8bbe 55f3 5fbe 3073 c2be 16f6 b73e
000000d0: 8819 1f3e 3cdf 84be 1440 b53d 39e8 87be
000000e0: 5c90 2bbe c0a0 8fbd 72fe a73e 70b9 af3e
000000f0: 78ef 443e f407 0f3e f017 b53d 025a b6be
00000100: fcb9 713e 5a0d a8be 0a28 2cbe f989 45be
00000110: b0d1 6b3e e88e cd3d c489 90bd de5f 70be
00000120: f0e1 ba3e 5c28 96bd 71bd 31be 118b 41be
00000130: d03e ca3d 4520 7dbe b4d5 ebbd 2036 5d3d
00000140: f254 c0be 6084 d73d b4fa 7e3e 7f67 55be
00000150: f949 bfbe 2492 073e f6aa 6abe f4c2 c4be
00000160: 28fc 973e 14fa 913e e4b1 80be 70bd c9be
00000170: d424 bb3d 2047 6bbd 204c 593e 4cf3 bbbe
00000180: ba18 8e3e c054 da3b c0d3 403c d429 2bbe
00000190: 5d91 cabe 8e51 22be a072 65be bc89 b3be
000001a0: 1ad1 973e 8679 9a3e 2432 9bbd b6be a93e
000001b0: 1815 35bd 0805 af3e 0848 0fbd d99c 83be
000001c0: ebfb c1be 24ce 663e eed2 8b3e 9506 32be
000001d0: 088a a63d 2c37 abbe 662e abbe 324c b63e
000001e0: 80c5 c63d 8e2e 05be e857 0dbd 565e 873e
000001f0: f429 fdbd 1e77 b33e 2788 aabe 7fa9 aabe

fc2.weight f4 [2, 128]
0.03997246 -0.034545116 0.08105347 0.0076328367 -0.068251595 0.027266167 0.08602568 0.06452077
0.006295942 0.03540978 -0.016066 0.041605808 0.043790348 0.056493767 -0.037609868 0.0059239417
-0.049245324 -0.044391874 -0.08450463 0.045453094 -0.08300063 0.02844727 -0.010025501 0.038663276
-0.01502648 -0.018510066 0.036131673 0.00074917823 -0.0030725077 -0.05041152 0.015548207 0.024776109
-0.06082213 -0.025169581 -0.042740032 0.086694695 -0.021444991 0.07103052 0.042032517 0.08213524
0.069595255 0.03077659 0.056790702 0.048590593 0.035987116 -0.0675066 -0.033426452 0.028949551
0.006189011 0.03385313 0.04820446 0.012021631 0.06552019 -0.039354946 -0.028604899 -0.036188085
0.04782296 -0.04884392 0.064700685 0.07826703 0.058977626 0.08473823 -0.010719702 0.06706657
0.020608291 -0.015669331 -0.0654705 -0.051212456 -0.01868704 0.023383662 0.07361346 -0.07130305
-0.05779278 -0.08797053 0.048541628 0.018241882 0.007940382 -0.05158334 0.02164831 -0.043099746
0.03933803 -0.02513852 0.078726016 0.013753682 -0.054667845 -0.08594061 -0.06723632 0.035415627
-0.03631479 -0.0063563213 0.0822973 0.009821512 0.030355074 0.024055116 0.017086647 0.082673244
-0.0090811625 0.014947072 0.030901775 0.046399392 0.07199333 -0.009096883 -0.07049487 -0.062653765
0.009134099 -0.07282084 -0.034838416 0.05704149 -0.040958624 0.04908102 0.03624551 -0.084328875
0.044696964 -0.0088856 -0.03540745 0.015660733 0.07720875 0.046215452 0.023820743 0.058356844
-0.05877516 -0.05664115 0.03163194 -0.034574408 -0.03606535 -0.067869626 0.0035494491 0.007504232
-0.021424592 0.042590372 -0.010276869 -0.047750387 -0.02699317 0.07350942 -0.027229782 0.026456736
0.04031522 -0.0755643 0.021848 -0.05927083 0.025924757 -0.085513815 0.012681231 -0.08050978
0.044706978 -0.043726932 0.029656105 0.057637878 0.03402578 0.069556974 -0.018561177 -0.052513793
0.035548158 0.04304456 -0.049713407 -0.020688899 -0.07216524 0.07564493 -0.072388895 0.016854048
0.08600066 -0.006477684 0.004061483 0.04324881 0.08615325 -0.03672888 0.05789844 0.0002310723
-0.013478026 0.043375082 -0.03781842 0.06699886 0.06955623 0.069243334 0.0027452484 0.057492442
0.08376377 0.08684484 -0.04191625 0.074774586 0.087672286 -0.054689042 -0.008860499 -0.02794592
0.04401254 -0.04018842 -0.0166087 0.08594259 -0.058773294 -0.023864254 0.010980867 0.040038608
-0.07091604 0.030860715 -0.01033549 -0.04125893 0.05888488 0.060494475 -0.0063185096 -0.03272949
0.027792692 -0.08392945 -0.046512786 -0.010043994 0.057009287 0.04150047 0.08593807 0.021949701
-0.07881625 0.086795576 -0.0498925 0.057733633 0.01672148 0.055257358 -0.064248115 0.036942698
0.027159847 0.00669574 0.009731613 -0.062299374 0.027507 -0.011475258 0.019820072 0.011191338
-0.038404968 -0.013742454 -0.03850359 0.08111053 -0.05905923 -0.041773837 0.019150086 0.084919
0.022220641 -0.0061747357 0.07745259 0.011041775 0.033369504 0.0684387 0.008773021 -0.032137297
-0.0588926 0.022029124 -0.05089742 -0.041366603 -0.05195073 0.028880104 0.08389766 -0.00059886277
-0.011732101 -0.047353752 0.032708265 -0.031739093 -0.06884614 -0.013260558 -0.003920734 -0.07298431
00000000: 2aba 233d 2e7f 0dbd 5dff a53d e01c fa3b
00000010: 7ec7 8bbd 4c5d df3c 3b2e b03d 7723 843d
00000020: 304e ce3b d809 113d d89c 83bc da6a 2a3d
00000030: 825d 333d 0266 673d ce0c 1abd a01d c23b
00000040: 77b5 49bd 41d4 35bd c310 adbd 062d 3a3d
00000050: 3cfc a9bd 400a e93c 0042 24bc 625d 1e3d
00000060: a031 76bc 6ca2 97bc cefe 133d 8064 443a
00000070: 205c 49bb 4f7c 4ebd e8bd 7e3c 44f7 ca3c
00000080: a020 79bd 7030 cebc 2c10 2fbd fd8c b13d
00000090: 68ad afbc 7378 913d 4a2a 2c3d 8536 a83d
000000a0: f587 8e3d 301f fc3c 5e9d 683d ee06 473d
000000b0: 3a67 133d e640 8abd 2dea 08bd 9c27 ed3c
000000c0: 30cd ca3b 94a9 0a3d 0a72 453d 60f6 443c
000000d0: 732f 863d a732 21bd d254 eabc f539 14bd
000000e0: 02e2 433d 9010 48bd cb81 843d 774a a03d
000000f0: 8692 713d 3d8b ad3d b0a1 2fbc 335a 893d
00000100: b8d2 a83c f85c 80bc 6615 86bd 27c4 51bd
00000110: 9015 99bc 188f bf3c a7c2 963d 5507 92bd
00000120: 1fb8 6cbd e529 b4bd 96d3 463d 0070 953c
00000130: 6018 023c 0d49 53bd cc57 b13c 5c89 30bd
00000140: ea20 213d 4cef cdbc 1b3b a13d 2057 613c
00000150: 64eb 5fbd a101 b0bd 32b3 89bd fa0f 113d
00000160: d1be 14bd b048 d0bb 7d8b a83d 68ea 203c
00000170: 34ab f83c 3c0f c53c 4cf9 8b3c 9750 a93d
00000180: 28c9 14bc 90e4 743c b825 fd3c 4a0d 3e3d
00000190: 3d71 933d 180b 15bc 9d5f 90bd 9e50 80bd
000001a0: 30a7 153c 1823 95bd bab2 0ebd 56a4 693d
000001b0: 3bc4 27bd 2e09 493d 2c76 143d 9eb4 acbd
000001c0: 2a14 373d e894 11bc 6707 11bd f04a 803c
000001d0: 9f1f 9e3d 6a4c 3d3d b823 c33c 9607 6f3d
000001e0: 39be 70bd 8d00 68bd 7e90 013d e59d 0dbd
000001f0: 43b9 13bd 3bff 8abd e09d 683b 10e6 f53b
00000200: a082 afbc 3e73 2e3d 5060 28bc e995 43bd
00000210: c820 ddbc 1b8c 963d fe10 dfbc ccbb d83c
00000220: 9221 253d 75c1 9abd 94fa b23c f8c5 72bd
00000230: 2860 d43c de21 afbd f0c4 4f3c 50e2 a4bd
00000240: aa1e 373d 031b 33bd 5cf1 f23c b215 6c3d
00000250: 9e5e 0b3d e373 8e3d 9c0d 98bc b418 57bd
00000260: f29a 113d 7e4f 303d 49a0 4bbd c47b a9bc
00000270: 5fcb 93bd bbeb 9a3d a140 94bd 8011 8a3c
00000280: 1d21 b03d c042 d4bb 3016 853b aa25 313d
00000290: 1d71 b03d 0671 16bd ea26 6d3d 004c 7239
000002a0: f0d2 5cbc 12aa 313d 7de7 1abd b336 893d
000002b0: 7f73 8e3d 73cf 8d3d a0e9 333b 327d 6b3d
000002c0: 578c ab3d b5db b13d 60b0 2bbd 6b23 993d
000002d0: 878d b33d 9e01 60bd a02b 11bc d8ee e4bc
000002e0: 7e46 343d 9d9c 24bd f80e 88bc ab02 b03d
000002f0: 44bc 70bd f87e c3bc 18e9 333c 86ff 233d
00000300: 6e3c 91bd 9ccf fc3c 3056 29bc 20ff 28bd
00000310: 4631 713d 0ec9 773d 800b cfbb 5c0f 06bd
00000320: 80ad e33c 34e3 abbd 3184 3ebd 908f 24bc
00000330: 9282 693d 66fc 293d 4d00 b03d dccf b33c
00000340: 6a6a a1bd e1c1 b13d 145c 4cbd 1a7a 6c3d
00000350: 7cfb 883c 8a55 623d 8494 83bd 3a51 173d
00000360: 547e de3c f067 db3b 5871 1f3c a12d 7fbd
00000370: 5c56 e13c b802 3cbc b45d a23c e05b 373c
00000380: 874e 1dbd 0828 61bc f1b5 1dbd 471d a63d
00000390: 17e8 71bd 0b1b 2bbd a4e0 9c3c 03ea ad3d
000003a0: 1008 b63c 7055 cabb 779f 9e3d 90e8 343c
000003b0: 76ae 083d 9729 8c3d b8bc 0f3c 66a2 03bd
000003c0: 5e39 71bd 6c76 b43c d079 50bd 0770 29bd
000003d0: 4aca 54bd f895 ec3c 89d2 ab3d 00fd 1cba
000003e0: 0038 40bc 02f6 41bd 1af9 053d da00 02bd
000003f0: 34ff 8cbd d042 59bc 8079 80bb cc78 95bd

fc2.bias f4 [2]
-0.028876156 -0.032515522
00000000: b08d ecbc ff2e 05bd
