IA/best_model.pth (torch, 6696 bytes, 4 tensors)

fc1.weight f4 [128, 6]
000000 95 d6 05 bc 76 16 2c 3e 4b 57 60 3d a0 38 39 3d
       -0.008168836 0.16805443 0.05477075 0.045220017
000010 33 95 84 3c c0 77 fc 3d 31 e0 ff 3c 06 86 18 be
       0.016184425 0.12327528 0.031234832 -0.14894876
000020 9e 46 3c be 00 45 79 bd f0 1f 07 bd 1c 8a 01 3b
       -0.18386313 -0.06085682 -0.032989442 0.0019766157
000030 e8 51 6a 3d 9b 2a ae bc 29 cf 96 3d 80 14 a8 bd
       0.057207018 -0.02126055 0.073637314 -0.08207035
000040 30 29 e9 bc 56 df 82 bd 33 18 3d bd 46 8d 70 bd
       -0.028462023 -0.06390254 -0.046165656 -0.05872848
000050 94 91 de bd c2 db 60 bd de a0 72 be 3e 71 09 be
       -0.108676106 -0.054897077 -0.23694178 -0.13422105
000060 fc 3d b7 3d 6c 70 06 3e 3a f5 0a be bc 27 02 3e
       0.089473695 0.13128823 -0.13570109 0.1271047
000070 64 63 69 3e e8 e6 92 bd f6 62 a9 bc d6 ab 28 3d
       0.22791821 -0.07172948 -0.020677071 0.0411795
000080 d8 6d d7 3d 33 22 9e 3c c9 6b 98 3c 45 6b 34 bd
       0.10518998 0.019303417 0.018606083 -0.044047613
000090 7e a6 1f be 90 da 52 3e 55 88 ac 3d 7b c9 2e 3d
       -0.15590855 0.20591187 0.08424441 0.042672615
0000a0 96 ca 16 3d 7c 97 6f 3c da 8f 37 bd 27 90 85 3a
       0.036814295 0.014623519 -0.044814922 0.0010190055
0000b0 43 c7 9d bd c4 b2 c8 bd 98 fc c1 3c 3a 80 9d 3a
       -0.07704022 -0.09799722 0.023680016 0.0012016364
0000c0 21 f4 6f bc 46 76 3b bc 3a e1 22 3e 0c 62 fb bd
       -0.014645607 -0.011441773 0.1590623 -0.1227456
0000d0 d8 34 3c 3e 8e 2c e3 3c 98 b5 37 3c 74 a4 1c 3e
       0.18379533 0.027731206 0.011212729 0.15297109
0000e0 14 46 d6 3d 8e db b1 3c 68 c8 98 bb e1 18 28 3e
       0.10462585 0.021711137 -0.004662562 0.1641574
0000f0 6e 60 4d 3e 18 d5 0b 3e 28 c2 96 3d 70 20 11 b9
       0.20056316 0.13655508 0.07361251 -0.00013840361
000100 00 ab 8c 3d af ce e4 3d a7 b3 68 bd 9f 0f 8c 3b
       0.06868553 0.11172234 -0.056811955 0.004274323
000110 d0 18 54 bd 96 05 0d 3e dc a7 80 3c a4 27 df 3d
       -0.051781476 0.13771662 0.015705042 0.10896233
000120 24 77 36 be d4 45 04 3e 3c 83 ec bd 7f 1e e3 3d
       -0.17818886 0.12917262 -0.115484685 0.11089801
000130 b5 9b 14 be ea 4f b4 bd 6a e7 7a be 81 87 08 3d
       -0.14512523 -0.08804305 -0.2450234 0.03333235
000140 e4 53 e1 bd 02 f1 b7 bd bc 59 82 be 37 16 a4 3d
       -0.11002329 -0.089815155 -0.25459087 0.0801205
000150 38 6d b5 bd c3 fa 1f 3e c8 ee c0 ba 82 d2 34 bd
       -0.088587224 0.15623002 -0.00147196 -0.04414607
000160 38 8a e4 bd 9c 30 91 3d 84 48 6a 3d ee 11 8f 3e
       -0.11159176 0.0708935 0.057198063 0.27943367
000170 7a af a9 bd 54 21 18 be 34 f8 5f bc fc 64 fd bd
       -0.082854226 -0.14856464 -0.013670016 -0.12372777
000180 e6 57 86 3d b2 78 e1 bd 84 71 74 3d 8e 9e de 3a
       0.06559734 -0.11009349 0.05967857 0.0016984509
000190 9b 2a 6d bd 9c 10 9b bd 94 6f 06 bc 60 3d cc 3d
       -0.05790196 -0.07571527 -0.008205313 0.09972644
0001a0 48 74 d0 bc 3e c6 9a bd 47 f4 3a be ee 64 31 bc
       -0.025446072 -0.07557343 -0.18257247 -0.010827286
0001b0 e0 a2 fd bd a2 85 33 bd a6 a1 9f 3d 4c bd fb 3c
       -0.123845816 -0.043828614 0.07794504 0.030729912
0001c0 be 17 95 3d 40 d1 70 bd 57 a6 da 3d 6a 5c 0c be
       0.07279919 -0.058793306 0.10676258 -0.13707128
0001d0 2b b8 8a 3d 44 79 92 bd 62 91 18 3e d8 67 a7 3a
       0.067734085 -0.07152036 0.14899209 0.0012772037
0001e0 2c 5b 11 be fe 91 86 bd d4 9d ee 3d 84 85 9a ba
       -0.14194936 -0.065708145 0.11651197 -0.0011789058
0001f0 e6 ca 09 bd 5a 6b af bc 7a 2b f5 3d 3c 6b 74 3d
       -0.033640765 -0.021413494 0.11971183 0.05967258
000200 77 77 88 bc 7a d9 dc bc b0 05 07 be 8b 11 e5 bc
       -0.016658528 -0.02695917 -0.13185763 -0.027962467
000210 12 01 a5 3d 53 37 5e 3e 58 f2 84 bc 31 8e d2 3d
       0.08056845 0.21700792 -0.01622884 0.10281027
000220 f4 fc 12 bb aa 74 1a bd fc 25 a3 bc a7 b4 ba 3d
       -0.0022428604 -0.037708916 -0.019915573 0.09116488
000230 20 a0 0c 3e ec a3 d8 3d 0d 5a 1b bd 04 6b 92 bd
       0.13732958 0.105781406 -0.037927676 -0.07149318
000240 b2 2c d7 3d b9 17 fa bd e5 44 d0 bd 16 00 62 3e
       0.10506572 -0.12211556 -0.101693906 0.22070345
000250 0a 85 72 bd 8a f8 f0 bd 0e 59 94 3c c7 4f 80 be
       -0.059208907 -0.11766155 0.01810887 -0.25060865
000260 21 20 7b bb 90 2b 79 bd ac c4 90 3d ea 58 39 be
       -0.003831871 -0.06083256 0.07068762 -0.18100324
000270 3a 16 b5 3d 57 0d 99 bd 9c 04 59 bd 1e f1 c1 bd
       0.0884213 -0.074732475 -0.05298291 -0.094698176
000280 ea cb df 3d db ab 39 bd b1 7c 1b bd fc 42 88 3d
       0.109275654 -0.04532991 -0.037960712 0.06653401
000290 a1 f5 2d be 7e dc 16 3e 1c 91 ae 3c 78 00 0f 3e
       -0.16988231 0.14732549 0.021309428 0.13965023
0002a0 ee 6a 7c bd 28 6b 7b bd 3e e1 e2 bc 22 fc 27 3e
       -0.061625414 -0.06138149 -0.027695294 0.16404775
0002b0 44 2b 1b bd 37 55 3f be de e2 1c be 69 1f 0c be
       -0.03788306 -0.1868485 -0.15320918 -0.13683857
0002c0 aa df 20 3e 8e 9a 88 3d ec d3 c4 3d 64 fe 5b 3d
       0.15710321 0.06670104 0.096107334 0.053709403
0002d0 d6 d9 d7 3d bc 48 69 bd 42 41 fe 3d cc 56 a5 ba
       0.10539596 -0.05695413 0.12414791 -0.0012614368
0002e0 6d 6a 82 bd 50 1c b4 bc d0 02 37 bc 10 da ba 3d
       -0.06367955 -0.021986157 -0.011170104 0.09123623
0002f0 58 21 51 3d e9 f5 6b bd 58 19 88 bd b4 dd a3 3d
       0.05105719 -0.057607565 -0.06645459 0.08001271
000300 94 69 d4 bd f2 0e 64 3d f2 1b be bd 1e 6d 01 3e
       -0.103717 0.055678315 -0.09282674 0.12639281
000310 3c 88 c3 3d c0 28 15 be 05 8c 92 bd 9e 52 9f bc
       0.09547469 -0.14566326 -0.07155613 -0.019448575
000320 e4 7d 3f be 3a 67 c5 3c e9 64 2a bc 74 13 25 3e
       -0.18700367 0.024097074 -0.010400035 0.16120702
000330 06 7d fc 3d 2b 43 3c 3c 34 cf 34 3d 06 01 01 be
       0.12328534 0.0114906235 0.044142917 -0.12598047
000340 6e 86 2b bd 92 3d 04 bd 9e 6a 4c bd be 3d 06 3e
       -0.04187625 -0.03228528 -0.049906366 0.1310949
000350 94 e6 28 3e 70 db 98 3d 62 14 06 3e ae e8 b4 3d
       0.16494209 0.074637294 0.13093713 0.08833443
000360 27 aa 18 3e f2 c1 67 bc f8 d8 cf 3d df 3a 1c be
       0.14908658 -0.014145361 0.101488054 -0.15256833
000370 f2 f7 fd 3c 86 be 9c bc 30 e8 68 3d 67 21 9a bd
       0.031002019 -0.019133817 0.056862056 -0.07525902
000380 f0 36 7e 3d c0 f0 cf 3d 48 9c 95 3d 3e 7b 1c 3e
       0.06206411 0.10153341 0.07305199 0.15281388
000390 92 d0 98 3d 6a 54 04 be 33 11 2b be 48 a3 9b bc
       0.07461657 -0.12922826 -0.1670578 -0.018998757
0003a0 d2 c1 be 3d 58 51 fc bd b2 aa 15 bd ee 33 db bd
       0.09314312 -0.123202026 -0.03653974 -0.10703264
0003b0 9c a7 4c be d7 a3 b7 3d a8 60 55 3d 02 e4 57 be
       -0.19985813 0.08966797 0.05209413 -0.21083072
0003c0 01 ff 8f 3d fa 32 23 3e ee d6 31 3d 64 6d e2 3d
       0.0703106 0.15937415 0.043417864 0.11056021
0003d0 dc 16 87 3d f8 ab f7 3c fa 6d 6b 3e d4 44 1a be
       0.06596157 0.030233368 0.22991171 -0.15065318
0003e0 ba c8 f5 3c 1a 0b 70 bd 12 a2 51 be f4 3d 7f bd
       0.03000294 -0.058604337 -0.20471981 -0.062314942
0003f0 e9 a5 1e 3e 14 2b f4 bc e0 1e 05 3e 68 b5 59 3b
       0.15492977 -0.029805698 0.13000059 0.0033219699

fc1.bias f4 [128]
000000 48 07 80 3e b0 7e bd 3d 7c f3 8d bd 28 f3 24 3d
       0.25005555 0.09252679 -0.069312066 0.040270954
000010 7c 53 b9 3d da 23 a2 3e 0c 7f a6 3e 74 b8 32 3e
       0.090491265 0.31667978 0.32518804 0.17453176
000020 f8 b7 9a 3e 88 a9 b2 3d 24 63 3f 3e 80 8a de 3d
       0.30218482 0.08723742 0.18690163 0.108662605
000030 44 ca 20 3e 30 48 52 3d 98 6a 64 bd d8 88 7a be
       0.15702158 0.051338375 -0.05576572 -0.24466264
000040 d4 ba 82 3e 1c 1c 41 3e ec e4 81 be bc 26 e1 bd
       0.25533164 0.18858379 -0.25369966 -0.10993716
000050 0a 5b 36 be 48 23 07 bd 1c 29 c0 bd b3 e8 29 be
       -0.17808166 -0.03299263 -0.09382841 -0.16592674
000060 8c 9d b3 3d 8c ac 89 be 40 5a 2b 3c c8 aa 03 3e
       0.08770284 -0.26889455 0.010458529 0.12858117
000070 a5 be cc be 80 34 90 3e 20 39 b2 3e b0 66 37 3e
       -0.399892 0.28165054 0.34809208 0.17910266
000080 bd db 40 be d8 77 e1 3d 1e 54 81 3e 28 d0 52 be
       -0.18833824 0.110091865 0.2525949 -0.20587218
000090 58 0d 10 3e 1a 43 66 be 3e f2 60 be 60 e8 c1 3e
       0.1406759 -0.22486535 -0.21967408 0.378726
0000a0 9f 56 91 be 80 6d a8 3d d8 cf 5b 3e 00 0e 17 3a
       -0.283864 0.082240105 0.21466005 0.0005762279
0000b0 09 72 92 be 36 c1 c2 3e b4 d5 a0 3d 20 a4 4b bd
       -0.28602627 0.38038033 0.07853261 -0.04971707
0000c0 58 a1 d6 bd 78 21 43 3e e6 05 83 3e 24 a3 2b 3e
       -0.10479993 0.19055736 0.25590438 0.16761452
0000d0 4c 56 28 be 6e fd c7 be 88 08 90 3d af 26 c6 be
       -0.1643917 -0.3906054 0.07032877 -0.38701388
0000e0 94 a1 c7 3e e1 6b 94 be c0 22 d4 bb d5 a0 ad be
       0.38990462 -0.28988555 -0.006473869 -0.33911768
0000f0 ee 96 1a be 68 11 a4 3e 3c 11 91 be 00 f9 2e bc
       -0.15096638 0.3204453 -0.2833346 -0.010679483
000100 30 39 76 bd 27 09 9e be ec 96 ae bd 20 5f 19 bc
       -0.060113132 -0.30866358 -0.0852488 -0.0093610585
000110 bb 47 a9 be d6 07 a3 be af 00 66 be 4e 08 be 3e
       -0.33062539 -0.31841916 -0.22461198 0.3711571
000120 a8 c2 91 be 20 ea 21 3c 39 47 73 be 53 11 cd be
       -0.28468823 0.00988248 -0.23757638 -0.4005228
000130 90 48 2c 3e 80 3f f2 3d 3b d9 b7 be 56 a9 92 be
       0.16824555 0.11828518 -0.3590792 -0.28644818
000140 c8 ed 9c 3d 68 98 b4 3e 7c fb bc bd dd a5 b6 be
       0.07662541 0.35272527 -0.09227654 -0.3567342
000150 92 48 a8 be 83 fc 4e be 2e 06 cf 3e a0 6d be 3c
       -0.32867867 -0.20213513 0.40434402 0.023245633
000160 00 70 d8 3d 88 97 2a 3e 40 0b 64 3e b0 df 4b 3d
       0.10568237 0.16659367 0.22269917 0.049773872
000170 98 7a 01 3e 41 1e b2 be fa 65 c6 3e 50 ad 44 bd
       0.12644422 -0.34788707 0.38749677 -0.048016846
000180 6c 29 2c 3e 7b 3b 39 be 10 1c d0 3d 67 2d 73 be
       0.16812676 -0.18089096 0.101616025 -0.23747788
000190 b0 a6 cd bd ce 76 a0 3e 02 4b ac be a8 53 36 3d
       -0.10041559 0.3134064 -0.33650976 0.044513375
0001a0 18 d6 c0 3e d6 0e 8d 3e a4 c1 02 3e e7 77 75 be
       0.3766334 0.2755038 0.1276918 -0.2397152
0001b0 7f 65 c6 be 42 64 cb be 32 18 2b be f0 f3 c7 3c
       -0.3874931 -0.39724928 -0.16708449 0.02440831
0001c0 10 c8 6f 3d e8 7b 03 3d 12 b9 39 be 36 a8 89 be
       0.058540404 0.032100588 -0.18137005 -0.26886147
0001d0 48 66 72 3e 4e 74 94 3e 70 a8 c9 3e 7a 3b c0 be
       0.2367183 0.28994983 0.3938632 -0.37545377
0001e0 d8 07 b6 3e 95 ca 86 be 00 5c 77 3b 3a 75 81 be
       0.3555286 -0.26326433 0.0037744045 -0.2528475
0001f0 24 64 25 3e c8 7f c1 3d 6a ae ac be 74 14 b4 3e
       0.16151482 0.094482005 -0.33726817 0.35171854

fc2.weight f4 [2, 128]
000000 d8 e0 fb bc 40 04 d8 bb f9 2e 9f bd c7 c9 92 3d
       -0.030746862 -0.0065923035 -0.07772631 0.07167392
000010 35 44 82 3d 3c d8 5e bd 1c 3a ae bd de d9 24 bd
       0.06360666 -0.054405436 -0.08507177 -0.040246837
000020 aa 02 3a 3d f6 02 28 3d d0 67 d3 bc 78 33 57 3c
       0.045412697 0.04101845 -0.025806338 0.01313483
000030 a0 a5 da bb fb 83 b1 3d 28 93 1c 3c c8 39 f8 3c
       -0.006672576 0.086677514 0.009556569 0.03030099
000040 98 97 5b 3c 84 2d aa bd 48 cb f6 bc b1 e7 92 3d
       0.013402842 -0.08309463 -0.030126229 0.07173098
000050 f1 97 9f 3d de 1e 30 3d 50 7d 99 bb 80 24 51 bc
       0.077926524 0.042998187 -0.004684128 -0.01276505
000060 a6 f3 35 3d 0b 00 1e bd 16 06 4b 3d 57 e9 a8 3d
       0.044421814 -0.03857426 0.04956635 0.08247631
000070 40 f7 ac 3c 00 c3 97 b9 54 53 a7 bc a6 72 ea bc
       0.021113992 -0.0002894625 -0.020425476 -0.028619122
000080 a2 42 48 bd 40 f5 89 3b 5e 9f 70 3d b6 35 75 bd
       -0.04889167 0.0042101443 0.058745734 -0.059865676
000090 b9 cb 89 3d 77 68 41 bd 02 92 09 3d 98 13 80 3c
       0.0672831 -0.047218766 0.03358651 0.015634343
0000a0 12 56 af bd a8 b5 0b 3d 8c 18 9a bd 4e 7a 2a 3d
       -0.085613385 0.034108788 -0.07524213 0.041620545
0000b0 41 e1 9d 3d 84 14 a5 3c 5b 4b 8a 3d 3a eb 78 3d
       0.077089794 0.020151384 0.06752654 0.060771205
0000c0 8f 9b 62 bd e5 be aa 3d c9 60 20 bd a7 b6 88 3d
       -0.055324133 0.083371915 -0.0391548 0.06675463
0000d0 ce fb 77 3d f0 87 fa bb 48 18 59 bd 34 02 bf 3c
       0.060542874 -0.0076455995 -0.053001672 0.02331648
0000e0 18 b0 70 3c 1c 0b 95 bc 38 81 b1 3c a8 cb 02 3c
       0.0146904215 -0.018193774 0.021668062 0.007983126
0000f0 f0 7d 6c bc e2 c4 25 3d dc 6d 96 bc f2 57 05 3d
       -0.014434323 0.040470965 -0.018362932 0.032554574
000100 b6 97 00 bd 1c 65 8f bd 40 1b a2 3c fd bf 68 bd
       -0.031394683 -0.07001707 0.019788384 -0.05682372
000110 64 a3 b1 bc d5 97 3d bd 70 bb 0f bc 88 da a1 3c
       -0.021684356 -0.046287376 -0.008772716 0.019757524
000120 2c a9 0f 3d 6a dc 25 3d a8 da 1f bc 11 8a 17 bd
       0.035073444 0.040493406 -0.009756722 -0.036996905
000130 d3 c6 5e bd 18 3c 88 bd 7e ab 98 bd 18 0e 0e 3d
       -0.054388832 -0.06652087 -0.074545845 0.03468141
000140 fc 3f e8 3c cc f0 d2 bc 37 83 98 bd 19 12 97 3d
       0.028350823 -0.025749587 -0.07446902 0.07376499
000150 51 6d 7e bd 4a b5 43 bd 8b c2 a7 3d 82 fa 60 3d
       -0.06211597 -0.047780313 0.08191403 0.054926403
000160 84 ff a6 bc 44 9b 39 bd ca 70 90 bd 94 c4 eb bc
       -0.020385511 -0.04531409 -0.07052763 -0.02878026
000170 44 84 fe bc 70 40 0b 3c 14 07 a9 bd b4 88 fb 3c
       -0.031068929 0.00849925 -0.08253303 0.030704834
000180 1c 8e b5 3c 8f 66 a3 bd 2d 3d ae 3d c0 84 f1 ba
       0.02216249 -0.07978546 0.08507762 -0.0018426403
000190 12 5c 79 3d f1 bd 5c bd 6a e2 73 bd 25 2e b2 3d
       0.06087882 -0.05389208 -0.059542097 0.087002076
0001a0 e2 ed 8e bd d0 04 ba bb 83 26 89 3d da 79 57 3d
       -0.06978966 -0.005676843 0.06696799 0.05260644
0001b0 bf 11 81 bd 4e 18 db bc de 04 50 3d e4 54 8c 3c
       -0.06302213 -0.026744988 0.05078589 0.017130323
0001c0 7c 77 ca bc b5 90 88 bd e6 b6 76 bd b0 17 b2 bb
       -0.024715178 -0.06668226 -0.06023302 -0.0054349527
0001d0 3e b8 95 bd 44 2d 4c bd a0 1d 88 3b 66 ac 6f 3d
       -0.07310532 -0.049847856 0.004153922 0.05851402
0001e0 31 0b a0 3d 00 75 13 3a 17 8c 14 bd 48 5e 46 bc
       0.078146346 0.00056250393 -0.036266413 -0.012107439
0001f0 5a d4 79 3d 03 2d 61 bd 41 30 8c 3d 28 63 47 3c
       0.06099353 -0.054974567 0.06845141 0.012169637
000200 62 b3 6a 3d da a1 4b 3d 28 37 a3 bc 95 19 a9 3d
       0.05729998 0.0497149 -0.019923761 0.082568325
000210 c0 b2 9c ba c2 b7 22 bd f0 b0 79 bc 08 ea 24 3c
       -0.0011955127 -0.039726026 -0.015239939 0.010065563
000220 90 3b 1a bc 94 ce ab 3c cc d7 2f bd ec c2 da bc
       -0.009413615 0.020972528 -0.04293041 -0.026704274
000230 d0 78 b2 3c 5a 1c 51 3d 41 ed 7d bd 7b e8 12 bd
       0.021786124 0.05105243 -0.06199384 -0.035866242
000240 3b e3 49 bd 4a 82 54 3d 32 d5 00 3d da f4 24 3d
       -0.04928897 0.051882066 0.03145332 0.04027257
000250 ad f7 96 3d 1c dd b2 bd dc 87 8a 3c 25 18 2a bd
       0.07371459 -0.087335795 0.016910486 -0.041526932
000260 89 2c 89 bd 20 11 48 bd d0 5c c6 bc d5 e9 02 bd
       -0.066979475 -0.048844457 -0.024214178 -0.03196128
000270 b4 d6 07 3d 54 a3 bd bc 90 9f 7f bc b7 d0 8f 3d
       0.03316374 -0.02314917 -0.0156020075 0.07022231
000280 80 1f 56 bc 80 0a 39 3a 80 84 b4 ba c1 c1 8f bd
       -0.013069034 0.00070587546 -0.0013772398 -0.070193775
000290 19 8e 9d 3d df e5 4b bd 9b 58 4f bd a4 50 c9 3c
       0.076931186 -0.04977977 -0.05062161 0.024574585
0002a0 d6 22 1f 3d 68 24 9f 3c 44 78 4e bd 06 f0 59 3d
       0.03885158 0.01942654 -0.050407663 0.05320742
0002b0 a0 08 a1 bd 70 88 70 bd d8 86 85 bd 8a 94 3a 3d
       -0.07862973 -0.058723867 -0.0651986 0.045551814
0002c0 51 7e 87 bd 17 95 78 bd d8 83 65 3c a1 6b 23 bd
       -0.0661589 -0.06068906 0.014008485 -0.039897565
0002d0 7f fe 9b bd c6 f6 60 bd 72 63 34 3d 40 44 3d 3c
       -0.07616901 -0.05492284 0.04404015 0.011551917
0002e0 a0 b2 95 bc f4 64 a8 bd 60 71 84 3c 4f e3 90 3d
       -0.018273652 -0.0822238 0.016167343 0.07074606
0002f0 58 f5 75 3c f0 a9 a2 3b 22 82 5f 3d 58 91 ee 3c
       0.015012108 0.004964106 0.054567464 0.02912204
000300 30 69 d8 bb de 8f 7e 3d a3 91 a4 bd 80 bc 01 bc
       -0.006604336 0.06214892 -0.080355905 -0.007918477
000310 b0 95 75 3c 68 2f 85 3c ba 32 5d 3d 44 ad ac bd
       0.014989302 0.016257957 0.054003455 -0.08431485
000320 8c ff 8b 3c 3c 6e 80 bd 98 23 6a 3c 61 c9 92 3d
       0.017089628 -0.062710255 0.014290713 0.07167316
000330 80 12 56 bc 46 d1 2f 3d c2 42 08 bd 59 0b 80 3d
       -0.013065934 0.042924188 -0.03326679 0.062521644
000340 0e a7 2d 3d d9 fb 10 bd d8 35 12 3c 38 42 e4 bc
       0.042395644 -0.03539643 0.00892397 -0.027863607
000350 f8 35 82 3c 40 d5 db ba 35 bd a4 3d 66 c8 77 3d
       0.015894875 -0.0016771927 0.08043901 0.06049385
000360 ce c6 07 bd 40 16 56 bc ef 84 80 3d 55 57 69 bd
       -0.03314858 -0.013066828 0.06275355 -0.056968052
000370 15 a6 98 3d 0a b1 63 3d f0 06 e6 3b 6b ad 9b 3d
       0.07453553 0.05558876 0.00701987 0.07601436
000380 8a 1d 38 3d 34 c6 71 bd 00 40 6a b7 a0 a3 9c bc
       0.044950046 -0.05902691 -1.3962388e-05 -0.019120991
000390 ee 06 30 bd 78 13 f1 3c 2a 15 3d 3d 44 bb e4 3c
       -0.04297536 0.029428229 0.04616276 0.027921326
0003a0 be 93 83 bd 41 5a 33 bd c0 69 96 3b f0 f3 99 bb
       -0.06424664 -0.043787245 0.004590243 -0.004698269
0003b0 62 61 3b bd d0 13 c4 3c d0 51 dc bb e2 24 5b 3d
       -0.04574717 0.023935229 -0.00672362 0.05350197
0003c0 ca 0a 51 3d 80 57 a3 ba b0 f1 57 3c 2c 08 98 bc
       0.05103568 -0.001246199 0.013180181 -0.018558584
0003d0 e0 97 26 bd 0a 0f 9a bd 47 39 17 bd 70 13 a8 bb
       -0.040672183 -0.075224 -0.03691986 -0.0051292703
0003e0 d0 de f9 bb 35 f9 ad 3d de ff 1f 3d 34 2d 99 bd
       -0.0076254383 0.08494798 0.039062373 -0.07479325
0003f0 ca df 7d 3d d8 e1 c4 3c b4 3b f6 3c 85 5c ab 3d
       0.061981 0.024033472 0.030057766 0.08367256

fc2.bias f4 [2]
000000 14 49 92 bd c6 70 36 3d
       -0.07142845 0.044541143
