IA/best_model.pth (torch, 6696 bytes, 4 tensors)

fc1.weight f4 [128, 6]
0	0xbe365c38	-0.17808616
1	0xbe1d3a34	-0.15354234
2	0x3e710596	0.23537287
3	0x3e6c43ef	0.2307279
4	0xbd2541a5	-0.040345807
5	0x3b633688	0.0034669954
6	0x3d2ee570	0.042699277
7	0xbd3b7487	-0.045765426
8	0x3de586bf	0.112073414
9	0x3e15b046	0.14618024
10	0x3e873506	0.2640764
11	0xbd8d38fd	-0.06895635
12	0x3d0173a2	0.031604417
13	0x3e25353b	0.16133587
14	0x3bf28462	0.007401035
15	0xbd88939a	-0.06668778
16	0x3c27b18a	0.0102352
17	0xbcd84d8a	-0.026404161
18	0xbdc1ffbf	-0.09472608
19	0xbe3561a6	-0.17713031
20	0x3e6a373e	0.22872636
21	0xbd2b6f20	-0.041854024
22	0xbdb2d2c2	-0.08731605
23	0xbd84d2a6	-0.064854905
24	0xbc8649b1	-0.01639256
25	0x3d43382d	0.047660995
26	0xbcc9d1df	-0.024636207
27	0x3ca2ff33	0.01989708
28	0xbd236f24	-0.039900914
29	0xbd362efa	-0.044478394
30	0xbe200c9d	-0.15629812
31	0x3d6837a8	0.056693703
32	0x3e268bde	0.16264293
33	0xba7604e5	-0.00093848846
34	0x3e807752	0.25091034
35	0xbe84e8c1	-0.25958827
36	0xbc1ce604	-0.009576324
37	0x3e31a74a	0.17348972
38	0xbd3007e4	-0.042976275
39	0xbdc9a689	-0.09846217
40	0x3e101250	0.14069486
41	0x3949de6e	0.00019251715
42	0xbcc6a4b4	-0.024248458
43	0x3df1f1cf	0.118136995
44	0x3c638f74	0.013889182
45	0xbd9da568	-0.07697564
46	0x3d053b4c	0.032527253
47	0x3db9673f	0.09052896
48	0xbdd351b8	-0.10318321
49	0x3d13676a	0.035987295
50	0x3dad974b	0.084761225
51	0xbde6f2c4	-0.112767726
52	0xbcf35a5f	-0.029706178
53	0x3dce22e4	0.100652486
54	0xbd856b24	-0.06514576
55	0xbd926237	-0.07147639
56	0x3d8628e8	0.06550771
57	0x3d10e9a5	0.03537907
58	0xbc66b2d0	-0.014080718
59	0x3ddb49cc	0.10707435
60	0xbd8b7b10	-0.06810582
61	0xbd49e264	-0.04928817
62	0x3ce023d6	0.027360838
63	0x3e2e49ec	0.17020386
64	0xbe3f91a2	-0.18707898
65	0xbcbad62e	-0.022807207
66	0xbe72d84f	-0.23715328
67	0x3c26d126	0.010181701
68	0x3dd8b326	0.10581045
69	0x3e1b7b60	0.15183783
70	0xbd471088	-0.04859975
71	0x3daa6c88	0.08321482
72	0xbce8118e	-0.028328683
73	0xbde8543d	-0.11344192
74	0x3d3acdba	0.045606352
75	0x3d3ff084	0.046860233
76	0xbd2c81be	-0.04211592
77	0x3e338c52	0.17533997
78	0xbda7dd2a	-0.081964806
79	0x3e59531a	0.21223107
80	0x3d89cacc	0.067281336
81	0xbda32a20	-0.07967019
82	0xbe2d89b0	-0.16947055
83	0x3db0115c	0.08597061
84	0xbd6e76fa	-0.058218934
85	0xbe0530ec	-0.13006943
86	0x3dd06108	0.10174757
87	0xbcf18dfd	-0.02948665
88	0xbe1554b8	-0.14583099
89	0xbd9ef424	-0.0776141
90	0xbe62ece2	-0.22160676
91	0xbe1ee604	-0.15517431
92	0x3b0ea9a7	0.00217686
93	0xbd80ceb3	-0.06289425
94	0xbd725c12	-0.059169836
95	0xbd584712	-0.052802153
96	0x3dc8cecf	0.098050706
97	0x3d87860a	0.06617363
98	0xbd2f5457	-0.042805042
99	0xbdfb7666	-0.12278442
100	0xbdae46ee	-0.085096225
101	0x3d98ecb0	0.074670196
102	0x3df61240	0.120152
103	0x3e35e482	0.1776295
104	0xbdca8f72	-0.09890641
105	0xbde61afc	-0.112356156
106	0x3e397910	0.18112588
107	0x3e32c269	0.17456974
108	0x3dd55d53	0.10418191
109	0xbd757de6	-0.05993452
110	0x3c8895f5	0.016673068
111	0xbdc16b4c	-0.094442934
112	0xbe5c8568	-0.21535265
113	0x3d4914a0	0.049091935
114	0xbd6c0bc0	-0.057628393
115	0x3e538892	0.20657566
116	0xbe5b2b78	-0.21403301
117	0x3e721e3e	0.23644349
118	0xbe2e1b3c	-0.17002577
119	0xbe0137c4	-0.12618929
120	0xbd7c2bc4	-0.061565176
121	0xbd867155	-0.06564585
122	0x3d0bb4d5	0.034108
123	0xbdee70a8	-0.11642581
124	0xbd0b5e57	-0.034025516
125	0x3c8100f8	0.015747532
126	0x3ddb42ce	0.10706101
127	0x3dd60884	0.10450843
128	0xbdf0c02c	-0.11755404
129	0x3dcf3bf8	0.1011886
130	0x3d7082e5	0.05871858
131	0x3dd946d6	0.10609214
132	0xbd8423f5	-0.06452171
133	0xbcdefd33	-0.027220344
134	0x3d91c8d0	0.0711838
135	0x3d232fc8	0.03984049
136	0xbd01b838	-0.031669825
137	0x3e0c2d28	0.136891
138	0x3d7a2099	0.061066244
139	0xbd9b07a1	-0.075698145
140	0xbcf3b19d	-0.029747779
141	0xbc9644f5	-0.018343428
142	0xbd1b2694	-0.037878588
143	0xbdc8c592	-0.098033085
144	0x3d4e18f3	0.050316762
145	0xbe11685a	-0.14199963
146	0xbde9357e	-0.11387156
147	0x3d3b9bc2	0.04580284
148	0x3c7c723d	0.015408096
149	0x3cebfa2d	0.028805817
150	0x3c894ae2	0.01675934
151	0xbde724ba	-0.11286302
152	0x3d14ba60	0.036310554
153	0xbcda41d4	-0.026642717
154	0xbe7d71c4	-0.2475043
155	0xbca8e8ce	-0.020618822
156	0x3d2530cd	0.040329743
157	0xbbf15428	-0.0073647685
158	0xbe4dd6d6	-0.20101485
159	0xbd9de56f	-0.077097766
160	0x3b9766a2	0.004620389
161	0xbd9f6693	-0.07783236
162	0xbda5df9e	-0.08099292
163	0xbd3a0718	-0.04541692
164	0x3e159b65	0.1461006
165	0x3dd8f1b2	0.10592975
166	0xbe76869a	-0.24074784
167	0xbc8395c1	-0.01606262
168	0x3df2528c	0.11832151
169	0xbd662f80	-0.056197643
170	0xbd9571c8	-0.07297093
171	0x3dcd0733	0.10011139
172	0xbd1fe168	-0.039033324
173	0xbcd981ed	-0.026551211
174	0x3db9cdc7	0.09072452
175	0x3c2a8fea	0.010410288
176	0xbd3cc9ac	-0.046090767
177	0x3e4e6f4f	0.20159648
178	0xbbf43eb9	-0.007453766
179	0xbc8337af	-0.016017763
180	0xbd1fd4b2	-0.0390212
181	0xbd8f0aac	-0.069844574
182	0xbcfa33ec	-0.030542336
183	0xbe4cef2a	-0.20013109
184	0x3ddb825c	0.107182235
185	0xbe287048	-0.16449082
186	0x3cbbcae8	0.022923902
187	0xbe41cd31	-0.1892593
188	0x3d276b38	0.040873736
189	0xbc6b369c	-0.014356282
190	0x3d43404e	0.047668748
191	0xbd85ff79	-0.06542868
192	0xbe0dbdfa	-0.13842002
193	0x3c78b35c	0.015179481
194	0x3d0c9d87	0.034329917
195	0xbdb687b8	-0.08912605
196	0x3b71a1e4	0.0036870176
197	0x3d5c020e	0.053712897
198	0x3d4a07c8	0.049323827
199	0x3e1df3fe	0.15425107
200	0x3a9fc62e	0.00121898
201	0x3d170ea5	0.0368792
202	0x3c300228	0.010742702
203	0x3de6512b	0.1124595
204	0xbdfd7a42	-0.123768345
205	0xbdb93f7c	-0.09045312
206	0xbdd997a1	-0.10624624
207	0x3d540ece	0.05177193
208	0xbcd1b14f	-0.025597243
209	0x3d547671	0.051870767
210	0xbb6dda42	-0.0036293422
211	0x3dde0ecb	0.10842665
212	0x3d9db326	0.077001855
213	0xbdaac988	-0.0833922
214	0x3c252d2b	0.01008157
215	0x3d4af20c	0.04954724
216	0xbe2dd31a	-0.1697506
217	0x3b41559c	0.002950049
218	0x3e2101a4	0.15723282
219	0x3d93e040	0.07220507
220	0xbe092292	-0.13392094
221	0x3db9136c	0.090369076
222	0x3e1b2b2a	0.15153185
223	0x3d6afc3c	0.057369456
224	0x3e1ac00c	0.15112323
225	0x3cb803f8	0.02246283
226	0xbdee7a6c	-0.11644444
227	0x3e6390b6	0.22223172
228	0xbd14a23e	-0.03628754
229	0x3aafbcda	0.0013407723
230	0xbde6b387	-0.11264711
231	0x3da07c8e	0.07836257
232	0x3ccc139d	0.024911696
233	0xbd2eee20	-0.042707562
234	0xbda6ceab	-0.081448875
235	0x3dfd8239	0.123783536
236	0x3e8337f7	0.25628635
237	0x3d277646	0.04088428
238	0x3cf80488	0.030275598
239	0xbcd21752	-0.025645886
240	0x3d8a0893	0.06739917
241	0x3d1d7dc7	0.03845003
242	0x3e5c5ca1	0.2151971
243	0xbdfd652a	-0.12372811
244	0xbdcb75e2	-0.09934594
245	0xbdec14ab	-0.115273796
246	0xbdfc29ab	-0.12312635
247	0xbc3139a3	-0.010816964
248	0x3d269bb0	0.04067582
249	0x3e7a0691	0.24416567
250	0x3d2b03e3	0.041751754
251	0x3dc94f89	0.09829623
252	0x3d362e05	0.04447748
253	0x3c981113	0.01856283
254	0x3d69303f	0.056930777
255	0xbdc73a74	-0.09727946

fc1.bias f4 [128]
0	0x3e94a6f8	0.29033637
1	0x3e8071e2	0.25086886
2	0xbe0e54d4	-0.13899547
3	0xbe6c6502	-0.23085406
4	0xbecc0d7b	-0.39854035
5	0x3de2e340	0.11078501
6	0x3dadbfec	0.08483872
7	0xbd7a7368	-0.061145216
8	0x3e981732	0.29705197
9	0x3ebbea58	0.36702228
10	0x3c97fd90	0.018553525
11	0x3eb025f6	0.34403962
12	0xbea9901b	-0.33117756
13	0xbe0f3ae0	-0.13987303
14	0xbeab9cac	-0.3351797
15	0xbe002cc8	-0.12517083
16	0xbe1b45e6	-0.15163383
17	0xbe3b7e95	-0.18310006
18	0x3ec0b23c	0.37635982
19	0xbbc3c700	-0.0059746504
20	0x3eb3aeb2	0.3509422
21	0xbdb02558	-0.08600873
22	0x3c82fa90	0.015988618
23	0x3e6c0248	0.23047745
24	0x3e71ae0c	0.2360155
25	0x3d7c3a58	0.06157908
26	0xbe811144	-0.25208485
27	0xbea2af7f	-0.31774518
28	0x3ec04d0a	0.37558776
29	0x3e913f94	0.2836882
30	0x3e56f51c	0.2099194
31	0xbe7ef580	-0.24898338
32	0xbe96a1ae	-0.29420227
33	0x3e0fed00	0.14055252
34	0x3e306ea4	0.17229706
35	0x3dd083b8	0.10181373
36	0xbe2dcc5e	-0.16972491
37	0xbdb04fa0	-0.08608937
38	0x3e96ddb4	0.2946602
39	0xbdd460b4	-0.10370007
40	0x3e26aa58	0.16275918
41	0x3d2774a0	0.040882707
42	0x3c396280	0.011314988
43	0xbe095504	-0.13411337
44	0x3dc549d0	0.09633219
45	0xbe5defba	-0.2167348
46	0x3ea78f68	0.32726598
47	0xbe4d6a1f	-0.20060013
48	0xbe905f74	-0.28197825
49	0x3e0e0094	0.13867408
50	0x3eb38d18	0.35068583
51	0xbeaba760	-0.33526134
52	0x3d49fc60	0.04931295
53	0x3e57f410	0.21089196
54	0xbe8e8036	-0.27832192
55	0xbea2513e	-0.31702608
56	0x3e9e8b8c	0.3096584
57	0xbcbe6fe0	-0.023246706
58	0xbd2e03d0	-0.042484105
59	0x3e050cf8	0.12993228
60	0x3ecc57d4	0.39910758
61	0xbd1a26a8	-0.03763452
62	0x3e9f9c3c	0.31173885
63	0x3eaa3848	0.33246064
64	0xbdbd4f50	-0.09243643
65	0x3da9c42c	0.0828937
66	0x3e8e11b8	0.27747893
67	0xbeb82564	-0.35966027
68	0xbdb14380	-0.08655453
69	0x3dc39a50	0.09550917
70	0x3e310db8	0.1729039
71	0xbeaeb965	-0.3412582
72	0xbe694f5d	-0.22784181
73	0x3ebc6c90	0.36801577
74	0xbebccb3f	-0.36873814
75	0x3e121468	0.14265597
76	0x3cbb8120	0.02288872
77	0xbe95c880	-0.29254532
78	0x3e54c92c	0.20779866
79	0x3e9abd86	0.3022272
80	0x3d984824	0.07435635
81	0xbdbeb6c4	-0.093122035
82	0x3e84e35a	0.25954705
83	0x3e79e190	0.24402452
84	0xbdaa5e78	-0.083188
85	0xbe9f15e0	-0.31071377
86	0x3ec11198	0.37708735
87	0xbe1bfedc	-0.1523394
88	0x3ea8c232	0.3296066
89	0x3ecadd46	0.39621943
90	0x3db448e8	0.08802968
91	0xbe8d9362	-0.27651507
92	0x3dd94100	0.10608101
93	0x3e2989a0	0.16556406
94	0x3ec0fb7c	0.37691867
95	0xbe37ad67	-0.17937241
96	0xbe976b54	-0.29574072
97	0x3d47b520	0.04875672
98	0x3dc9c560	0.098520994
99	0xbdd3b3fc	-0.10337064
100	0xbe6a7ffb	-0.22900383
101	0xbe2d0e20	-0.1689992
102	0x3e8f4a7c	0.27986515
103	0x3e8ac7de	0.27105612
104	0xbd09f3f8	-0.033679932
105	0x3df5a498	0.119942844
106	0x3dc9b250	0.098484635
107	0xbe45766a	-0.19283453
108	0xbe55010a	-0.20801178
109	0xbe4201be	-0.18945977
110	0xbba59e40	-0.0050542653
111	0x3e8309de	0.25593466
112	0x3e260538	0.16212928
113	0x3eb20d12	0.34775597
114	0xbd5efd68	-0.054440886
115	0x3e584194	0.21118766
116	0xbe10c398	-0.14137113
117	0xbe4150fb	-0.18878548
118	0x3ecc0084	0.39844143
119	0x3e85db46	0.26143855
120	0xbeb6eaab	-0.35725912
121	0x3ec90946	0.39264888
122	0xbe9c39b2	-0.30512768
123	0x3d9b267c	0.075757
124	0x3ea77386	0.32705325
125	0x3d8a14e0	0.06742263
126	0x3eb1d888	0.34735513
127	0xbe9dc95d	-0.3081769

fc2.weight f4 [2, 128]
0	0x3d434b9a	0.04767952
1	0xbd9dcde3	-0.077052854
2	0x3d8e2701	0.06941033
3	0xbd943fd6	-0.07238738
4	0xbd91e301	-0.07123376
5	0xbd389162	-0.045060523
6	0x3d4c2ed2	0.04984934
7	0xbbc879a0	-0.0061180145
8	0xbd94d1a2	-0.07266547
9	0x3b49b060	0.0030775294
10	0x3d751d8e	0.05984264
11	0xbd8feea9	-0.07027943
12	0x3d3d757a	0.046254613
13	0x3d8837c9	0.06651265
14	0xbd856dac	-0.06515059
15	0x3d2322fe	0.039828293
16	0x3d90983b	0.07060286
17	0xbc338688	-0.010957368
18	0x3d084c64	0.033275977
19	0x3ca1b368	0.019738868
20	0xbb8ecf20	-0.0043581873
21	0x3d74ed96	0.059796892
22	0x3caa9614	0.020823516
23	0x3d476f8e	0.04869037
24	0xbc67cbf8	-0.014147751
25	0x3d1637ce	0.036674313
26	0xbcb2e6d8	-0.02183859
27	0xbb4252e0	-0.0029651448
28	0x3d18a336	0.037265025
29	0xbd8d854a	-0.069101885
30	0xbd9e1b99	-0.077201076
31	0x3d35e5e6	0.0444087
32	0x3c9a1490	0.018808633
33	0xbdb4e0e9	-0.08831961
34	0xbd468a4e	-0.04847174
35	0x3b265ea0	0.002538599
36	0x3d86b2d7	0.0657708
37	0xbda49fdb	-0.080383025
38	0x3d46dc86	0.04855015
39	0x3d94c219	0.07263584
40	0x3d8ede29	0.069759674
41	0x3d0f1ac6	0.034937643
42	0xbcde7026	-0.027153086
43	0xbd456fed	-0.048202444
44	0x3db1c5bd	0.08680294
45	0x3d2506e6	0.040289782
46	0x3dad830f	0.08472263
47	0xbd5b5071	-0.05354351
48	0xbd3ed4a3	-0.046589505
49	0xbdacd408	-0.08438879
50	0xbc8446c4	-0.016147025
51	0xbda50393	-0.08057322
52	0xbdb15df3	-0.086604975
53	0xbbced550	-0.00631205
54	0x3b29ef60	0.0025930032
55	0xbdaf07b9	-0.08546395
56	0xbd81ed71	-0.063441165
57	0x3c9e34bc	0.019312255
58	0x3ce53674	0.027980067
59	0x3b91e9d0	0.0044529215
60	0xbd2169c9	-0.039407525
61	0x3d216caa	0.03941027
62	0xbc6fd4f0	-0.014638171
63	0x3bd3d910	0.006465085
64	0xbd06254e	-0.03275042
65	0x3da70f5b	0.08157226
66	0x3c188d08	0.009310968
67	0xbdadaa8a	-0.08479793
68	0x3bc8c520	0.0061270148
69	0xbd90867c	-0.07056901
70	0x3d8f0429	0.06983215
71	0xbd880000	-0.06640625
72	0xbcb5ad00	-0.02217722
73	0x3d2d6d2a	0.042340435
74	0xbd06d2b3	-0.032915782
75	0xbc2e24d0	-0.010628894
76	0xbdad1a2f	-0.0845226
77	0xbcfb9fc0	-0.030715823
78	0x3cebbbbc	0.028776042
79	0xbd68913b	-0.056779128
80	0xbb347480	-0.002753526
81	0x3d0af61c	0.033926114
82	0xbd8f9970	-0.07011688
83	0x3cc9f500	0.024652958
84	0x3db28ac7	0.08717876
85	0xbdb3393f	-0.08751153
86	0xbd46f3f0	-0.04857248
87	0xbda52cd6	-0.080651924
88	0xbd07a275	-0.033113915
89	0x3d4e042e	0.050296955
90	0x3d091de6	0.03347578
91	0xbd88ea99	-0.06685371
92	0xbd9f52b5	-0.07779447
93	0xbd66307d	-0.056198586
94	0x3cc6bd00	0.024260044
95	0x3db07f7d	0.086180665
96	0xbd82b07a	-0.063813165
97	0xbc2725a0	-0.010201842
98	0x3bde1050	0.006776847
99	0xbd971e44	-0.073788196
100	0xbd7c17e4	-0.06154622
101	0x3d743bce	0.059627347
102	0x3cb0228c	0.021500848
103	0xbd92d0ad	-0.07168708
104	0xbd47eb2c	-0.04880826
105	0x3b2111e0	0.0024577305
106	0x3d1698f2	0.036766954
107	0xbd4d1754	-0.050071076
108	0xbd42f5b8	-0.047597617
109	0xbcab97b0	-0.020946354
110	0x3ca804dc	0.02051013
111	0xbcf89f58	-0.030349419
112	0xbd9bfd8c	-0.076167196
113	0xbda111be	-0.07864712
114	0xbcfef3b8	-0.031122074
115	0x3d64839e	0.055789582
116	0xbd03f0fa	-0.032212235
117	0xbda77cb6	-0.081780836
118	0xbdafd020	-0.085846186
119	0xbd6283c5	-0.055301446
120	0xbda0360f	-0.07822811
121	0xbd3e4de6	-0.04646101
122	0xbcd3271c	-0.025775485
123	0xbcf6c32c	-0.030122362
124	0x3d538e7a	0.051649548
125	0xbc750730	-0.014955327
126	0xbccfb14c	-0.025353096
127	0x3da77093	0.08175769
128	0xbd845fdb	-0.064635955
129	0xbce3dc9e	-0.02781516
130	0xbcabe09c	-0.020981126
131	0xbd86ddc8	-0.0658527
132	0x3c621290	0.013798371
133	0xbc6248f0	-0.013811335
134	0x3dae39ef	0.08507144
135	0x3c0d42c8	0.008621879
136	0x3d5cf476	0.053944074
137	0xbc6b00e8	-0.014343478
138	0x3b29a160	0.002588354
139	0x3d957cb5	0.072991766
140	0x3d1d3d92	0.038388796
141	0xbd0cc988	-0.034371883
142	0x3d8eebb3	0.0697855
143	0x3d9ad523	0.07560184
144	0x3d8635fd	0.06553266
145	0x3ced563c	0.028971784
146	0xbcf7a33c	-0.030229203
147	0xbca66c18	-0.020315215
148	0xbd868859	-0.06568975
149	0x3d02b448	0.03191021
150	0xbd023d30	-0.031796634
151	0x3d9aeb6d	0.07564435
152	0xbd92b8ac	-0.071641296
153	0xbd88fa16	-0.06688325
154	0x3d841231	0.06448782
155	0x3ccf4df0	0.025305718
156	0x3db3315b	0.08749648
157	0xbd0c690b	-0.034279864
158	0xbda99c1a	-0.08281727
159	0xbc91a83c	-0.017780416
160	0x3d90fdef	0.07079684
161	0x3c916448	0.017748013
162	0xbd6a190c	-0.057152793
163	0x3c795848	0.015218802
164	0x3d593b42	0.05303503
165	0xbd6e790c	-0.058220908
166	0x3d936523	0.07197025
167	0x3d6be4ba	0.057591178
168	0xbd7e7b9d	-0.062129606
169	0x3d1cbf72	0.038268514
170	0x3d8c9ec5	0.068662204
171	0x3d361186	0.044450305
172	0xbc6902d0	-0.014221862
173	0x3cd1eaf8	0.025624737
174	0x3d1d9fce	0.03848248
175	0xbd2d3215	-0.04228409
176	0xbd14ebf9	-0.036357854
177	0x3bc31870	0.005953841
178	0x3d372dc6	0.044721387
179	0xbc2a4938	-0.010393433
180	0x3d6e274e	0.058142953
181	0xbc6eaa08	-0.014566906
182	0xbd7d1689	-0.06178907
183	0xbcb27fa0	-0.021789372
184	0x3cb4ba50	0.022061497
185	0x3d0e7928	0.034783512
186	0xbda70537	-0.081552915
187	0xbda7b5ce	-0.08188973
188	0x3bdad770	0.006678514
189	0x3d68ba32	0.056818195
190	0x3d22ce92	0.039747782
191	0x3c40e668	0.011773683
192	0xbd942fdc	-0.07235691
193	0xbb3e4e20	-0.0029038265
194	0xbd3f625b	-0.04672466
195	0xbda6191f	-0.0811026
196	0xbda507e8	-0.080581486
197	0x3cd84a48	0.026402608
198	0x3d9f03f3	0.07764425
199	0xbc8eddb0	-0.017439693
200	0x3cbff490	0.023432046
201	0xbd385bcf	-0.04500943
202	0xbd3ab25a	-0.045580246
203	0xbd3b0add	-0.045664657
204	0xbd29f39b	-0.041492086
205	0x3cd22920	0.025654376
206	0x3d60cafa	0.054881074
207	0x3ca89528	0.020578936
208	0xbdb3f3ae	-0.087867126
209	0xbcd96a1e	-0.026539858
210	0x3d5b63e6	0.053562067
211	0xbd9ca84d	-0.07649288
212	0xbcc19848	-0.023632184
213	0xbd5706f0	-0.05249685
214	0xbd36bfeb	-0.04461662
215	0xbdb17bce	-0.08666192
216	0x3d21c9da	0.03949914
217	0xbd22d02d	-0.039749313
218	0x3d8c5a2d	0.06853137
219	0xbd8fc7a3	-0.070204996
220	0x3d521e42	0.051298387
221	0x3ca08c80	0.019598246
222	0xbd93d78b	-0.07218846
223	0xbd86f001	-0.06588746
224	0xbd95aec9	-0.07308728
225	0x3d9c29eb	0.07625183
226	0xbd732e90	-0.059370577
227	0x3db384fb	0.087655984
228	0x3ccbd1b4	0.024880268
229	0x3d3f13f2	0.04664988
230	0xbd233dc7	-0.039853837
231	0x3ce4ccb8	0.027929649
232	0xbcfb1cc8	-0.030653372
233	0xbbd5d940	-0.0065261424
234	0x3d6f240a	0.05838398
235	0xbca2a0e0	-0.019852102
236	0x3bcdf6d0	0.006285526
237	0x3d6496ce	0.05580788
238	0xbd9968c8	-0.074906886
239	0x3b1aa6e0	0.0023598
240	0x3d142d48	0.036175996
241	0xbd363447	-0.04448345
242	0xbd828564	-0.063730985
243	0x3c9a2358	0.018815681
244	0xbcdc7ce2	-0.026915018
245	0xbd378575	-0.04480501
246	0xbd832acc	-0.06404647
247	0x3da00175	0.07812778
248	0xbda845f0	-0.082164645
249	0x3d2c7fe6	0.04211416
250	0x3d53443e	0.051578753
251	0xbc0cdf68	-0.008598186
252	0xbd9f1805	-0.07768253
253	0xbd93deb9	-0.07220215
254	0xbc728720	-0.014802724
255	0x3da78f55	0.08181635

fc2.bias f4 [2]
0	0x3daf2b51	0.08553184
1	0x3d7d7c46	0.061886095
