IA/best_model.pth (torch, 6696 bytes, 4 tensors)

fc1.weight f4 [128, 6]
00000000: 6e76 133e 92f1 fa3c 9c77 ff3b 36d5 233e
00000010: 0291 0c3e 3259 f53d a725 7abd e6a6 913b
00000020: b0ab e9bb c241 26be 0b2d 76bd e81b ce3d
00000030: 3dd9 083e ed12 28be f569 c73d 3c79 0abe
00000040: 55cf c63d 5828 6d3e b3cd bb3c cc67 f8bb
00000050: 2cd5 f9bd 279c 0e3d a34e cd3d ac6d c4bd
00000060: 4c7f 7fbd 92a1 cbbd d522 053e 0044 4a3e
00000070: 815e 85bd 85ea 21be 9861 1dbd 0eac f6bd
00000080: ebc9 3fbe 82c9 683e 9e89 c63d e39d 963d
00000090: 69d5 67bd 368a 843d c99f be3d fdf9 3f3d
000000a0: c265 2e3d 5e81 033c 1feb cb3d 4c7f 85bc
000000b0: c284 e8bd c206 3cbd 7055 5dbd fe7c 77bc
000000c0: fa58 f9bc f239 9fbd 7426 373d ecaf 033e
000000d0: d6b0 043d c8c0 2a3b 2de3 99bd 6ebe a4bd
000000e0: e41f f73d 9e1d 83bd ea43 8d3d 9caa c5bc
000000f0: 0af3 843d 9c14 72bd 6d2f 19bc ef1d 263d
00000100: 1d10 df3c 2268 153d 820d ffbc c716 b53d
00000110: a8ba b9bc f6b2 47be 3108 84bc f4d3 753d
00000120: 27e4 c7bc c43f 803d baf2 debc 8d7c ba3d
00000130: 2e4b 4abe f102 3fbe f055 bb3d 9d72 ec3d
00000140: 2aff b4bd 47b8 2dbd 02e6 d0bd 468a 513d
00000150: ca8e ba3d 3a6a cdbb ea9b cbbc 83fe 0f3d
00000160: 97d9 133e 8f23 0e3e 4014 053d a38b d83d
00000170: ae86 893d 6c69 73bd 522b 823d 3352 ef3d
00000180: 1036 caba 8440 36be 86b9 473d e42c 1f3e
00000190: a4f4 b6bd e221 913c 063b 023c 4b2e 4fbc
000001a0: 6aaf d43d 8026 33be 9457 64bd e261 123d
000001b0: f2fb 4b3e ed53 2dbe 98c9 0fbc 09bd e1bd
000001c0: 4efc 28bb 26f3 0b3e 1923 0c3e f99e b73c
000001d0: 2743 4c3d 0202 0ebe 03fe 97bd 0c66 0e3e
000001e0: a78f 78bb 7cec 67bc 31b0 8e3c f425 da3c
000001f0: b281 f93c 36eb 9ebd 3859 51be d3e3 98bc
00000200: d401 e3bd d5dc b7bc fdc0 993c b8cc 3dbb
00000210: b212 83bd 886e f7bd cce7 203d 4ade 313e
00000220: 48dc 1f3b 87ce ebbc c036 aa3d b679 bbbd
00000230: 12dd 3abe 4106 f8bc 6425 463d 1557 213c
00000240: 81a4 673d 52a6 fabc 20d9 31bd 24f2 f3bd
00000250: a8c9 6f3d 6020 043e 460d a9bd 7ac5 2abd
00000260: dbfd 3c3e d1ce a13d ccb1 56bd d88c 103d
00000270: bc64 793d a8b5 4f3d 689f 873c d8f9 c6bd
00000280: b072 43bb e4fc c1bb 8469 f43c 7f4f 873d
00000290: 9008 10bb 7af0 983d a59b 463e cbd7 e3bd
000002a0: dec3 103e d564 fc3d 797a 87bd 0a87 ea3d
000002b0: ecf2 1cbe 2c2e 89bd bef4 3dbe 84ba 8abc
000002c0: 4e92 db3d 62be d93d b42d 2f3d 21d8 313e
000002d0: 23ed 3fbd be4e e13d 6fd8 923d 0cea 1fbb
000002e0: 307b 383d cc7b 40be 28bf 213c 12b2 8c3c
000002f0: 50ec 753d a78f 69bc d70e 12bc 0e94 1cbe
00000300: a1c3 cd3c 9baa 5a3d 5552 793d d243 973d
00000310: dece 8cbd aec7 a2bb d125 edbd efc4 68bd
00000320: f006 4cbe e278 e43d 9bb8 0cbd ce44 443c
00000330: d346 ca3d f852 0abc eaa1 8ebc 53d2 8e3d
00000340: d08e 513d 64d0 e8bd e8ff 723d 7ea8 0b3e
00000350: a77d c2bd 70e5 393b 824b b43c 2c02 95bc
00000360: 20b8 063e 9840 913c 3ad3 933d 9260 263d
00000370: 5c11 16be 5b9d 89bd f4d5 cbbc 7324 303c
00000380: e063 65bd a553 a63d 0a3a e3bd ab60 153e
00000390: e02c 8e3d 9992 043d 3350 dc3c 2894 aabc
000003a0: e87e 9d3d 5c18 1e3e 0cbd 00be 54f7 f03d
000003b0: dc70 423e 7e01 eb3d 18b1 10bd 4492 30bd
000003c0: b695 0f3e 8f3f 0a3e 466a e3bd 2868 183c
000003d0: 1076 2dbe 1358 9d3d 102e ccbd 27d5 5a3d
000003e0: 84d3 73bd b5c0 9ebd b6bf c23d 9910 073e
000003f0: 3eaf bdbd 5b85 923d 1855 ed3c edfe b3bd
0.14400646 0.030632768 0.007796241 0.15999302 0.13727191 0.11979903 -0.061071064 0.0044449447
-0.0071310624 -0.16236022 -0.06010155 0.100639164 0.1336412 -0.1641347 0.097370066 -0.1352281
0.09707514 0.23159921 0.022925233 -0.007580733 -0.121988624 0.034816887 0.100247644 -0.09591231
-0.06237726 -0.099429265 0.13001569 0.19752502 -0.06512166 -0.15812118 -0.03842315 -0.120445356
-0.1872937 0.22733119 0.09694217 0.07354333 -0.05660001 0.06471674 0.0930782 0.046869267
0.042577513 0.008026449 0.09956955 -0.016296051 -0.113534465 -0.045904882 -0.054036558 -0.015105484
-0.030437935 -0.07774724 0.044714406 0.12860078 0.032395206 0.0026054848 -0.075140335 -0.08044134
0.120666295 -0.064021334 0.06897719 -0.024129204 0.064916685 -0.059101686 -0.009349686 0.04055589
0.027229363 0.036476262 -0.03113437 0.08842235 -0.022672012 -0.19501862 -0.016117187 0.060016587
-0.024400784 0.06262162 -0.02721535 0.091057874 -0.19755241 -0.18653466 0.09147251 0.11545298
-0.08837731 -0.04241207 -0.102001205 0.05115726 0.09109266 -0.0062687667 -0.024854619 0.03515483
0.14438473 0.13880752 0.032490015 0.105735086 0.06715141 -0.05942671 0.06355919 0.116856
-0.0015427489 -0.17798048 0.048760913 0.15544468 -0.0893338 0.017716352 0.007948643 -0.012645314
0.1038502 -0.17495155 -0.055747584 0.03573788 0.19920328 -0.16926546 -0.008776091 -0.11022384
-0.002578515 0.13666973 0.13685264 0.022414671 0.04986873 -0.13867953 -0.07421496 0.13906115
-0.003792742 -0.014155503 0.017417999 0.026629426 0.030457351 -0.07759707 -0.2044419 -0.018663323
-0.11084333 -0.022444168 0.018768782 -0.0028961133 -0.0640005 -0.12081629 0.03928356 0.17369953
0.0024392772 -0.028785003 0.08311224 -0.09154074 -0.18248394 -0.03027642 0.048375502 0.009847422
0.056553368 -0.030596886 -0.043419957 -0.11911419 0.058541924 0.12902975 -0.08254485 -0.041692235
0.18456213 0.07900775 -0.052415654 0.03529057 0.060887083 0.05071035 0.016555503 -0.09715623
-0.0029822998 -0.0059200395 0.02983547 0.066069596 -0.002197776 0.07467742 0.19395311 -0.111251436
0.14137217 0.1232392 -0.06615157 0.11451538 -0.15327042 -0.0669826 -0.18550393 -0.01693464
0.10721265 0.10632016 0.042768195 0.17367603 -0.04685701 0.11001347 0.07170188 -0.0024400977
0.045039356 -0.18797225 0.009872235 0.017174754 0.06003982 -0.014255441 -0.008914671 -0.15290853
0.025117697 0.05338536 0.060869534 0.073859826 -0.06875394 -0.0049676513 -0.115794785 -0.056828436
-0.19924521 0.11155869 -0.03435574 0.011979295 0.0987679 -0.008442633 -0.017411191 0.0697371
0.051161587 -0.11367872 0.059326082 0.13638493 -0.094966225 0.0028365515 0.022008661 -0.018189512
0.13156176 0.017730996 0.07218023 0.04061944 -0.1465506 -0.06719466 -0.024882294 0.010750878
-0.05600345 0.08121423 -0.110950544 0.14587657 0.06942153 0.03236637 0.02689371 -0.0208226
0.07690221 0.1543898 -0.12572116 0.11765924 0.18988365 0.11474894 -0.03532514 -0.04310824
0.14021954 0.13500808 -0.111042544 0.009302177 -0.16939569 0.076828144 -0.09969723 0.053425934
-0.05952789 -0.077516 0.09509222 0.13189925 -0.092619404 0.07154342 0.02897124 -0.087888576

fc1.bias f4 [128]
00000000: 8c8c 8fbe c0fd 3e3e 809d 113d 58a7 123e
00000010: 82bc 833e a410 ab3e c073 0c3e c42b 3c3e
00000020: 7064 a93e c120 3ebe e059 8b3e cfac 79be
00000030: d401 c53e 8061 dd3d b028 fcbd 2869 a2bd
00000040: 4009 983c 28d0 693d 78d2 59bd 2424 90bd
00000050: 6698 a0be 7490 00be e0f5 a63c 1037 673d
00000060: 32c4 ad3e 60be 6d3d 2037 673e 9e5f a5be
00000070: 40c5 243e 0192 67be e42b 90be e45a b63e
00000080: a432 263e 6c4f cbbd f83f 00be 3864 06be
00000090: abb8 49be 1831 b73e 2022 0abe 3164 9cbe
000000a0: ec53 f6bd 908c b7bd 0a7c 66be 26a2 86be
000000b0: 3055 9dbd da7d 25be f05b f33c 5858 2e3e
000000c0: d45b 133e 8087 03bb 9d98 97be f4c7 c0be
000000d0: 989b 4abd fc0b ae3d 6c98 fabd a496 0d3e
000000e0: 08ae 733e 904d dbbc 7b68 b1be fcd3 f6bd
000000f0: 646b a2be b4aa aebd cee5 a13e 845a 94be
00000100: 7a34 a63e e1f4 34be 1878 79be 806a 83bc
00000110: 40ae ca3e 1cf2 013e c8b7 2f3e 2039 76bd
00000120: d72b 85be 2f55 44be ac39 bebd c93b 24be
00000130: 7037 543d 7090 b8bc 0c18 123e 98a7 a43e
00000140: 9a74 bb3e 68c5 403e 20fd 433e d0e5 e7bc
00000150: 40db 3b3e b0ba cdbc e417 86bd f6b9 86be
00000160: 48c6 9bbe ac37 aebe 904e c9bd 3a6c 03be
00000170: c408 3bbe 6e89 83be 8049 a8be b8c1 373e
00000180: eca5 54be 0cce 3c3e f35a a5be c234 85be
00000190: 806f 12be 0c32 8cbd eae3 00be 8c8e 083e
000001a0: e01f 03be 1c94 843e 588c adbd 02bd 9dbe
000001b0: a01f bd3c 8a0b 983e f8b0 b13e 069f a93e
000001c0: a0a8 abbe ff55 acbe cce3 323e 00d1 373c
000001d0: 2451 2c3e 720d 6dbe d4ca 403e e476 f9bd
000001e0: 9809 6e3d b314 2bbe b4c9 91bd 5446 7a3e
000001f0: 0c4d ba3e 7c72 233e f058 233e b110 93be
-0.28036916 0.18651485 0.035550594 0.14321649 0.25729758 0.33411133 0.1371603 0.1837607
0.3308444 -0.18567182 0.27217007 -0.24382327 0.38477957 0.10809612 -0.12312448 -0.07930213
0.018559098 0.05708328 -0.053179234 -0.07038143 -0.3136627 -0.12555104 0.020380914 0.056448996
0.33938748 0.058042884 0.22579622 -0.32299513 0.1609087 -0.2261429 -0.28158486 0.3561622
0.16230255 -0.09927258 -0.12524402 -0.13124168 -0.19699351 0.35779643 -0.1348958 -0.3054519
-0.120277256 -0.08962357 -0.22508255 -0.26295584 -0.07682264 -0.1616129 0.029706925 0.17025888
0.14390498 -0.0020069778 -0.29608622 -0.37652552 -0.049464792 0.084983796 -0.122361034 0.13826996
0.23796856 -0.026770383 -0.34650025 -0.120521516 -0.31722558 -0.08528653 0.3162064 -0.28975308
0.3246191 -0.17671539 -0.24362218 -0.016041994 0.39586067 0.12690014 0.1715995 -0.060113072
-0.2601001 -0.1917312 -0.09288344 -0.16038431 0.05181068 -0.02252981 0.14266986 0.32159114
0.36612397 0.18825305 0.19139528 -0.028307825 0.18345356 -0.025113434 -0.065475255 -0.26313752
-0.30424714 -0.3402685 -0.09829438 -0.12834254 -0.18265063 -0.25690788 -0.32868576 0.17944992
-0.20766419 0.18437976 -0.3229595 -0.26016814 -0.14300346 -0.06845483 -0.12586942 0.13335627
-0.12805128 0.25894248 -0.08474034 -0.30808264 0.023086369 0.29696304 0.3470533 0.33129138
-0.33527088 -0.3365936 0.1746971 0.011219263 0.16827828 -0.2314966 0.18827373 -0.1218088
0.058114618 -0.16707115 -0.0711855 0.2444089 0.36386907 0.15961641 0.15951896 -0.28723672

fc2.weight f4 [2, 128]
00000000: 331b 873d 8047 11ba 90c9 203c 1279 223d
00000010: 931c 8e3d c39c 21bd 7396 00bd c7a3 27bd
00000020: 1b76 a33d 68a2 ed3c a061 6cbd fe0a 173d
00000030: dddb 8d3d 10be 2c3c 6da6 06bd b240 88bd
00000040: fc01 92bd 80d9 fe3a 7434 93bd 4678 403d
00000050: cc1d 22bd 634c b13d 1e92 713d 39d0 95bd
00000060: 5d85 12bd 7c6d 9cbc 208f c43c 58fc 0cbd
00000070: 3270 72bd b08e 80bc 24b3 113d 5897 0f3d
00000080: 942b 6dbd 0e01 e5bc 1ee4 503d 7419 f0bc
00000090: ca03 733d 2194 943d 626f 08bd b64e 053d
000000a0: 00bd 143d c06d bbba ced4 6a3d 9e8e 47bd
000000b0: 861f febc 57c6 aabd b6e6 71bd 9791 b2bd
000000c0: 28ae 843c 0450 8dbd 7b96 0dbd 88c6 7abd
000000d0: d836 033d 24ed 4bbd a4f4 813c 7bca 9dbd
000000e0: 3c79 7dbd e4ab 84bc 1928 28bd 4cf0 dcbc
000000f0: 62a5 7dbd c726 a23d c407 da3c e0aa 5dbb
00000100: 8499 f83c 5ce1 803c 87f8 883d 0eb0 193d
00000110: 2a83 483d 1ac9 a8bd d0c0 22bc 22d9 8ebd
00000120: f66f 4e3d f6bf 4d3d 6a9a a7bd ae2b 62bd
00000130: 1cd8 86bd 0ca5 adbd 2988 46bd ee31 583d
00000140: 561d 15bd 6090 243c 8c9c a6bd 115f a53d
00000150: f451 983c b51a 89bd 5aee 2d3d 8042 83ba
00000160: 008d 2abc 9f32 953d 1b84 70bd cc67 063d
00000170: cc30 973c 5acd e7bc 3cee 89bc b4ac 9cbd
00000180: 4860 cd3c 9048 d9bb b01a 78bc b0e3 f8bc
00000190: 52e1 753d f25b 72bd be0e 753d b060 423c
000001a0: 852e 90bd f6a4 fbbc 7937 953d b746 54bd
000001b0: 03dc a53d 30b4 c3bc 3491 c43c 049f fcbc
000001c0: c283 9ebd 9275 2abd 6ad3 563d 1484 fcbc
000001d0: b501 873d 481e 523c eb7e 873d 2660 8ebd
000001e0: 73e6 09bd 209d 383b 46a8 353d 8070 ba3b
000001f0: a85a 2ebd 82fd 723d 38c8 3bbc 80d7 4d3a
00000200: 14f1 82bd 36e8 aabd 30ef a1bb 003e 06bc
00000210: 90a7 11bd 690f 46bd 59ab 7bbd 3455 98bc
00000220: 3198 9bbd d413 03bd edb3 a5bd e08c 4b3b
00000230: a27e 433d 5907 af3d c8e5 83bc b0ef 1c3c
00000240: 149b a9bc c500 9d3d e4ca a23c 4902 a23d
00000250: 29a4 a1bd 7bfc a03d 0ad7 5c3d 4c0a 90bc
00000260: cbbd b13d 8bbd 9b3d fb85 993d 8e6c 793d
00000270: 2966 a7bd 169d 703d d2f8 483d 58af 463c
00000280: 48f6 31bc 04c4 c4bc e8f3 79bc a156 1abd
00000290: a61f 9cbd b658 9cbd fea2 673d e564 37bd
000002a0: 36b7 87bd 9449 073d 8bdb aebd 7695 4c3d
000002b0: 2105 953d a031 c3bb 8551 a33d 1ddc 813d
000002c0: feae 483d 1a95 2f3d 2af0 2f3d d41a 93bd
000002d0: f5a9 acbd 7a61 80bd e029 a33b 9068 ccbb
000002e0: 8498 81bd b8c0 cf3c 2ccd fcbc a845 29bc
000002f0: 43a2 853d 5eaf 523d 76f6 753d ec65 87bd
00000300: b402 90bd 73ee a73d 6ffe a33d 792e 873d
00000310: cde5 81bd f804 6dbc bbf6 9a3d 369d 98bd
00000320: 32b1 9bbd d750 903d e496 a9bc 5f62 953d
00000330: 14d5 86bc e4c1 babc 4cd8 78bd a6f8 4e3d
00000340: 2033 a9bd 8d75 9c3d 2bf7 843d a5aa 2fbd
00000350: 7e73 5a3d a023 18bc b658 703d 2a87 aebd
00000360: a870 6abc d87c 033c a8f0 bfbc e38d 9d3d
00000370: b6c2 5b3d f422 f5bc 1227 383d 7737 b33d
00000380: d0cd fdbb 8823 b3bd ff38 ae3d 1cb0 8ebd
00000390: a8f5 113d 70f7 36bd a6b9 713d b9e8 a43d
000003a0: 000d 853b 40b0 653c feb7 683d 77df 98bd
000003b0: 133f 6cbd 8006 f33c 861f 97bd 5235 9dbd
000003c0: 1945 59bd 2285 9bbd 205d b73c 5e37 83bd
000003d0: a00f 26bd b2b0 1e3d 958f 933d bc3f e73c
000003e0: 0ed2 6ebd 7322 26bd 884a 2fbc 4472 85bd
000003f0: 69bb 3abd a592 ab3d 8414 abbc 1c18 153d
0.06596985 -0.00055419654 0.009813681 0.039666243 0.06939044 -0.03945614 -0.03139348 -0.040927675
0.07981511 0.029008105 -0.05771029 0.036875717 0.06926701 0.010543361 -0.03287356 -0.06652965
-0.07129285 0.0019443482 -0.07187739 0.0469897 -0.039579198 0.08657148 0.05897724 -0.07315106
-0.035771716 -0.019095175 0.023994029 -0.03442034 -0.05918903 -0.015693039 0.035571232 0.035056442
-0.057902887 -0.027954604 0.0509988 -0.029309012 0.059329785 0.07254816 -0.033309348 0.032545768
0.036313057 -0.0014299676 0.057331853 -0.048719995 -0.03102089 -0.083386116 -0.059057914 -0.08719175
0.016196325 -0.069000274 -0.034567337 -0.06122449 0.032034725 -0.0497867 0.015863724 -0.07704636
-0.061883196 -0.016195245 -0.041053865 -0.026970051 -0.0619253 0.079175524 0.026615031 -0.0033823773
0.03034664 0.01573246 0.06688028 0.037521414 0.048953213 -0.08241482 -0.009933665 -0.069750085
0.050399743 0.050231896 -0.08183749 -0.055217437 -0.06584188 -0.08478746 -0.048469696 0.05278199
-0.03640493 0.010044187 -0.08135328 0.08074773 0.018593766 -0.06694547 0.042463638 -0.0010014325
-0.010409594 0.07285046 -0.058719736 0.032813832 0.018455885 -0.028296161 -0.016837232 -0.07650128
0.025070325 -0.0066309646 -0.015143082 -0.030382007 0.060029335 -0.059169717 0.059828512 0.011863872
-0.07040123 -0.030718308 0.07285971 -0.05182525 0.080986045 -0.023889631 0.02399502 -0.030837543
-0.077399746 -0.04161603 0.052447714 -0.030824699 0.065921225 0.012824602 0.066160046 -0.069519326
-0.03366704 0.0028169826 0.04434993 0.0056896806 -0.042566925 0.059323795 -0.01146131 0.00078522414
-0.06393638 -0.08345072 -0.0049418435 -0.008193493 -0.03556019 -0.04835454 -0.061442707 -0.018595316
-0.075973876 -0.03200133 -0.08090959 0.003105931 0.04772819 0.08546323 -0.01610078 0.00957863
-0.02070383 0.076661624 0.019872136 0.07910592 -0.07892639 0.07860657 0.053916015 -0.017583035
0.08678778 0.07604512 0.07496258 0.06089454 -0.081737824 0.05874356 0.04906542 0.012126766
-0.010861941 -0.024019249 -0.015255906 -0.037680272 -0.07623224 -0.07634108 0.056551926 -0.044773955
-0.066267416 0.033029154 -0.08537968 0.049947225 0.07276369 -0.0059568435 0.07974533 0.063408114
0.04899501 0.042866804 0.042953648 -0.071828514 -0.08430854 -0.06268592 0.004979357 -0.0062380508
-0.06327918 0.02536045 -0.030859552 -0.010331549 0.065250896 0.051436774 0.060049497 -0.06611237
-0.070317656 0.081997775 0.08007514 0.06600661 -0.06342659 -0.014466517 0.07566591 -0.074518606
-0.07602157 0.07046669 -0.020701833 0.072941534 -0.016459025 -0.022797532 -0.06075315 0.0505301
-0.082617044 0.076396085 0.06492456 -0.04288735 0.0533328 -0.009285837 0.05867835 -0.08521874
-0.014309086 0.008025371 -0.023430184 0.07693078 0.053652488 -0.029923894 0.044959135 0.087508135
-0.007745482 -0.087470114 0.08506965 -0.06967184 0.035634667 -0.04466957 0.05901494 0.08052201
0.0040603876 0.014019072 0.056816094 -0.074644975 -0.05767734 0.029666185 -0.073790595 -0.07676186
-0.053044412 -0.075937524 0.022383273 -0.06407045 -0.040542245 0.03874273 0.072051205 0.028228633
-0.058305793 -0.040560197 -0.010698922 -0.06515935 -0.045588885 0.083775796 -0.020883806 0.036399946

fc2.bias f4 [2]
00000000: 5cea 86bc 887b 2bbc
-0.016469173 -0.010466464
