IA/best_model.pth (torch, 6696 bytes, 4 tensors)

fc1.weight f4 [128, 6]
0	0x3cc3eb21	0.02391583
1	0x3d58a33e	0.052890055
2	0x3d6c36c3	0.057669412
3	0xbdcc7ff4	-0.099853426
4	0x3cff4488	0.031160608
5	0xbde0c644	-0.10975316
6	0x3cb99bfc	0.022657387
7	0x3e1f2b80	0.15543938
8	0x3c889d5a	0.016676594
9	0xbe23244b	-0.15931813
10	0x3ce1ee16	0.027579349
11	0x3e034b1c	0.1282162
12	0xbcdec352	-0.027192745
13	0x3c9c7cd8	0.019102499
14	0xbd69d312	-0.057086058
15	0xbcce41c6	-0.025177848
16	0x3e09d004	0.13458258
17	0x3e192724	0.14956337
18	0x3db52000	0.08843994
19	0x3d661430	0.056171596
20	0x3d9384fb	0.072030984
21	0x3ce60ec4	0.028083213
22	0xbcac48e2	-0.021030847
23	0x3be69544	0.007036837
24	0xbcec844c	-0.028871678
25	0x3ddd5db6	0.108088896
26	0x3cc0b27c	0.023522608
27	0x3da0e916	0.078569576
28	0x3d26b7fe	0.040702812
29	0xbccd59c0	-0.02506721
30	0xbda1bc64	-0.07897261
31	0xbdbc2dca	-0.09188421
32	0xbcdf115f	-0.027229963
33	0x3d4c4067	0.049866106
34	0xbd3f63e2	-0.046726115
35	0xbb774a84	-0.0037733624
36	0xbd85fd78	-0.06542486
37	0x3e109d42	0.14122489
38	0x3e119460	0.14216757
39	0x3cd782ba	0.026307452
40	0x3df7b5f7	0.12095254
41	0xbe0e7774	-0.13912755
42	0x3e8118f2	0.25214344
43	0x3ded4ef8	0.11587328
44	0xbdc315ea	-0.09525664
45	0x3dd38864	0.10328749
46	0xbe08dfc7	-0.13366614
47	0x3ddc746a	0.10764392
48	0xbbb0f73c	-0.0054005664
49	0x3d13e1b6	0.036103927
50	0xbd4be083	-0.049774658
51	0xbe166c8b	-0.14689843
52	0xbe05c28c	-0.13062495
53	0x3e13160c	0.14363879
54	0xbe5762b0	-0.2103374
55	0x3d6cda84	0.05782558
56	0xbd0a5662	-0.033773787
57	0x3d189c10	0.037258208
58	0xbddc3758	-0.107527435
59	0xbe36ca42	-0.17850593
60	0x3cd5941e	0.026071604
61	0x3dd334c8	0.103128016
62	0x3e5f1928	0.2178694
63	0xbe1434d6	-0.1447328
64	0x3e095208	0.13410199
65	0x3dd3faae	0.10350548
66	0xbd1c5468	-0.038166434
67	0x3e27ff06	0.16405877
68	0xbe0b0e3e	-0.13579652
69	0xbdcf7dc2	-0.10131408
70	0xbb9caa77	-0.004781063
71	0x3e5e32ed	0.21699114
72	0xbdc3a806	-0.09553532
73	0x3d2be52c	0.041966602
74	0xbd237589	-0.039907012
75	0xbd8e07d1	-0.069350846
76	0x3dbae506	0.09125714
77	0xbe45afb2	-0.19305304
78	0x3d07b3fa	0.033130623
79	0x3bf60a52	0.0075085545
80	0xbcdf96b0	-0.027293533
81	0xbcb8e648	-0.022570744
82	0xbd210415	-0.039310534
83	0xbac7a45f	-0.0015231482
84	0xbd491802	-0.04909516
85	0xbd3143be	-0.043277495
86	0x3de87565	0.11350516
87	0x3d844c44	0.06459859
88	0xbd9324c2	-0.07184745
89	0xbdefe9d4	-0.11714521
90	0x3defbf35	0.11706392
91	0x3e14e8e8	0.14541972
92	0x3d91b960	0.071154356
93	0x3d485ef7	0.04891869
94	0x3e06c428	0.13160765
95	0xbda5955c	-0.08085129
96	0x3cda09cf	0.026616005
97	0x3e161b81	0.1465893
98	0x3b9403d6	0.004517059
99	0x3e1a5314	0.15070754
100	0x3ca2d7d2	0.019878302
101	0x3bc4fb66	0.0060114143
102	0x3dcdc7fb	0.10047909
103	0xbcd1d94a	-0.025616307
104	0xbd44da50	-0.04805976
105	0xbde519c2	-0.111865535
106	0xbda7ddde	-0.08196615
107	0xbd5eb9c1	-0.054376367
108	0xbd8bb11e	-0.06820892
109	0x3cfb8bda	0.030706335
110	0x3e074859	0.13211192
111	0xbd90365b	-0.070416175
112	0x3e0fec13	0.14054899
113	0xbd4170b3	-0.04722662
114	0xbdc1b410	-0.09458172
115	0x3e3944e1	0.18092681
116	0xbdcb88ab	-0.09938177
117	0x3dc805c2	0.09766723
118	0xbcf544fc	-0.02994012
119	0xbde5d155	-0.112215675
120	0xbd9f3124	-0.07773045
121	0x3d80ccd8	0.06289071
122	0xbcc8ae35	-0.02449713
123	0x3ce11bdc	0.027479105
124	0x3bd984e1	0.006638155
125	0x3d15cbbc	0.03657125
126	0x3e0d3534	0.13789827
127	0xbe74d693	-0.23909979
128	0xbca46fb2	-0.020072792
129	0x3c8eefd6	0.017448347
130	0x3dac5d9f	0.08416294
131	0xbdaefa66	-0.085438535
132	0x3dc3467e	0.0953493
133	0xbb040e3c	-0.0020150086
134	0x3e00270c	0.12514895
135	0xbcaf798d	-0.021420265
136	0xbcc37718	-0.0238605
137	0x3df7ef80	0.12106228
138	0xbe2dfa4b	-0.1699001
139	0x3ddbd548	0.107340395
140	0xbc959ad2	-0.0182623
141	0x3e1915b6	0.14949688
142	0xbe02dd4f	-0.12779735
143	0x3c025c3c	0.007956561
144	0x3d06ae86	0.032881282
145	0x3bdb39cc	0.0066902395
146	0x3e39d939	0.1814927
147	0x3d5f6d00	0.05454731
148	0xbc5821a4	-0.013191614
149	0xbc4d04fd	-0.012513396
150	0x3d2206d8	0.039557308
151	0x3dc87fbe	0.0978999
152	0x3d03c694	0.0321718
153	0xbd577a46	-0.052606843
154	0x3d0fee6e	0.035139494
155	0x3c0b176e	0.008489473
156	0x3df1a41d	0.1179888
157	0x3e496d42	0.19670585
158	0x3dec3ba4	0.11534813
159	0xbe4920e2	-0.1964145
160	0x3d727946	0.059197687
161	0x3d798726	0.060919903
162	0x3cb6f912	0.022335563
163	0xbe302bf0	-0.17204261
164	0xbd9997f6	-0.074996874
165	0x3dd557b0	0.10417116
166	0x3e0c724c	0.13715476
167	0xbdcdbe18	-0.10046023
168	0xbd8bd89c	-0.06828424
169	0xbde4c76c	-0.11170849
170	0xbdf96d12	-0.12179007
171	0x3dba9236	0.09109919
172	0x3d564f09	0.052321468
173	0x3e5337bd	0.20626731
174	0x3d8413a0	0.06449056
175	0x3e643aed	0.22288103
176	0xbe7d5c0c	-0.24742144
177	0x3d30450c	0.0430346
178	0xbe1294ec	-0.14314622
179	0x3dc4ffe9	0.096191235
180	0x3dcad4d6	0.099038765
181	0xbcf35ebc	-0.029708259
182	0xbdff95b2	-0.12479724
183	0xbe215137	-0.15753637
184	0x3d7164a3	0.058933865
185	0x3ba560ac	0.0050469246
186	0x3d054bea	0.0325431
187	0xbd15219c	-0.036409006
188	0x3da3c87c	0.07997224
189	0x3bfb7eda	0.007675034
190	0xbc3ba56a	-0.011453012
191	0xbd776ba4	-0.06040539
192	0xbd0e15b4	-0.034688666
193	0xbe952175	-0.29127088
194	0xbdda6346	-0.10663466
195	0x3d93bdaa	0.0721391
196	0x39fbae0e	0.00048004132
197	0x3d9f2940	0.0777154
198	0x3e024ae3	0.1272388
199	0x3c81211d	0.01576286
200	0x3d8e41e0	0.069461584
201	0xbd543d12	-0.051816054
202	0xbc650858	-0.01397904
203	0xbba824b8	-0.0051313303
204	0x3dcd967e	0.1003847
205	0x3d7f6ffc	0.062362656
206	0xbe48313d	-0.19550033
207	0x3e533da5	0.20628984
208	0xbca15655	-0.019694487
209	0xbe6e0c8a	-0.23246971
210	0x3da51a2a	0.08061631
211	0xbdb4ac86	-0.08821969
212	0xbc71cd1a	-0.014758373
213	0xbdaf7d4e	-0.08568822
214	0x3d94bfb8	0.0726313
215	0x3e024e12	0.12725094
216	0x3c871768	0.016490653
217	0x3da509d8	0.08058518
218	0x3d307b82	0.043086536
219	0x3df4d1de	0.119540915
220	0xbe34cc9b	-0.17656176
221	0xbdc6e8da	-0.09712382
222	0xbaa7d62a	-0.0012804915
223	0xbdd1d99c	-0.10246584
224	0xbc9b5710	-0.018962413
225	0x3df89c6d	0.12139211
226	0xbdad1aac	-0.08452353
227	0x3debf861	0.11521984
228	0xbc42cc2c	-0.011889499
229	0x3d065ae4	0.032801524
230	0xbe22de36	-0.15905079
231	0x3d325c84	0.04354526
232	0x3bb572aa	0.0055373507
233	0xbe335a20	-0.17514849
234	0x3e50ff64	0.20409924
235	0x3c8260fb	0.015915385
236	0xbd150a82	-0.036386974
237	0x3dc5460e	0.096325025
238	0x3d11e7aa	0.035621323
239	0x3dceecfd	0.10103796
240	0x3e0e7ddc	0.13915199
241	0x3d5e26da	0.05423627
242	0x3ddf1cb8	0.108941495
243	0xbdfaac62	-0.12239911
244	0x3da9e317	0.08295267
245	0x3d90adba	0.07064386
246	0xbde29934	-0.110643774
247	0xbdd31e02	-0.10308458
248	0x3dd9bddc	0.10631916
249	0x3d4082e2	0.04699982
250	0x3d94d82d	0.07267795
251	0xbdad2d54	-0.08455911
252	0x3d262f1a	0.040572263
253	0x3db4c858	0.08827275
254	0x3e0e914b	0.13922612
255	0xbd7d9ba1	-0.061915997

fc1.bias f4 [128]
0	0x3eacbf9c	0.33739936
1	0x3e371490	0.17878938
2	0x3eb5c3ec	0.3550104
3	0xbe8af87b	-0.271427
4	0xbeb31c53	-0.34982547
5	0x3e8b15a6	0.27164954
6	0xbe16357c	-0.1466884
7	0xbe8ee4b0	-0.2790885
8	0x3dece1d0	0.11566508
9	0xbd7a97e0	-0.061179996
10	0x3e935254	0.2877375
11	0x3e256b9c	0.16154331
12	0x3dc307b8	0.095229566
13	0xbda1f614	-0.07908264
14	0xbe3a0af6	-0.18168244
15	0x3cbc1910	0.02296117
16	0x3e2d10a4	0.16900879
17	0x3e35b908	0.17746365
18	0x3dd91b78	0.106009424
19	0x3df37698	0.11887854
20	0x3e470260	0.194345
21	0xbe9e3a2e	-0.30903763
22	0x3eba3eb4	0.36375964
23	0x3e551b5c	0.20811218
24	0xbc8ea370	-0.017411917
25	0xbdb39bd0	-0.08769953
26	0x3c2ee840	0.01067549
27	0x3d71d330	0.059039295
28	0xbe03e142	-0.12878898
29	0xbe933658	-0.28752398
30	0x3ecc3224	0.39882004
31	0x3ddc8c20	0.10768914
32	0xbe93b11e	-0.28846067
33	0x3eaed1ba	0.34144384
34	0xbeb5cae2	-0.3550635
35	0x3eb6923a	0.35658437
36	0xbe531dcc	-0.20616835
37	0x3ea3663e	0.31913942
38	0x3d656dc0	0.05601287
39	0xbe9a924a	-0.30189735
40	0xbe3f2555	-0.18666585
41	0x3e1dc8a4	0.1540857
42	0xbe93bd38	-0.288553
43	0xbebcbc5f	-0.36862466
44	0xbeb82c97	-0.3597152
45	0x3da923e4	0.08258799
46	0x3e2b7668	0.16744387
47	0x3e597c68	0.21238863
48	0xbcf76e30	-0.030203909
49	0xbe3bee20	-0.18352556
50	0x3ba92f00	0.0051630735
51	0xbd99f46c	-0.07517323
52	0xbd879e04	-0.06621936
53	0x3ec9833a	0.3935793
54	0x3ea1992a	0.31562167
55	0x3cedeee0	0.029044569
56	0x3e1c8c68	0.15287936
57	0x3c87bf50	0.016570717
58	0xbc8771c0	-0.016533732
59	0x3ebec298	0.37257838
60	0xbe7e25be	-0.24819085
61	0xbeb05a0e	-0.34443706
62	0x3e22f0c4	0.15912157
63	0x3e6c8670	0.23098159
64	0x3e5ba9ac	0.21451443
65	0xbe9b97f4	-0.3038937
66	0xbd6b2450	-0.057407677
67	0xbdcc43f0	-0.099738955
68	0x3e96bf0e	0.29442638
69	0x3e46bb18	0.19407308
70	0xbe390e03	-0.18071751
71	0xbe08e63a	-0.13369074
72	0x3ea63396	0.32461232
73	0xbd821f04	-0.06353572
74	0xbe081c74	-0.13292104
75	0xbe816683	-0.25273523
76	0x3e3c9c5c	0.18419021
77	0xbe86c18e	-0.26319546
78	0xbe89e736	-0.26934212
79	0xbe6075ca	-0.21919933
80	0x3e4bf14c	0.19916266
81	0x3e63c314	0.22242385
82	0x3e55a0f0	0.20862174
83	0xbd220448	-0.039554864
84	0x3e006b18	0.12540853
85	0xbcff5e00	-0.031172752
86	0x3e44c15c	0.19214386
87	0xbe960f2d	-0.29308453
88	0x3e055614	0.13021117
89	0xbe1aeeba	-0.1513013
90	0x3e684a18	0.22684515
91	0x3ec3cbd6	0.38241452
92	0xbe1c319a	-0.15253296
93	0xbd7afb00	-0.06127453
94	0x3e013244	0.12616831
95	0x3e716db4	0.23577005
96	0xbe8644ee	-0.26224464
97	0x3e9e49a0	0.30915546
98	0xbec7a17e	-0.38990396
99	0xbd95f4e4	-0.073221
100	0x3e9c3568	0.30509496
101	0xbe173bbc	-0.1476888
102	0x3ddfc1b0	0.10925615
103	0x3e39e088	0.18152058
104	0xbdeff760	-0.11717105
105	0x3eb32d4e	0.34995502
106	0xbde62be8	-0.11238843
107	0xbe94dfc6	-0.29076976
108	0x3eb542cc	0.35402524
109	0x3e5634b4	0.20918542
110	0xbe13f012	-0.14447048
111	0xbd45e538	-0.048314303
112	0xbecb3058	-0.3968532
113	0xbe79cfa7	-0.2439562
114	0x3dada944	0.084795505
115	0x3e559d24	0.20860726
116	0xbebbf4f5	-0.36710325
117	0xbd87c128	-0.066286385
118	0x3e7d144c	0.24714774
119	0xbdfa98c0	-0.12236166
120	0x3e6a0154	0.22852069
121	0xbe871177	-0.26380512
122	0x3c83fc30	0.016111463
123	0x3e321c08	0.17393506
124	0xbe19a1ca	-0.15003124
125	0xbe536378	-0.20643413
126	0xbe70cb9b	-0.2351517
127	0x3ea5df5c	0.32396972

fc2.weight f4 [2, 128]
0	0x3c8403b8	0.016115054
1	0x3c036e30	0.008021876
2	0x3d9ae8e3	0.07563951
3	0x3d23993e	0.039941065
4	0xbc041a20	-0.008062869
5	0x3d09075c	0.033454284
6	0xbdad149c	-0.084511966
7	0x3d5c0d42	0.05372358
8	0x3b846cd0	0.004041292
9	0xbcf016a6	-0.029307675
10	0xbcded9d6	-0.027203482
11	0x3bf78940	0.0075542033
12	0xbd691f70	-0.056914747
13	0x3d317836	0.043327533
14	0xbc360050	-0.011108473
15	0x3c018680	0.007905602
16	0xba96aa80	-0.0011494905
17	0xbca9dee0	-0.020736158
18	0x3c88b1d0	0.01668635
19	0x3d4e084a	0.050300874
20	0x3d88a88f	0.06672775
21	0x3d585786	0.052817844
22	0x3d29e5c2	0.04147888
23	0x3d0f783e	0.03502678
24	0xbbf61a20	-0.0075104386
25	0x3bdaec50	0.0066810027
26	0x3da44be7	0.0802229
27	0x3d36cba6	0.044627808
28	0x3da5acad	0.08089576
29	0x3cb8f2d0	0.02257672
30	0xbd54fa71	-0.051996652
31	0x3c0cf078	0.008602254
32	0x3d7ee56a	0.062230505
33	0xbd868e42	-0.06570102
34	0x3b71d200	0.0036898851
35	0x3d959a45	0.07304815
36	0xbd247d31	-0.040158454
37	0x3cf07afc	0.029355519
38	0xbda201af	-0.07910477
39	0x3d3ab68a	0.04558424
40	0xbd46d832	-0.048546024
41	0xbd7b50c0	-0.061356306
42	0xbda977b8	-0.08274788
43	0x3d7e969a	0.062155344
44	0xbd6b96d1	-0.057516877
45	0xbcac2d7c	-0.021017782
46	0x3d675ac6	0.056483053
47	0xbd8ef833	-0.06980934
48	0x3d9383e7	0.07202893
49	0xbd934dab	-0.07192548
50	0xbd19fb9f	-0.03759348
51	0x3da7e493	0.08197894
52	0x3d1c628e	0.038179927
53	0x3ccb3d14	0.024809398
54	0xbd5d53cb	-0.05403499
55	0xbd83792c	-0.06419596
56	0xbd398221	-0.045290116
57	0xbbed1780	-0.0072354674
58	0x3d0fbc72	0.035091825
59	0xbc38f358	-0.011288486
60	0x3c525e88	0.012839921
61	0x3c68a130	0.014198586
62	0x3d05959c	0.03261338
63	0x3bdc3e80	0.006721318
64	0xbce843ec	-0.0283527
65	0x3d0a7948	0.03380707
66	0x3cdfcb7c	0.027318709
67	0x3d82821f	0.06372475
68	0x3cb360dc	0.021896772
69	0xbc8113ec	-0.01575657
70	0x3d2c99e6	0.042138956
71	0xbc13d488	-0.009022839
72	0xbda2ce88	-0.07949549
73	0xbd646443	-0.05575968
74	0xbcef7c80	-0.02923417
75	0x3cfddc28	0.030988768
76	0xbd27de12	-0.040983267
77	0x3c831480	0.016000986
78	0xbd93801d	-0.0720217
79	0xbda1d68c	-0.0790225
80	0x3c0683a0	0.008210093
81	0xbc569fa8	-0.013099588
82	0x3d032732	0.0320198
83	0xbd691417	-0.056903925
84	0xbd358ebc	-0.044325575
85	0xbd3f17bc	-0.046653494
86	0x3d86dcf7	0.065851144
87	0x3d16d176	0.03682085
88	0xbaf3d540	-0.0018602982
89	0x3d7e2472	0.062046476
90	0x3d055670	0.032553136
91	0xbda892e6	-0.08231144
92	0xbc3f5340	-0.011677563
93	0xbd680d7a	-0.056653477
94	0x3d759286	0.05995419
95	0x3d10d0c2	0.035355337
96	0xbc683d98	-0.014174841
97	0x3c33ab68	0.010966159
98	0x3dae2755	0.08503596
99	0xbd4f1308	-0.05055526
100	0xbd1b8da2	-0.03797687
101	0xbda88ad2	-0.08229603
102	0x3cb7e6e8	0.022448972
103	0xbcaefd68	-0.021361068
104	0x3d76164e	0.060079865
105	0xbafc9680	-0.0019270927
106	0xbc91ade4	-0.017783113
107	0x3d5dacf6	0.054120027
108	0x3d2b5f82	0.04183913
109	0x3bf4ad90	0.0074669793
110	0xbd38d152	-0.0451215
111	0x3cb0e760	0.021594703
112	0x3cda4378	0.0266435
113	0x3d3cd976	0.046105824
114	0x3d76f1b6	0.060289107
115	0xbd805575	-0.062663
116	0x3d4ca2aa	0.049959816
117	0xbd9d9634	-0.076946646
118	0xbca8b724	-0.02059514
119	0x3d83c665	0.06434325
120	0x3d949575	0.07255069
121	0x3da2f52b	0.07956918
122	0xbd8525a0	-0.06501317
123	0xbc5a3d00	-0.013320208
124	0xbd0a29e4	-0.033731356
125	0xbd08d913	-0.033410143
126	0xbd4f467f	-0.05060434
127	0x3ca078fc	0.01958894
128	0xbd385a7b	-0.045008164
129	0x3c475d68	0.012168266
130	0xbd28a8e1	-0.04117668
131	0x3bd4cb70	0.006493978
132	0x3d8dee01	0.06930161
133	0xbc9d1760	-0.019176185
134	0xbcedf86e	-0.029049125
135	0x3d3056f6	0.043051682
136	0xbd651b3a	-0.05593417
137	0xbd0c3a90	-0.034235537
138	0xbb146fe0	-0.002264969
139	0xbd5a8ad7	-0.053355064
140	0xbd801a49	-0.062550135
141	0x3db44759	0.08802671
142	0x3c1cfd70	0.009581909
143	0x3d0e327c	0.034716114
144	0xbd934bcd	-0.07192192
145	0x3d9b15bb	0.07572504
146	0x3dad8483	0.0847254
147	0xbda7b5d7	-0.0818898
148	0x3d4231ea	0.047410883
149	0x3d42b3ae	0.047534637
150	0x3db4895f	0.08815264
151	0xbd49edef	-0.049299177
152	0x3d6ed3ce	0.05830746
153	0x3d1e979e	0.038718812
154	0x3d9feebd	0.078092076
155	0xbd520981	-0.051278595
156	0xbc53f890	-0.01293768
157	0x3d643b22	0.055720456
158	0xbda05eef	-0.07830607
159	0x3d09d8d0	0.033654034
160	0x3d1045b4	0.035222724
161	0x3d9aa30b	0.07550629
162	0xbcc06bcc	-0.023488902
163	0xbc98f13c	-0.018669717
164	0xbb624220	-0.0034524277
165	0x3d4ca1d6	0.049959026
166	0x3d15f35c	0.03660904
167	0xbcea20b0	-0.02858004
168	0xbd370ea6	-0.044691704
169	0x3d35617e	0.04428243
170	0xbc903568	-0.017603591
171	0xbda19a7b	-0.07890793
172	0x3c246270	0.010033235
173	0x3da7de13	0.08196654
174	0xbcdc0536	-0.026857954
175	0xbda7f434	-0.08200875
176	0x3db19387	0.08670717
177	0x3c0f73e8	0.008755662
178	0x3d86836f	0.06568038
179	0xbcfe1244	-0.03101457
180	0xbd359188	-0.044328243
181	0xbd1e97a1	-0.038718823
182	0xbce997b0	-0.028514713
183	0x3d0996d8	0.03359112
184	0x3d4b9af2	0.049708314
185	0x3c817c38	0.015806302
186	0xbce75e8e	-0.02824333
187	0x3d1e3c9a	0.038632013
188	0x3da4cc89	0.080468245
189	0xbd91e0b8	-0.0712294
190	0x3d6053aa	0.05476729
191	0x3d44999e	0.047998063
192	0x3d4361de	0.047700755
193	0x3aa2bec0	0.0012416467
194	0xbd3be17b	-0.04586933
195	0x3cb55b8c	0.02213838
196	0x3d7b2632	0.061315723
197	0xbda54ebd	-0.08071659
198	0x3d0732aa	0.0330073
199	0x3d0ced72	0.034406133
200	0x3da2d27d	0.07950304
201	0x3a7dcf80	0.0009682104
202	0x3daeaa11	0.08528531
203	0xba80a980	-0.000981614
204	0x3cc53170	0.024071425
205	0xbdb2eae7	-0.0873621
206	0x3a2ea800	0.0006662607
207	0xbc697788	-0.01424969
208	0x3d26cd7a	0.0407233
209	0xbda9dfdf	-0.08294653
210	0x3d4fe6ce	0.050757222
211	0x3da3d28d	0.07999144
212	0x3cd5d828	0.026104048
213	0x3d803f13	0.062620305
214	0x3d92602b	0.07147249
215	0x3d9857e1	0.074386366
216	0xbce7c948	-0.02829422
217	0x3bb89750	0.005633272
218	0x3d5dfc5a	0.05419574
219	0xbd966aba	-0.07344575
220	0x3d931295	0.071812786
221	0xb8a0cc00	-7.6673925e-05
222	0x3d43ce8e	0.047804408
223	0x3c9e30e4	0.019310422
224	0x3da65f6b	0.08123668
225	0x3d392d0a	0.04520897
226	0xbc9a0020	-0.018798888
227	0xbaf48680	-0.0018655807
228	0xbd218a11	-0.03943831
229	0xba121080	-0.00055719167
230	0xbb9ad5b0	-0.0047251806
231	0x3db07309	0.08615691
232	0xbd3e9009	-0.04652408
233	0x3d5b76d2	0.053580113
234	0xbdaefa93	-0.08543887
235	0x3d662b86	0.05619385
236	0xbd80c981	-0.06288434
237	0x3d92bf5d	0.07165406
238	0xbc959aa0	-0.018262208
239	0xbd9442e8	-0.07239324
240	0x3c078f10	0.008273855
241	0xbd0d3b5a	-0.03448043
242	0x3c281ae0	0.010260314
243	0xbd7a6012	-0.061126776
244	0x3d3a3dfe	0.045469277
245	0xbd578bda	-0.052623607
246	0x3d36dd6e	0.044644766
247	0xbd65f4cb	-0.056141656
248	0xbdae23bd	-0.0850291
249	0x3c1787c0	0.009248674
250	0x3d2f6d4e	0.04282885
251	0x3cf4342c	0.029810034
252	0x3d77066e	0.060308866
253	0x3cada22c	0.021195494
254	0xbd4c4842	-0.049873598
255	0x3d53df4e	0.05172663

fc2.bias f4 [2]
0	0x3bd22e60	0.0064142197
1	0x3d9940bd	0.07483051
