IA/best_model.pth (torch, 6696 bytes, 4 tensors)

fc1.weight f4 [128, 6]
0	0xbc72dbc0	-0.0148229
1	0xbdcfa6d4	-0.10139242
2	0x3d13d380	0.036090374
3	0x3bd29fc0	0.006427735
4	0x3d2b1bd0	0.04177457
5	0x3deacf30	0.11465299
6	0x3c3a1d60	0.011359543
7	0xbe25f312	-0.16206005
8	0x3e93f5d2	0.28898484
9	0xbe7c5bc0	-0.24644375
10	0x3e883b0a	0.26607543
11	0xbece17db	-0.40252575
12	0x3e4c1268	0.19928896
13	0xbe3fdda4	-0.18736893
14	0xbe9ef008	-0.31042504
15	0xbe5003c5	-0.20313938
16	0xbdb7b304	-0.089696914
17	0xbebe1ec0	-0.37132835
18	0x3e011ab8	0.12607849
19	0x3e33bc38	0.17552269
20	0xbe43128e	-0.19050047
21	0x3d104740	0.0352242
22	0xbe45b0fc	-0.19305795
23	0x3d2abf40	0.041686296
24	0xbe67ed6d	-0.22649164
25	0x3d99a854	0.07502809
26	0x3e84d884	0.25946438
27	0xbe95a57c	-0.29227817
28	0x3e5e55c8	0.2171241
29	0x3de1c370	0.11023605
30	0xbe6b9ea9	-0.23009743
31	0xbb917e40	-0.004440099
32	0x3e302dd0	0.17204976
33	0xbdff9df0	-0.12481296
34	0xbea75429	-0.32681397
35	0x3dcd61c0	0.1002841
36	0x3e3c5bfc	0.18394464
37	0xbd046e90	-0.032332003
38	0xbea0853c	-0.3135165
39	0x3e364ce0	0.17802763
40	0xbeb2d90a	-0.34931213
41	0xbec99a8c	-0.39375722
42	0x3eb7b6b0	0.35881567
43	0x3d213fe0	0.039367557
44	0x3ead08d2	0.33795792
45	0xbe874f24	-0.26427567
46	0xbc835630	-0.016032308
47	0xbcb18250	-0.021668583
48	0x3e83a802	0.25714117
49	0xbe89e0b7	-0.26929256
50	0x3eacd978	0.33759665
51	0xbc52c140	-0.012863457
52	0xbec8b68c	-0.39201772
53	0x3d51d2c0	0.051226377
54	0xbe2d68be	-0.16934487
55	0xbe362313	-0.17786817
56	0x3e0239ec	0.12717408
57	0xbe8d35b4	-0.27580035
58	0x3d4abc00	0.049495697
59	0x3d683318	0.05668935
60	0xbda85650	-0.08219588
61	0x3e265554	0.16243488
62	0xbdb7b1e4	-0.08969477
63	0xbe40ac4b	-0.18815725
64	0xbe880812	-0.26568657
65	0xbcf569f0	-0.029957741
66	0x3e8e229e	0.27760786
67	0x3e8edefe	0.27904505
68	0xbec7f049	-0.3905051
69	0xbd6fce60	-0.058546424
70	0xbecf1dd8	-0.40452456
71	0x3e1a81d4	0.15088588
72	0xbe94dc12	-0.2907415
73	0x3dfd6fc8	0.12374836
74	0x3ec1c8ac	0.37848413
75	0x3dc06c48	0.09395653
76	0xbe9edc06	-0.3102724
77	0xbde7b180	-0.11313152
78	0x3eac4df4	0.33653224
79	0xbde145e0	-0.10999656
80	0x3ea36bee	0.3191828
81	0xbdff66cc	-0.12470779
82	0x3cb77820	0.022396147
83	0xbe6f085d	-0.23343034
84	0x3e6626ec	0.22475785
85	0x3dbd7360	0.09250522
86	0x3e972e76	0.29527634
87	0x3e2fa820	0.17153978
88	0x3e8e254c	0.2776283
89	0xbdd77384	-0.1052008
90	0xbcbdd540	-0.023172975
91	0x3ea4ba58	0.3217342
92	0x3e988db8	0.29795623
93	0xbe03c540	-0.12868214
94	0x3ed0a046	0.4074728
95	0x3e834498	0.2563827
96	0xbe378ce5	-0.17924841
97	0xbe312eb2	-0.17302969
98	0x3e8ab66e	0.27092308
99	0xbc1ca4a0	-0.009560734
100	0x3e79c100	0.2439003
101	0x3ec711b8	0.38880706
102	0x3de74a08	0.11293417
103	0x3ec37c72	0.38180882
104	0x3ea2d0a2	0.317998
105	0xbe03def6	-0.12878022
106	0x3ecb01aa	0.39649707
107	0x3df159f8	0.11784738
108	0xbe3511a9	-0.17682518
109	0xbe89d909	-0.26923397
110	0x3dafef48	0.08590561
111	0xbe6e629d	-0.23279805
112	0x3c968ea0	0.018378556
113	0x3e12ec9c	0.14348072
114	0xbdc9c398	-0.0985176
115	0x3e04acd8	0.1295656
116	0xbe088cac	-0.13334912
117	0xbe6cfae2	-0.23142579
118	0xbe89239e	-0.26784986
119	0xbe05c1fe	-0.13062283
120	0xbe850958	-0.2598369
121	0xbda686cc	-0.08131179
122	0xbdf53484	-0.11972907
123	0x3dc11740	0.09428263
124	0xbe44e1bc	-0.19226736
125	0xbea9e7f4	-0.3318478
126	0xbe59b0d4	-0.21258861
127	0x3deb5bd0	0.11492121
128	0x3e819fd0	0.2531724
129	0xbe7394f5	-0.23787291
130	0x3e2b3e80	0.1672306
131	0x3d037948	0.032098085
132	0x3ea45d78	0.3210256
133	0x3cf23ab0	0.029569
134	0xbe2b2d0b	-0.16716401
135	0xbe0175d6	-0.12642607
136	0xbe8aac84	-0.27084744
137	0x3c819790	0.015819341
138	0xbda4cae8	-0.08046514
139	0xbe128e70	-0.14312148
140	0x3e80c46c	0.25149858
141	0xbea8344f	-0.32852408
142	0xbebd329b	-0.3695267
143	0x3ec790b0	0.38977575
144	0x3e7625e8	0.24037898
145	0x3e2e9b44	0.17051417
146	0x3e4fbcec	0.20286912
147	0x3ec5b4ae	0.3861441
148	0xbed0c45c	-0.4077481
149	0x3e2e2008	0.17004406
150	0x3e2abfbc	0.16674703
151	0x3ecf346a	0.40469676
152	0xbe973843	-0.29535112
153	0x3df6c840	0.120499134
154	0xbe5c16df	-0.214931
155	0x3c08e2c0	0.008354843
156	0xbc7f95c0	-0.015599668
157	0xbdd48f70	-0.10378921
158	0x3e261fa4	0.16223007
159	0x3e5353f0	0.20637488
160	0xbcfe1490	-0.031015664
161	0x3ebb509a	0.36584932
162	0x3e2d1b20	0.16904879
163	0x3eb26410	0.34841967
164	0xbe5a949b	-0.21345751
165	0x3e58a024	0.21154839
166	0xbdff68b0	-0.124711394
167	0x3ece4102	0.40283972
168	0xbe510c29	-0.20414795
169	0x3d053330	0.03251952
170	0xbeab0ab2	-0.33406597
171	0xbe14429e	-0.14478537
172	0x3dc3e7d0	0.09565699
173	0x3e5b0b78	0.21391094
174	0xbe289422	-0.16462758
175	0x3e5719e0	0.21005964
176	0x3e5b760c	0.2143175
177	0xbe94e3b0	-0.29079962
178	0xbe4e1206	-0.20124063
179	0xbea8a002	-0.32934576
180	0xbeb0de8c	-0.3454479
181	0xbeb31259	-0.34974936
182	0xbccea4b0	-0.025225013
183	0xbcbe6e70	-0.02324602
184	0xbea9ddd5	-0.33177057
185	0xbd9638b0	-0.07335031
186	0x3e2d3888	0.16916096
187	0x3eb26494	0.3484236
188	0x3cfa4fc0	0.030555606
189	0xbe259980	-0.16171837
190	0x3e8dd5e6	0.27702254
191	0xbe14febe	-0.14550301
192	0x3d6379f8	0.05553624
193	0xbec71bd6	-0.38888425
194	0xbe9e398c	-0.3090328
195	0x3eb10ff6	0.3458249
196	0xbce675a0	-0.02813226
197	0x3ebeb6cc	0.37248838
198	0xbe800373	-0.25002632
199	0xbe34dac7	-0.17661582
200	0xbeb0b12e	-0.34510177
201	0xbd811cd4	-0.06304327
202	0x3e45653c	0.19276899
203	0x3e35bbf0	0.17747474
204	0xbe3cec2b	-0.18449466
205	0x3eaf7008	0.3426516
206	0xbd6588e8	-0.056038767
207	0xbe43c59c	-0.1911835
208	0xbeb63af3	-0.3559185
209	0xbdd37924	-0.1032584
210	0x3d68d468	0.05684319
211	0xbd288ba0	-0.04114878
212	0xbec360f0	-0.38159895
213	0x3e6a34d4	0.22871715
214	0x3e9d8c8e	0.30771297
215	0xbe84f403	-0.25967416
216	0xbe59b6d0	-0.21261144
217	0x3ec091c2	0.37611204
218	0xbeb0dfae	-0.34545654
219	0xbd145b70	-0.036220014
220	0x3ec3dfb4	0.3825661
221	0xbe565cda	-0.20933858
222	0xbe26cf7d	-0.16290088
223	0xbe400714	-0.187527
224	0xbec2decd	-0.38060609
225	0xbeb58115	-0.35450044
226	0x3e92a504	0.28641522
227	0x3ecca16c	0.39966905
228	0x3e154d70	0.14580321
229	0x3c6c2fa0	0.014415652
230	0x3db4ff14	0.08837715
231	0xbe614a9a	-0.22001114
232	0x3da4d860	0.08049083
233	0xbe81bd9c	-0.25339973
234	0x3e778118	0.24170339
235	0x3d634780	0.05548811
236	0xbe3821ad	-0.17981596
237	0xbd9e9e98	-0.07745093
238	0xbe92c149	-0.2866309
239	0x3e883486	0.26602572
240	0x3e32cbd0	0.17460561
241	0x3e901b18	0.2814567
242	0x3dc5dfb8	0.096618116
243	0xbd1e7900	-0.038689613
244	0xbe712357	-0.23548637
245	0xbeb086fa	-0.3447798
246	0x3e1bed8c	0.15227336
247	0xbe7118f8	-0.23544681
248	0xbec23962	-0.37934405
249	0xbe13ae24	-0.14421898
250	0x3e27089c	0.16311878
251	0x3eb0398a	0.344189
252	0x3e905f4a	0.281977
253	0x3e830dd6	0.25596493
254	0x3ec9adc2	0.3939038
255	0x3def4668	0.11683351

fc1.bias f4 [128]
0	0x3ecdf4b0	0.40225744
1	0xbc876840	-0.016529202
2	0xbeaab9d7	-0.3334491
3	0x3e2a4e28	0.16631377
4	0xbeae8873	-0.34088477
5	0xbe31c282	-0.17359355
6	0xbe407adb	-0.18796866
7	0xbe94912f	-0.29017016
8	0xbecb6488	-0.39725137
9	0x3ea8897e	0.32917398
10	0x3e8efcb4	0.27927172
11	0x3ec42fe4	0.38317788
12	0xbe270e83	-0.1631413
13	0x3e17d29c	0.14826435
14	0xbebb7f25	-0.3662044
15	0xbdcbe194	-0.09955135
16	0xbe891447	-0.26773283
17	0x3dd73b08	0.10509306
18	0x3d0324f8	0.032017678
19	0xbea67364	-0.3250991
20	0xbeab1428	-0.33413815
21	0xbebe1b74	-0.3713032
22	0x3e8e9a6e	0.27852196
23	0x3eababe6	0.33529586
24	0x3df78730	0.12086332
25	0x3d433bd0	0.047664464
26	0x3eb21cca	0.3478759
27	0x3e3144f8	0.17311466
28	0x3eab941a	0.3351143
29	0xbdaed458	-0.08536595
30	0xbe0703f2	-0.13185099
31	0xbe8d3ca0	-0.27585316
32	0xbe890b8c	-0.26766622
33	0x3d05ab08	0.03263381
34	0xbe38fa75	-0.18064292
35	0xbea9598f	-0.3307614
36	0xbe4951e1	-0.1966014
37	0x3d918488	0.071053565
38	0x3ebf3650	0.37346125
39	0x3ebf69f6	0.3738553
40	0xbeaa4523	-0.33255872
41	0x3e1f1bec	0.15537995
42	0xbe6276b4	-0.22115594
43	0xbe558e09	-0.20854963
44	0xbe6b46b9	-0.22976197
45	0x3eb43fbc	0.35204875
46	0xbe7d4ae8	-0.24735606
47	0x3e1ec138	0.15503395
48	0x3b9cb980	0.0047828555
49	0xbe5d0384	-0.21583372
50	0x3e351450	0.1768353
51	0xbed103d6	-0.4082324
52	0xbe3fe144	-0.18738276
53	0xbecbaadc	-0.39778793
54	0x3e8e4444	0.27786458
55	0x3dae1634	0.08500329
56	0xba971100	-0.0011525452
57	0xbd969d58	-0.0735423
58	0xbec4fe81	-0.3847542
59	0x3cfafba0	0.030637562
60	0xbe428a8b	-0.18998162
61	0xbe08f06c	-0.13372964
62	0xbde12d24	-0.10994938
63	0xbea5058e	-0.322308
64	0xbc8eae10	-0.017416984
65	0xbc073e80	-0.008254647
66	0x3e877a68	0.26460576
67	0x3e52562c	0.20540684
68	0xbe771596	-0.24129328
69	0x3e81ab84	0.2532617
70	0x3eafbd6a	0.343242
71	0x3dcd0688	0.10011011
72	0xbc9bc240	-0.019013524
73	0xbc6e2900	-0.014536142
74	0xbebabf4b	-0.3647407
75	0xbecf5d13	-0.40500697
76	0xbe82c658	-0.2554195
77	0x3dc47680	0.095929146
78	0x3b500a80	0.003174454
79	0x3eb2f13c	0.34949672
80	0x3e9cc84c	0.30621564
81	0xbdc7d8b4	-0.0975813
82	0xbd8f99b0	-0.070117354
83	0x3ec3b372	0.38222843
84	0x3ebdcbba	0.37069494
85	0xbcf58030	-0.029968351
86	0xbeb5eda6	-0.35532874
87	0xbe21aeb4	-0.157893
88	0x3eb8c33e	0.36086458
89	0x3e3c0914	0.18362838
90	0xbe7f44e1	-0.24928619
91	0x3e788b38	0.24271858
92	0xbe0043e2	-0.12525895
93	0xbe96f2f4	-0.29482234
94	0x3ebcdf92	0.3688932
95	0x3e088124	0.13330513
96	0x3d9c3c64	0.07628706
97	0xbe9363cc	-0.28787076
98	0x3df8cad8	0.121480644
99	0xbe4afb8e	-0.19822523
100	0x3e79a584	0.24379545
101	0xbebfba87	-0.37446997
102	0x3d795360	0.06087053
103	0xbe1fc3d2	-0.15602043
104	0x3ebdf068	0.37097478
105	0x3e4936d4	0.19649822
106	0x3e4d7568	0.20064318
107	0xbe421adc	-0.18955559
108	0x3e751a50	0.23935819
109	0x3eb9bc54	0.36276495
110	0x3d370840	0.044685602
111	0xbec9d02e	-0.3941664
112	0xbd387b98	-0.045039743
113	0xbecb8099	-0.3974655
114	0x3dc37c38	0.09545177
115	0xbd8dff60	-0.069334745
116	0x3e8246a8	0.2544453
117	0x3e5dcf0c	0.21661013
118	0xbd1e0318	-0.03857717
119	0xbeab8d65	-0.33506313
120	0x3eba62ac	0.36403406
121	0x3eb1466c	0.3462404
122	0xbea8ef53	-0.3299509
123	0x3d3cbb90	0.04607731
124	0xbd973608	-0.073833525
125	0x3eb69754	0.3566233
126	0xbe9ec380	-0.3100853
127	0x3ea42eaa	0.32066852

fc2.weight f4 [2, 128]
0	0xbc826868	-0.015918925
1	0xbd8fd93e	-0.070238575
2	0xbc533b80	-0.012892604
3	0xbc7eef90	-0.015560046
4	0x3da6fe43	0.08153965
5	0xbd4872b7	-0.048937526
6	0xbd9e324f	-0.07724439
7	0x3d54c802	0.051948555
8	0xbdae89bb	-0.08522364
9	0xbd70dbc1	-0.058803324
10	0xbcfd1cbe	-0.030897494
11	0xbcad31f0	-0.021141976
12	0x3d58167a	0.05275581
13	0xbd72c3d6	-0.059268795
14	0xbd9fdac5	-0.07805399
15	0xbc2f1918	-0.010687135
16	0xbd4fb046	-0.050705217
17	0x3d18601a	0.037201025
18	0xbd9b3a47	-0.07579475
19	0x3cba59b0	0.022747844
20	0xbd2a1362	-0.04152239
21	0xbd8a591e	-0.06755279
22	0x3d00c09c	0.031433687
23	0xbd9e7f68	-0.077391446
24	0xbd681fbd	-0.056670893
25	0x3d42c7ce	0.04755383
26	0x3d6744da	0.056462146
27	0x3dae521f	0.08511757
28	0x3d7eef36	0.062239848
29	0x3c623610	0.013806835
30	0xbc11e1c0	-0.008903921
31	0x3c606e40	0.013698161
32	0xbcef3fe8	-0.029205278
33	0x3daf4641	0.08558322
34	0x3cfa42ac	0.03054937
35	0x3da12cf1	0.078699
36	0xbcb40bb8	-0.021978244
37	0x3da4df79	0.080504365
38	0xbd60ffa3	-0.054931294
39	0xbca062f4	-0.019578435
40	0x3cd285cc	0.025698565
41	0xbc09d888	-0.0084134415
42	0x3d3cc05e	0.046081893
43	0xbc034d80	-0.008014083
44	0x3d83cd5b	0.06435653
45	0xbc902b74	-0.017598845
46	0xbd9582d1	-0.07300342
47	0x3d7fd9ae	0.062463455
48	0xbd4d24c1	-0.05008388
49	0xbd8be662	-0.068310514
50	0xbd6004b4	-0.054691985
51	0x3d8843db	0.066535674
52	0xbd105561	-0.035237674
53	0x3d41b31e	0.04728996
54	0x3d4e29fa	0.050333
55	0x3cac8e38	0.021063909
56	0xbd8f6ef6	-0.07003586
57	0xbd120e61	-0.035658244
58	0x3cdceea0	0.026969254
59	0x3d328d16	0.04359158
60	0xbd829ab0	-0.063771605
61	0x3d1c869e	0.03821432
62	0xbd41f15f	-0.04734933
63	0x3d002de2	0.031293757
64	0xbcc962e0	-0.02458328
65	0xbc185f88	-0.00930012
66	0x3d3e8e4e	0.04652243
67	0x3be70e70	0.0070512816
68	0xbd7eb380	-0.062182903
69	0xba903bc0	-0.0011004135
70	0x3da266e9	0.07929785
71	0x3c8b9f40	0.01704371
72	0xbd931f8a	-0.0718375
73	0x3d09d28a	0.03364805
74	0x3d9a5b83	0.07536986
75	0x3b4de1a0	0.0031415
76	0x3da6efbd	0.08151195
77	0xbd90b4b9	-0.0706572
78	0x3bf257c0	0.0073957145
79	0x3d35c12e	0.044373684
80	0x3d5ae926	0.053445004
81	0xbcfff04a	-0.031242508
82	0x3be558b0	0.0069990978
83	0xbd7c59d1	-0.061609093
84	0x3cacf850	0.021114498
85	0xbdad43d0	-0.084602
86	0x3ccf9e30	0.025343984
87	0x3da11443	0.07865193
88	0x3da10d37	0.07863849
89	0x3d71e12e	0.05905264
90	0x3ca699f0	0.020337075
91	0x3d63c0fe	0.055603974
92	0xbd195f00	-0.037444115
93	0xbda281ad	-0.0793489
94	0x3da2dbff	0.07952117
95	0x3d96e7bb	0.07368418
96	0x3c73d1a0	0.014881521
97	0x3d88392f	0.06651532
98	0x3d7898be	0.06069254
99	0x3d5e3542	0.05425001
100	0xbb95dba0	-0.0045733005
101	0xbb7d7340	-0.003867343
102	0x3d1cf266	0.038317107
103	0xbb8d3620	-0.0043094307
104	0x3b4e2ec0	0.003146097
105	0xbcb627f8	-0.022235855
106	0xbd2c1bd8	-0.04201874
107	0xbd6541c6	-0.05597093
108	0xbda739e8	-0.081653416
109	0xbdb3ed77	-0.08785527
110	0x3da9c5af	0.08289658
111	0x3b5cb4e0	0.0033677146
112	0x3c8ec6ec	0.017428838
113	0xbda76218	-0.08173007
114	0x3c46e4b0	0.012139484
115	0x3c828f00	0.015937328
116	0x3dac7b6b	0.084219776
117	0xbc9a15bc	-0.018809192
118	0x3d1a7aae	0.037714653
119	0x3d8956cb	0.067060076
120	0x3ccade5c	0.024764232
121	0xbcacd6a0	-0.021098435
122	0x3db45cb3	0.088067435
123	0xbd152282	-0.036409862
124	0xbd3b41e5	-0.04571714
125	0x3d7f14fa	0.062275864
126	0xbbdcaf30	-0.006734751
127	0x3c8eb918	0.017422244
128	0x3c81b4fc	0.01583337
129	0x3db22819	0.08699054
130	0xbb460120	-0.0030213073
131	0xbd8a2d78	-0.06746954
132	0x3d599aba	0.053126074
133	0xbd171c63	-0.036892306
134	0xbd93b0f0	-0.072114825
135	0x3d302812	0.043006964
136	0xbdaa06ad	-0.083020546
137	0x3d4c7f02	0.04992581
138	0x3da12b23	0.07869556
139	0x3daf9e8d	0.08575163
140	0xbcac41a8	-0.021027401
141	0x3caf3460	0.021387279
142	0x3da936e3	0.08262422
143	0x3cb80000	0.022460938
144	0x3ca17018	0.01970677
145	0xbd51d607	-0.051229503
146	0xbd051355	-0.03248914
147	0x3da5b971	0.08092011
148	0xbc3a5af0	-0.01137422
149	0xbd5807d1	-0.05274183
150	0x3c153228	0.009106196
151	0xbcf77710	-0.03020814
152	0xbd493f4a	-0.049132623
153	0x3d9c39e3	0.076282285
154	0xbd4b7152	-0.049668618
155	0x3ba9f610	0.0051868036
156	0x39f2c800	0.00046306849
157	0x3d899865	0.0671852
158	0x3d8dbd5f	0.06920885
159	0x3dabefe7	0.08395367
160	0xbc2c0580	-0.010499358
161	0xbdad5ede	-0.0846536
162	0x3d9e46c1	0.07728339
163	0xbd5925c3	-0.053014528
164	0xbd978f23	-0.07400348
165	0x3cd8e408	0.026475921
166	0x3c2f7288	0.010708459
167	0x3db1d44d	0.08683071
168	0x3c906808	0.017627731
169	0x3ab4c400	0.0013791323
170	0xbd9a851f	-0.07544922
171	0xbbbbd180	-0.0057317615
172	0x3ce09938	0.02741681
173	0xbda8e12d	-0.08246074
174	0xbda84b6e	-0.08217512
175	0xbc67a968	-0.014139511
176	0xbd7bf390	-0.061511576
177	0x3d3d989a	0.04628811
178	0x3dae4ceb	0.08510765
179	0xbd20e93c	-0.03928493
180	0x3c249130	0.010044381
181	0x3b875040	0.0041294396
182	0x3d439036	0.047744952
183	0xbd9f1594	-0.077677876
184	0x3cd8b1d4	0.026451983
185	0xbcd03648	-0.025416508
186	0x3c408468	0.011750318
187	0x3d48e5da	0.04904733
188	0xbda54c12	-0.0807115
189	0x3be5a3b0	0.0070080385
190	0xbae8a140	-0.0017748252
191	0xbd9435ce	-0.07236825
192	0xbd5d9aa0	-0.05410254
193	0xbd0f6c71	-0.035015527
194	0x3d160742	0.036628015
195	0x3d8dcf71	0.06924332
196	0xbcbcbd50	-0.02303949
197	0x3d673a9e	0.056452386
198	0x3cdfec44	0.02733434
199	0x3d689262	0.056780227
200	0x3cc9648c	0.024584077
201	0x3d8744bf	0.06604909
202	0x3c831bc4	0.01600445
203	0x3d85dd65	0.06536368
204	0x3dab8efd	0.08376882
205	0xbc26d670	-0.010182962
206	0xbc93ca9c	-0.018040948
207	0x3d7830b6	0.06059333
208	0x3b6af580	0.0035851896
209	0xbd40edd1	-0.0471018
210	0x3da12e39	0.078701444
211	0x3c24c5c8	0.01005692
212	0xbabb8680	-0.0014307052
213	0xbcddb8a2	-0.027065579
214	0xbd52fa02	-0.051507957
215	0x3d68698e	0.05674129
216	0xbcec96fc	-0.028880589
217	0x3db0571d	0.086103655
218	0x3d802509	0.06257064
219	0xbd4dca24	-0.050241604
220	0xbc0a3468	-0.008435346
221	0xbd0a1b79	-0.033717606
222	0x3bb49d60	0.0055119246
223	0x3c8b990c	0.017040752
224	0x3bb829d0	0.005620219
225	0xbd28274a	-0.041053094
226	0xbcab3f80	-0.020904303
227	0xbb30b180	-0.0026961267
228	0x3b067e40	0.0020522028
229	0xbd141d16	-0.03616055
230	0xbd01a765	-0.03165378
231	0x3dac2157	0.084047966
232	0xbd0bff1f	-0.03417885
233	0xbd8a68a8	-0.06758243
234	0x3d164d4a	0.036694802
235	0x3d4e7c42	0.05041147
236	0x3d3c121e	0.045915715
237	0x396ffa00	0.00022885948
238	0xbd528644	-0.051397577
239	0x3ccf23c4	0.025285609
240	0xbdb243b3	-0.08704319
241	0xbd53dcfa	-0.05172441
242	0x3a102600	0.00054988265
243	0xbda06a93	-0.078328274
244	0x3d36fa12	0.04467208
245	0x3cf8a214	0.030350722
246	0xbda19b0e	-0.078909025
247	0xbd6f65e5	-0.058446784
248	0xbca849bc	-0.020542972
249	0x3cd51bc4	0.026014216
250	0x3c4f51a0	0.012653738
251	0xbd6ee40d	-0.058322955
252	0x3d8d2c3d	0.068932034
253	0xbcaa0d58	-0.020758316
254	0xbbaae920	-0.005215779
255	0x3b307740	0.0026926547

fc2.bias f4 [2]
0	0x3d00e11e	0.03146469
1	0x3d5b912e	0.05360525
