IA/best_model.pth (torch, 6696 bytes, 4 tensors)

fc1.weight f4 [128, 6]
00000000: 0543 0d3e 3e66 6ebd 10b7 233e 5d75 5abd
00000010: 5610 29be a995 9ebd ce9a 80bc 0162 15be
00000020: 4af7 4bbd 0069 0f3d d237 7b3d 5450 533e
00000030: 62e6 d1bc ba3d 8dbd bbc7 c0bc 5022 f23c
00000040: 1b8c ab3d 7c0e 1f3d 38fb 8c3d 691f ddbd
00000050: 06ae b7bd 1d92 06be 9005 ff3c b7b2 453c
00000060: eb39 14bd 62b1 03bd 0000 9ebd 862d 793d
00000070: fb24 333d ee62 aa3b 31fa 363d a457 b6bc
00000080: c9b8 b43d 4a70 11bd 8cbe 98bd dd47 293c
00000090: 0a6a 703d b05f d5bb 8e99 21be ee01 da3c
000000a0: cc87 853c 5ee0 973d e739 97bc 157b ec3d
000000b0: 6c96 1dbd 8cf4 7ebd f0a7 1abd 110e 90bd
000000c0: fad7 17be 4214 e43d 4887 eebd 6e1d a2bd
000000d0: 2c4b d33a 86a1 203e 92fb 973d 36eb c13d
000000e0: ae47 c73d 8e26 903c e9fd c9bd 214c 09bd
000000f0: 1233 7c3c c1ea 26bd d19a 0a3c edee ef3c
00000100: 9c5a 11bd c74c 8cbc 9040 943d a8fd c6bd
00000110: 281a d3bd 6191 39bd 05a9 ffbc 976a dc3d
00000120: 18df 9e3d 6ffe b03d 9dd5 623d fccb e03d
00000130: 052b d23c 1a81 3b3d f7bc cb3d 42c6 b83d
00000140: 382c a33d 7ea2 9abd afd2 ef3b 7fec 5abe
00000150: f0d8 b4bd 4d92 7dbb 06fd 3a3b 8125 1a3e
00000160: 160b 42bc 0cde 70bd e135 51bd 5bc2 2c3d
00000170: 8f11 af3c d466 353e 646b f43d f77f e6bd
00000180: f0b2 24be ded4 b7bd ba3b 14be 698e a23c
00000190: 9872 d1bb b61f 43bd 6098 b6bd a4d5 833d
000001a0: fe91 a5bd a663 41bc d403 55bc a053 f2bb
000001b0: ca6e 89bd 547f 053d dcfa 80bb f1d9 bf3c
000001c0: 3497 14bc 111e dfbd b03b ebbd 2450 89bd
000001d0: 5feb 71bc c402 afbd 3aa4 fdbd 8440 4fbc
000001e0: 489a f2bd c44a 6dbd fa0d 773d 4449 9c3b
000001f0: bcae 943d 2acb dfbd f257 ccbd 64de c1ba
00000200: faef 82bd c29f 6fbd 189f a13d b0f1 56bd
00000210: 38ad a2bd 8261 2c3d 7ae6 293e c4ca 23bc
00000220: a19f 7f3d 1dc0 8d3d 7890 1abb 515a e4bc
00000230: 410b e13d 8ad8 03bd c9a2 49bd 7080 513c
00000240: fa2e ff3b 41fc 843d 57f5 553d 11c7 073e
00000250: 9dd1 07be f707 a83d ac4b 8ebc 7895 3c3e
00000260: 9ec7 a2bb 5b75 27bd bd8a c13d fc2a 8c3d
00000270: cba4 75bb e698 c83d acc7 97bd 741f 81bd
00000280: c27b da3d f6cf 133e 07f1 83bc 4532 4ebd
00000290: ec6c cb3d 789c b6bb 7404 7cbd d922 8d3d
000002a0: bc38 2dbe 18db 0abb 750d 6dbc 797d e8bd
000002b0: f435 55bb e629 3cbe d08e 13be 1d85 323d
000002c0: 66c2 42bd 80f6 593d b0c9 b3bd 9114 e2bd
000002d0: 152d 12be 82e7 9dbd d2b2 6eba 10aa e6bc
000002e0: fa58 3abd 32dd b83d 9019 203d b830 62bd
000002f0: fd54 e0bb 1252 96bd 870e c5bd 66f4 00be
00000300: 0a84 d8bd 35e3 893d e8e7 2f3d fb52 55bd
00000310: 96f9 e4bd b440 1d3d c883 fd3b 64a0 17bd
00000320: a0c3 3e3d 3263 36bc 2615 36bd 56c0 aebd
00000330: 1ed7 103e 5231 fe3d db08 2a3d 77fe febc
00000340: 20e6 0cbe a2ed a13d ce5b 593d 1785 ddbd
00000350: ef5e 84bd dec2 b1bb 14c4 103e 7071 15bc
00000360: dd81 fa3d 58f1 063e 9051 4dbd 8d01 c33d
00000370: 4d7d ab3d e891 95bd 920f 06be 97da 783b
00000380: 0ef7 e83d 1ecf 87bd 17da 773d 6770 aabd
00000390: 4c40 0dbd 78a9 153e ec11 e43c be60 a63d
000003a0: 4831 13be 397e 27bd 5d2c 21bb d8f6 283d
000003b0: 57bd fdbc f074 a7bd ca1b 103d ee2d 153e
000003c0: 7b0b c13d ce7d 12ba a0f6 1cbd a5d3 973d
000003d0: f7ca 713d 13f0 a4bb 18a6 cdbd 941e 463d
000003e0: f09e f2bc 8a16 7d3d fc48 30be dced 65bd
000003f0: 86e9 d9bd b885 c03d 9030 ad3d eca9 2abd
0.13795097 -0.058202974 0.15987802 -0.053334583 -0.16510138 -0.07743389 -0.015698817 -0.14588167
-0.04979638 0.035012245 0.06133253 0.20636111 -0.02562255 -0.06896539 -0.023532739 0.029557377
0.08376332 0.038832173 0.06883854 -0.10797007 -0.08968739 -0.13141675 0.031130582 0.012066535
-0.036188047 -0.032151587 -0.07714844 0.06083443 0.04373644 0.0051997816 0.044672195 -0.022258587
0.088243075 -0.035507478 -0.07458219 0.010332075 0.058694877 -0.006511651 -0.15781233 0.026612248
0.016300105 0.074158415 -0.018460227 0.115469135 -0.03847353 -0.062244937 -0.037757814 -0.07033933
-0.14828482 0.11136676 -0.116468966 -0.079157695 0.0016120425 0.15686616 0.0742103 0.09468691
0.09730469 0.01759651 -0.09862883 -0.033519868 0.0153930355 -0.040751223 0.008459763 0.029288733
-0.035486802 -0.017126454 0.07238877 -0.0971635 -0.10307723 -0.04530466 -0.031208524 0.10762518
0.077573955 0.08642279 0.0553795 0.10976407 0.025655279 0.045777418 0.099481516 0.0902219
0.079674184 -0.07550524 0.0073188166 -0.21379279 -0.0883044 -0.0038691938 0.0028532161 0.15053369
-0.011843463 -0.05880551 -0.051076774 0.04217754 0.021370677 0.17715007 0.11934546 -0.11254876
-0.16083884 -0.08976148 -0.14475909 0.019843297 -0.0063918345 -0.047637664 -0.08915782 0.06437233
-0.080844864 -0.011803543 -0.013001401 -0.007395223 -0.067105845 0.032592133 -0.003936155 0.023419352
-0.009069253 -0.108944066 -0.11485994 -0.06704739 -0.0147655895 -0.085454494 -0.12384839 -0.012649659
-0.11845833 -0.05793263 0.060316063 0.004769476 0.072598904 -0.10927422 -0.09977712 -0.0014791009
-0.06393428 -0.058501966 0.07891673 -0.052476585 -0.07943195 0.04208518 0.16591826 -0.009997074
0.062408093 0.06921408 -0.0023584645 -0.027875097 0.10988475 -0.03218893 -0.04922751 0.01278697
0.0077875825 0.06493426 0.052235927 0.13259532 -0.13263555 0.08204644 -0.017370068 0.18416393
-0.004967644 -0.040883403 0.0945029 0.06844136 -0.0037482257 0.09794788 -0.07411131 -0.06304827
0.10668136 0.144348 -0.016106142 -0.05034091 0.099328846 -0.0055728517 -0.061527684 0.06891412
-0.16916174 -0.002118772 -0.01446854 -0.11352057 -0.003253338 -0.18375358 -0.14409947 0.043583978
-0.047548674 0.053213596 -0.08778703 -0.11039079 -0.1427501 -0.07710172 -0.0009105626 -0.028157264
-0.04549501 0.09026565 0.03908688 -0.055222243 -0.006846069 -0.073398724 -0.096219115 -0.1259323
-0.105720595 0.067327894 0.042945772 -0.05208109 -0.11180417 0.038391784 0.007736657 -0.037018195
0.04657328 -0.011132048 -0.044453762 -0.08532779 0.1414456 0.12411751 0.04151235 -0.031127198
-0.1375966 0.07906653 0.053066067 -0.108164005 -0.0646342 -0.0054248413 0.14137298 -0.009121284
0.12231801 0.13178003 -0.050126612 0.0952178 0.083735086 -0.0730322 -0.13091877 0.0037972087
0.11375247 -0.06631301 0.06051072 -0.0832222 -0.034485146 0.14615428 0.027840577 0.08123921
-0.14374268 -0.04089186 -0.0024593093 0.041251034 -0.030974073 -0.08176601 0.03518275 0.14568302
0.09426018 -0.00055882044 -0.038321137 0.07413415 0.059031453 -0.005033502 -0.100414455 0.048369005
-0.029616803 0.061789073 -0.17215341 -0.056135044 -0.10640244 0.09400505 0.08456528 -0.041665956

fc1.bias f4 [128]
00000000: 1024 f0bc 00c8 203d 589a 933e 1809 323e
00000010: 8ce7 163e d8f5 913d 60f9 a43c 2042 d73d
00000020: e8d3 a33d c861 ffbd 087b 303e 2cad 673e
00000030: 8802 e63d a06c c1bc e05f c1be 2083 ed3d
00000040: da04 8a3e a40f 88bd c07d f73d a031 f1bc
00000050: 80fb bbbe ee68 05be 0074 e239 e4ae 973d
00000060: aabb 9abe 0090 9bba e226 8c3e c842 7bbd
00000070: f050 2e3e 324d cd3e 0cfb 13be 8030 0dbc
00000080: 3230 8fbe 80ae f2bb 544e 763e f4e6 82bd
00000090: 4454 f1bd b8bc 27bd 5610 95be 44c7 133e
000000a0: 62bc bdbe 6a58 04be 6887 fd3d 6e51 9c3e
000000b0: e0b6 133c a0e1 c4bd 036c cebe 2c84 423e
000000c0: 0091 b0ba 0470 aa3d 14df 753e e02b 9f3e
000000d0: ea8a 823e 0258 4cbe 00b4 1aba 5ccc a7be
000000e0: 884b 983e dc1e 683e 848a b3be f04a 563e
000000f0: d655 9a3e ac53 a9be f67b 19be f119 a0be
00000100: 189c c83e 5432 85bd 6037 c4be fa08 933e
00000110: cf49 62be 647b 29be d2ea 56be 20cf 6e3e
00000120: e5c4 91be 2c8c 0b3e 3038 3c3e 6989 96be
00000130: 60bd 0bbd d6a8 1bbe 3885 4ebd 684d 653e
00000140: a0f4 0d3e 2838 ea3d c0d0 ebbd 5c54 ce3e
00000150: 125e 9c3e d140 86be 9f68 c1be 39ca 97be
00000160: d891 453e 72e3 64be 68f2 e73d f83b 053e
00000170: 1494 963e 14b6 1e3e 8c56 6c3e 209c 673c
00000180: 902f eabc 8234 8e3e cdc1 5cbe b88a ca3e
00000190: 7877 023d 5421 8e3e 4645 8c3e 6cfd 043e
000001a0: 1c15 8d3d 2440 8cbd e8dd 323d 92e6 b73e
000001b0: 2218 cdbe 9ad2 66be 8eee 1dbe c55d 2dbe
000001c0: 9327 5bbe ca82 73be 2aa7 8cbe 7665 973e
000001d0: c4f7 b1bd 80f0 7dbd a6eb b23e 0056 9dbc
000001e0: d337 b1be 488e 2f3d f15a a3be 0bfd 89be
000001f0: d83a 643e 9a60 a33e e06f 593e 0d7b 5fbe
-0.029314071 0.039253235 0.28828692 0.17386281 0.14736766 0.07126969 0.020138443 0.10510659
0.07999402 -0.12469822 0.17234433 0.22624654 0.112309515 -0.023611367 -0.3776846 0.11597276
0.26956826 -0.06643608 0.12084532 -0.029442608 -0.36715317 -0.13028309 0.00043192506 0.074064046
-0.302213 -0.0011868477 0.27373415 -0.061342984 0.17023063 0.40097958 -0.14451236 -0.00861752
-0.27966458 -0.007406056 0.24053317 -0.06391707 -0.117836505 -0.04095146 -0.29114026 0.14431483
-0.37057787 -0.12924352 0.12379342 0.30530876 0.009015769 -0.09613347 -0.4031678 0.18995732
-0.0013470948 0.083221465 0.24010879 0.3108816 0.25496608 -0.19955447 -0.0005901456 -0.327731
0.29745126 0.22668022 -0.35066617 0.20927024 0.30143613 -0.3307165 -0.14988694 -0.31269792
0.3918159 -0.0650374 -0.38323498 0.28717786 -0.22098468 -0.16550976 -0.20988014 0.233212
-0.2847053 0.1362769 0.18380809 -0.2940171 -0.03411615 -0.15201125 -0.050420016 0.2239281
0.13862848 0.11436492 -0.11514425 0.40298736 0.3054052 -0.26221326 -0.37775132 -0.2964647
0.19293916 -0.22352389 0.11325532 0.13011158 0.2940985 0.15499145 0.2307989 0.014136344
-0.028587133 0.27774435 -0.21558304 0.3955896 0.031852216 0.27759802 0.273966 0.12987298
0.06888792 -0.06848171 0.043668658 0.359181 -0.40057474 -0.22541276 -0.15423033 -0.16930301
-0.21401815 -0.23780361 -0.27471286 0.29569596 -0.08689836 -0.061996937 0.3494541 -0.019206047
-0.34612903 0.0428603 -0.3190532 -0.2695087 0.22288072 0.3190964 0.21234083 -0.21824284

fc2.weight f4 [2, 128]
00000000: 00c7 a9b9 8049 2bbb ceeb 613d 7087 61bc
00000010: e4d4 8fbc aa83 573d fc04 89bc 3c7b 7bbd
00000020: 3b85 a13d 5f47 ad3d 19a6 a33d 301c ecbb
00000030: c165 1abd 7d41 833d 18ca 473c e063 9b3b
00000040: 33d9 8f3d 1631 3ebd 6753 a23d 6f81 9d3d
00000050: 127e 3f3d 2285 673d 1491 7abd 542b a63c
00000060: 2ff5 843d 1080 44bd 7021 513c d309 973d
00000070: f558 75bd 1a57 1c3d 5fe4 89bd ae1f 3c3d
00000080: bd82 ac3d 4220 4c3d 608a debc 00cc dc3a
00000090: 6768 90bd e3cf b03d 3cb8 073d 9502 96bd
000000a0: 5895 fd3c 8e68 6f3d 5960 913d 0696 393d
000000b0: 975a a03d fb7f 3abd 58dc 71bc 5a99 29bd
000000c0: 4823 32bd 6755 33bd 2286 2f3d 99ed 983d
000000d0: 40fa 1cbb 70e5 3dbd 993c b43d f075 8b3c
000000e0: 6135 b4bd 80e1 7f3b 943e 113d d2cc 4a3d
000000f0: dad5 4c3d c9a4 a23d 706e 25bc 403c a53b
00000100: 7b98 33bd d6e9 7d3d 18b9 44bd 767a 173d
00000110: 4a87 5bbd 2cfc fcbc d0dd e43c d2f4 1e3d
00000120: 54e5 8e3c c852 77bc c519 8fbd c989 31bd
00000130: 4b7e a13d fa7f 083d 41fa 8e3d 09d7 51bd
00000140: 40da d5bb 808a 6f3a a004 6abd 7661 513d
00000150: 7cf4 f73c 420a 583d e157 b13d 42e9 683d
00000160: 943a cdbc 7232 2d3d 5378 49bd a86e 90bc
00000170: 17df 81bd 6380 32bd b882 f13c 3e7c 723d
00000180: 0098 a4b9 f46f 68bd 101e f23c 9c2f afbc
00000190: 64df 8cbd 87f9 ab3d b8ff 113c fc88 e3bc
000001a0: 208e 3a3c 8d47 5bbd 81fa aabd 6914 82bd
000001b0: 2705 b3bd b1d9 9bbd 8cca 89bc 5004 c0bc
000001c0: cea7 333d 632b 72bd 5a59 533d 086b 1bbd
000001d0: c509 843d 8063 c93b 55b3 9c3d 48c6 75bc
000001e0: 02a7 0d3d d204 5b3d 68a8 133d a5ee 38bd
000001f0: f63a fcbc 5cc4 b1bc 0dc8 9c3d b2b8 213d
00000200: 3511 8bbd 4c65 71bd c03e 9fba fd9c 9dbd
00000210: 31f3 00bd c99d 96bd 2edb a2bd d018 80bb
00000220: 6854 b93c c8f6 61bd 003f b2ba 3deb 8dbd
00000230: 1dff 853d b093 783c b47c bd3c 808b 6a3c
00000240: 19cd a33d 9079 91bb 718c 843d 289b 693c
00000250: 6eb7 0b3d 58b4 223c a0ae 6dbc bae0 48bd
00000260: 380b 273c b640 3bbd 8049 f0bb 04e9 a83c
00000270: f008 a23c c36a 873d 6aff 203d 87db 843d
00000280: 007f eb3c 5d86 883d 3ed7 553d 828c 6b3d
00000290: 4597 a03d 0892 89bd 0201 253d 2e96 66bd
000002a0: 60b3 fbbb d205 b2bd 7047 cfbb 73a2 8d3d
000002b0: 0c26 cebc eed0 683d beba 363d 68c4 30bc
000002c0: 0e84 63bd 8560 b13d 7f36 a63d add2 9d3d
000002d0: 40b8 48bc b9bc 933d 7082 fe3c f68b 1f3d
000002e0: 20bd 97bc bab0 7c3d 0072 b2ba a0e6 80bb
000002f0: 30f6 533c 46c4 0c3d 7f42 a3bd 86ef a3bd
00000300: 8219 1d3d 5eda 4f3d 8062 433a c3d6 983d
00000310: 4825 103d 1442 963c 26ec 4f3d 72ae a6bd
00000320: d450 fe3c ec6a e83c 80a1 c7bc 391c 0abd
00000330: abe9 9bbd 0960 873d 42ad a2bd 0260 1abd
00000340: e7a1 9bbd ef35 92bd 6f48 42bd 022d acbd
00000350: 9495 5abd 75ed 8b3d 1497 3dbd fc2a 8b3c
00000360: 6844 9e3c 605c 8a3c e155 57bd d20a 373d
00000370: c912 ac3d b627 dbbc d468 a0bc 942b 54bd
00000380: 063c 7a3d 0042 dabb 167f 2e3d b6ae b1bd
00000390: fffc a03d 6765 05bd b860 dfbc 6065 9fbd
000003a0: 60f0 18bb adbc 59bd c41b 913c fe9b eabc
000003b0: d779 a8bd 626f 243d 6fa6 5bbd 0e29 74bd
000003c0: 0000 dc3a 397d 37bd 7023 f43c b0ea 83bc
000003d0: 787d 69bd 047c 823c c2bf 8bbd ae79 86bd
000003e0: 01a1 32bd b555 903d 0065 fd3a 0a5f 8abd
000003f0: 9cca fc3c dc1a 8ebd 3050 d33c 71d6 31bd
-0.00032382458 -0.0026136339 0.05515652 -0.013765201 -0.017557569 0.0526158 -0.01672601 -0.061396822
0.0788674 0.084608786 0.07990665 -0.0072055086 -0.037694696 0.06408975 0.012194179 0.0047421306
0.07023849 -0.04643353 0.07926064 0.07690703 0.04675109 0.05652345 -0.061173514 0.020284332
0.064920776 -0.047973692 0.01276432 0.07374921 -0.05989929 0.038169004 -0.067330115 0.04592865
0.08423374 0.04983545 -0.027165592 0.0016845465 -0.07051163 0.08633401 0.033134684 -0.07324711
0.030955002 0.05844932 0.07098455 0.04530909 0.07829779 -0.045532208 -0.014762007 -0.041406013
-0.043490678 -0.043782618 0.04285253 0.07467193 -0.0023952872 -0.046361387 0.088006206 0.01702401
-0.08799244 0.003904432 0.03546007 0.049511738 0.050008632 0.079415865 -0.010097131 0.0050425828
-0.04384659 0.06199058 -0.04802808 0.036982022 -0.05359582 -0.030881964 0.0279378 0.038807698
0.017443337 -0.01509542 -0.06987337 -0.043344293 0.078854166 0.033325173 0.06981326 -0.051230464
-0.0065262616 0.00091377646 -0.057133317 0.051118337 0.030267946 0.052744158 0.0865934 0.056863077
-0.025052346 0.042284437 -0.049187016 -0.01763089 -0.06341379 -0.04357947 0.029481277 0.059200518
-0.00031393766 -0.05674739 0.02955535 -0.021385007 -0.06878546 0.08397203 0.008911066 -0.02777528
0.011386424 -0.053535033 -0.08348561 -0.06351549 -0.08741217 -0.07609881 -0.016820215 -0.023439556
0.043861203 -0.059123408 0.051598884 -0.03794387 0.06447176 0.0061458945 0.07651392 -0.015000887
0.0345831 0.053471394 0.036049277 -0.045149464 -0.030789834 -0.021700077 0.07655344 0.03948278
-0.06790391 -0.058934495 -0.0012149438 -0.07695959 -0.031481925 -0.07354314 -0.079519615 -0.003909208
0.022623256 -0.05516699 -0.0013599098 -0.06929634 0.065427996 0.01517193 0.023130752 0.014315486
0.07998104 -0.00443954 0.064720996 0.014258184 0.03411048 0.009930693 -0.014506966 -0.04904244
0.010195546 -0.04571601 -0.0073329806 0.020618923 0.019779652 0.0661216 0.03930608 0.06487184
0.028747082 0.06666253 0.052207224 0.057507046 0.078413524 -0.067173064 0.040284164 -0.056295566
-0.0076812953 -0.086925164 -0.0063256547 0.0691575 -0.025164627 0.056839876 0.044611685 -0.010789014
-0.05554586 0.08660988 0.08115863 0.07706199 -0.01225096 0.0721373 0.031068057 0.038951837
-0.018522799 0.061691977 -0.0013614297 -0.0039337426 0.012937114 0.03436687 -0.079716675 -0.0800467
0.038354404 0.05074536 0.00074533373 0.074628375 0.035191804 0.018342055 0.050762318 -0.081387416
0.031044401 0.028371297 -0.024369001 -0.03371832 -0.07612928 0.06610114 -0.079432026 -0.037689216
-0.0759924 -0.07139193 -0.04743236 -0.08407022 -0.053365305 0.06832401 -0.046286657 0.01698827
0.019319728 0.016889751 -0.052572135 0.044688053 0.084020205 -0.026752334 -0.019581236 -0.05179937
0.0610924 -0.0066607 0.042601667 -0.086759016 0.07860755 -0.032567408 -0.027267799 -0.077830076
-0.0023336634 -0.05315845 0.017713435 -0.028638836 -0.08226364 0.040145285 -0.05362552 -0.059609465
0.0016784668 -0.044797156 0.029802054 -0.016103119 -0.057004422 0.015928276 -0.06823684 -0.06566177
-0.043610577 0.07047597 0.0019332469 -0.067564085 0.03085833 -0.06938717 0.025795072 -0.043417398

fc2.bias f4 [2]
00000000: 5580 8e3d 95cc 9d3d
0.06958071 0.077050366
