IA/best_model.pth (torch, 6696 bytes, 4 tensors)

fc1.weight f4 [128, 6]
-0.11460979 0.03225205 -0.071604654 -0.030918183 0.06994077 -0.026257649 0.08711944 -0.012539358
0.0049780686 -0.006465076 -0.011696326 0.10321042 -0.0785872 0.06136927 -0.16983712 -0.08707142
0.16107637 0.061976597 -0.013332153 0.05719738 0.020990707 0.017408371 0.011941282 -0.2098776
-0.12714203 0.08098015 0.16906482 -0.10229619 -0.060684174 0.11259321 -0.078954175 -0.045502886
-0.09278458 -0.08229022 0.025014766 0.0862502 -0.00046991603 -0.06630461 0.17301646 0.053278785
-0.20085281 0.006863191 -0.19107133 0.13511312 0.018928802 0.06377019 -0.020397853 0.0841314
-0.031115996 -0.04309202 0.003918312 0.06374913 0.013694825 -0.050006494 0.07076919 -0.03916774
0.0038655796 0.0701855 0.14894506 0.08408759 0.13809294 0.1000017 0.06838104 -0.14234573
0.037794784 0.07928619 0.03863546 0.20955358 -0.1568999 -0.008766539 0.07431557 -0.02469479
-0.066319115 0.20342493 0.02108119 0.035401814 0.09289924 0.104540914 -0.06712787 -0.025867384
0.023805983 -0.10384968 0.1944781 -0.01756838 0.16644827 0.03148456 -0.10936433 -0.074809745
-0.06619874 0.06538732 -0.104010254 0.02176866 -0.022399299 -0.16770147 0.03765735 -0.018184997
0.09837043 -0.05550509 0.27180654 0.040059127 0.12034518 -0.002281065 -0.029444974 0.13542047
-0.022797175 -0.09499098 0.105709136 -0.051082306 0.07109071 0.11018081 -0.08474594 -0.038130444
-0.04460337 0.24889173 0.051174097 -0.18532759 0.006791145 -0.02966478 0.23776965 -0.07580981
0.1954962 -0.07516148 -0.018654374 -0.013243027 0.042573333 -0.030862864 0.16033274 0.092881165
-0.083436355 -0.020861901 0.012023998 0.066817194 0.0732519 0.10778628 -0.11926254 -0.04627786
0.1584079 0.014002415 -0.010658622 0.033825684 -0.10762916 -0.07681255 -0.0060091913 0.18584041
-0.10376842 -0.010739588 0.08395643 -0.16355227 0.024986103 0.0456867 -0.089626685 -0.006113506
-0.021941615 0.1266397 -0.15307692 -0.017970558 -0.060055777 -0.008298631 -0.14709684 0.021205008
-0.04840977 0.113380104 -0.0006390281 0.12049423 -0.04553386 0.06145657 -0.094407566 0.1293833
-0.18725666 0.20835438 -0.022841105 -0.104009815 -0.14971349 -0.07206744 0.009849831 -0.0059200255
-0.08376579 -0.10598209 0.02439775 -0.14662422 -0.022031233 0.101026975 0.08344546 -0.10452434
-0.06987989 -0.099749595 -0.00234253 0.02562364 0.048857637 -0.015006267 -0.036680657 -0.046439193
0.098572895 -0.0693845 -0.0029385583 0.085442394 0.01912744 -0.02806657 -0.09830653 0.17630777
-0.027112857 -0.21793616 0.089519046 0.14643607 -0.1464512 0.05349648 -0.057144456 -0.14769971
0.12380606 0.022056144 0.04466386 -0.02734556 -0.018112909 0.106106594 -0.020360842 0.030781444
-0.1285693 0.02275101 -0.05886034 -0.075932 0.04645876 -0.122543484 0.121401876 -0.027358638
-0.017158145 0.022724612 -0.003090918 -0.046766274 -0.15131703 -0.010081917 0.06443879 0.04059639
0.027461581 -0.03903744 -0.108245015 -0.047838736 0.056544855 -0.008689833 0.074867815 -0.008545769
0.006332903 0.038135074 0.068242595 -0.10264338 -0.007518967 0.056678366 0.030016627 -0.022401424
-0.1174884 -0.15283355 0.008855611 -0.01677844 -0.08146009 -0.04638526 0.13661642 -0.24090695
00000000: 8ab8 eabd ba1a 043d 76a5 92bd 2148 fdbc
00000010: 1b3d 8f3d 481a d7bc ad6b b23d e171 4dbc
00000020: 111f a33b fdd8 d3bb f2a1 3fbc fc5f d33d
00000030: 53f2 a0bd 585e 7b3d c8e9 2dbe 8052 b2bd
00000040: 34f1 243e 2cdb 7d3d 1a6f 5abc cd47 6a3d
00000050: b4f4 ab3c 009c 8e3c 5ea5 433c 27ea 56be
00000060: 8531 02be ecd8 a53d 541f 2d3e aa80 d1bd
00000070: f88f 78bd 4597 e63d bab2 a1bd 3c61 3abd
00000080: d805 bebd c687 a8bd c4eb cc3c f2a3 b03d
00000090: 105f f6b9 b6ca 87bd 3a2b 313e db3a 5a3d
000000a0: 5cac 4dbe 9ee4 e03b 34a8 43be 185b 0a3e
000000b0: 9310 9b3c f299 823d 6619 a7bc 154d ac3d
000000c0: f9e6 febc 4281 30bd 2f65 803b e78e 823d
000000d0: 4260 603c 9cd3 4cbd 70ef 903d 5a6e 20bd
000000e0: aa55 7d3b 6abd 8f3d 0e85 183e 1d36 ac3d
000000f0: 3c68 0d3e b1cd cc3d 5c0b 8c3d 14c3 11be
00000100: b4ce 1a3d cc60 a23d 3740 1e3d 3795 563e
00000110: 5eaa 20be 88a1 0fbc c332 983d ba4c cabc
00000120: 51d2 87bd a04e 503e 76b2 ac3c 7e01 113d
00000130: f541 be3d 8c19 d63d 567a 89bd d6e7 d3bc
00000140: c404 c33c 24af d4bd 4425 473e 90eb 8fbc
00000150: 6a71 2a3e f4f5 003d 68fa dfbd da35 99bd
00000160: 3493 87bd cae9 853d 5403 d5bd 3054 b23c
00000170: bc7e b7bc efb9 2bbe 983e 1a3d b4f8 94bc
00000180: 7076 c93d 4e59 63bd 3a2a 8b3e 0a15 243d
00000190: 8977 f63d ec7d 15bb 9636 f1bc aaab 0a3e
000001a0: 24c1 babc a28a c2bd 087e d83d ae3b 51bd
000001b0: 0298 913d 7aa6 e13d 488f adbd ab2e 1cbd
000001c0: 06b2 36bd 79dd 7e3e ee9b 513d 84c6 3dbe
000001d0: 4188 de3b 8d03 f3bc e379 733e 2c42 9bbd
000001e0: 2830 483e 43ee 99bd 0fd1 98bc 48f9 58bc
000001f0: 6061 2e3d 1ed4 fcbc 442e 243e 7b38 be3d
00000200: aee0 aabd 94e6 aabc 4e00 453c 74d7 883d
00000210: 1805 963d 0ebf dc3d eb3f f4bd da8d 3dbd
00000220: ae35 223e 636a 653c 80a1 2ebc cd8c 0a3d
00000230: ad6c dcbd e64f 9dbd c0e8 c4bb f34c 3e3e
00000240: 8a84 d4bd 19f5 2fbc 59f1 ab3d 3f7a 27be
00000250: a8af cc3c fa21 3b3d 328e b7bd ce53 c8bb
00000260: e7be b3bc d6ad 013e 32c0 1cbe fe36 93bc
00000270: 0cfd 75bd fbf6 07bc 8ea0 16be 20b6 ad3c
00000280: 5349 46bd d433 e83d 7384 27ba aec5 f63d
00000290: b681 3abd e2b9 7b3d c158 c1bd 0e7d 043e
000002a0: 36c0 3fbe da5a 553e 451d bbbc 1903 d5bd
000002b0: 7e4e 19be 1898 93bd 3061 213c c6fc c1bb
000002c0: 668d abbd 230d d9bd cadd c73c a924 16be
000002d0: d87a b4bc 3be7 ce3d 74e5 aa3d db10 d6bd
000002e0: 301d 8fbd 8449 ccbd 2285 19bb abe8 d13c
000002f0: f21e 483d d9dc 75bc 753e 16bd 0637 3ebd
00000300: 96e0 c93d 7619 8ebd d494 40bb 6cfc ae3d
00000310: 26b1 9c3c ddeb e5bc ef54 c9bd 068a 343e
00000320: c81b debc a82a 5fbe c355 b73d 56f3 153e
00000330: 4ef7 15be 201f 5b3d 4e10 6abd 983e 17be
00000340: 088e fd3d 16af b43c 74f1 363d cc03 e0bc
00000350: 8661 94bc 6a4e d93d c8cb a6bc 5e29 fc3c
00000360: aca7 03be 5360 ba3c 8a17 71bd 3d82 9bbd
00000370: 8a4b 3e3d 14f8 fabd 8ca1 f83d 391f e0bc
00000380: 3d8f 8cbc f728 ba3c 0091 4abb fe8d 3fbd
00000390: daf2 1abe a02e 25bc 7cf8 833d 6648 263d
000003a0: 1cf7 e03c b9e5 1fbd 90af ddbd 8df2 43bd
000003b0: 949b 673d cd5f 0ebc 4c54 993d 8e03 0cbc
000003c0: 3e84 cf3b 8633 1c3d c6c2 8b3d b136 d2bd
000003d0: ab61 f6bb 9327 683d 6ee5 f53c 3183 b7bc
000003e0: c29d f0bd 6680 1cbe 2017 113c f072 89bc
000003f0: 8cd4 a6bd 78fe 3dbd 2de5 0b3e 50b0 76be

fc1.bias f4 [128]
0.12325603 -0.034619898 -0.3351274 -0.10976553 -0.38673535 0.012865841 0.19054657 0.35954744
-0.38468975 -0.23764822 -0.19667621 0.255817 -0.18228869 0.18454766 -0.34588808 -0.26618105
-0.12873903 0.056388676 0.21057868 -0.34137583 -0.09991327 -0.35522473 -0.069990516 0.32883483
0.38338006 0.097516835 0.24210513 -0.3722714 -0.23036194 -0.0682486 0.033970535 -0.40104008
0.006162882 0.07315311 -0.39270276 -0.025746197 -0.045989126 -0.14589351 0.012670875 -0.007629186
0.31362855 0.35618472 -0.27389336 -0.07782689 -0.009218991 -0.1122821 -0.16768357 -0.24122237
-0.38735273 -0.28137517 0.39932007 0.087154984 -0.23899347 0.15051436 -0.23076311 -0.10926509
0.24291325 -0.27701634 -0.0646908 -0.3657602 0.0871751 0.014770538 0.36325294 -0.40746072
-0.31816143 0.062827915 -0.38926 0.3824185 0.106013596 -0.025579423 0.1382531 -0.3075255
0.22322476 0.36262155 0.18833566 0.12566388 0.21759373 -0.07471895 0.02496913 0.3169365
0.025761425 0.18556201 0.20279467 0.34906912 -0.12366155 -0.3946393 -0.087536335 0.38589513
0.3858757 0.37683493 0.13338405 -0.32627216 -0.01949361 -0.0211519 -0.08628467 0.21812046
0.19153208 -0.3464724 0.09997594 0.19884366 -0.14235407 0.1726498 -0.19971998 0.0017450452
-0.34550256 0.22760934 0.26613522 -0.14552632 0.04490587 -0.20703468 -0.20392978 0.06571308
0.26836485 -0.2519641 -0.19825025 0.20738035 -0.19595258 0.035827994 -0.09105393 -0.29689628
-0.0458169 0.34501004 -0.013273388 -0.07723659 0.28572297 0.1936751 0.38177013 -0.08651617
00000000: a86d fc3d 98cd 0dbd d295 abbe c0cc e0bd
00000010: 2d02 c6be 40cb 523c a41e 433e 9a16 b83e
00000020: 0ef6 c4be 0e5a 73be 7d65 49be 72fa 823e
00000030: e3a9 3abe 10fa 3c3e 3e18 b1be e248 88be
00000040: 2ad4 03be d0f7 663d f0a1 573e d0c8 aebe
00000050: 549f ccbd 04e0 b5be 3057 8fbd 0a5d a83e
00000060: 644a c43e e8b6 c73d 68ea 773e 5b9a bebe
00000070: 00e4 6bbe ecc5 8bbd b024 0b3d 2055 cdbe
00000080: 00f2 c93b 4cd1 953d 5610 c9be b0e9 d2bc
00000090: 185f 3cbd 1c65 15be 8099 4f3c 40fe f9bb
000000a0: ec93 a03e d85d b63e c03b 8cbe b463 9fbd
000000b0: 400b 17bc 28f4 e5bd 3eb5 2bbe ff02 77be
000000c0: 1953 c6be 6810 90be ae73 cc3e 507e b23d
000000d0: b4ba 74be 7020 1a3e 2a4d 6cbe 60c6 dfbd
000000e0: 40be 783e 16d5 8dbe 9c7c 84bd ec44 bbbe
000000f0: dc88 b23d 2000 723c 4afc b93e b19e d0be
00000100: 0ee6 a2be ecab 803d 164d c7be 5ccc c33e
00000110: a81d d93d f08b d1bc 3892 0d3e fb73 9dbe
00000120: 0895 643e 88a9 b93e 10db 403e 08ae 003e
00000130: e4d0 5e3e 4006 99bd 108c cc3c 8045 a23e
00000140: a009 d33c f803 3e3e 68a9 4f3e 30b9 b23e
00000150: 4442 fdbd 2a0e cabe 4046 b3bd 0c94 c53e
00000160: 8091 c53e 82f0 c03e d495 083e 250d a7be
00000170: 10b1 9fbc c046 adbc 04b6 b0bd f85a 5f3e
00000180: fc20 443e d564 b1be 30c0 cc3d ac9d 4b3e
00000190: 44c5 11be 1ccb 303e 6583 4cbe 00ba e43a
000001a0: b6e5 b0be 6c12 693e e042 883e da04 15be
000001b0: 38ef 373d e600 54be f8d2 50be 9494 863d
000001c0: 1e67 893e 7001 81be 1d02 4bbe 845b 543e
000001d0: cba7 48be 60c0 123d 7c7a babd ca02 98be
000001e0: 80aa 3bbd 28a5 b03e a078 59bc 382e 9ebd
000001f0: 484a 923e c452 463e 6077 c33e 642f b1bd

fc2.weight f4 [2, 128]
-0.066016294 0.019431554 -0.054462567 -0.01642505 0.062707596 -0.018151172 0.023197971 0.0020522252
-0.04294314 0.022104986 0.039184876 0.012346916 0.04920114 -0.057225138 -0.051687945 -0.079216495
0.058070816 -0.06735471 -0.041295514 0.02048441 0.06734309 -0.013738461 -0.0825267 0.06855477
0.0048083365 0.07490208 0.029452838 -0.025025629 0.069937 0.04148271 -0.068724945 -0.01603192
-0.033573315 0.014708027 -0.016091846 0.009844534 -0.05453054 0.02213008 -0.002215363 -0.015269816
-0.032297067 0.085272096 -0.024549931 -0.08420608 -0.0596802 -0.009222455 0.031155273 -0.050747693
-0.00519605 -0.038835 -0.043963723 -0.016223483 0.018386371 -0.029283062 -0.013356693 0.03239005
-0.031743877 -0.04325354 0.07676426 0.025196232 0.06737884 -0.052848205 -0.08760436 -0.08256867
0.08437862 0.052440666 0.06041377 -0.05635119 0.018031128 0.043624632 0.018683761 0.055152453
0.05420392 0.07788003 0.02515661 0.07982477 -0.026853655 0.07213696 -0.045329176 0.025942214
0.027293466 -0.0019380897 -0.047471184 -0.08434973 0.011253074 0.044218667 -0.027805708 -0.016668238
0.00639531 0.029670298 0.06853268 0.026739053 -0.0038519502 0.0063005313 -0.06818296 -0.03719887
0.022794113 0.029960752 0.043682568 0.0140168 -0.08461316 -0.02533406 -0.07499853 -0.041598845
0.046056814 0.041801475 0.048838504 -0.021268427 -0.06628645 -0.06435405 -0.076360226 0.06891086
-0.0072193146 0.031541236 -0.032900557 -0.054172512 -0.043574445 -0.023069158 0.053262226 -0.001355812
-0.011129864 0.07013924 -0.0019356906 0.072715364 -0.019141436 0.02218341 0.022171363 -0.08048172
0.07035733 -0.0071387067 -0.077086456 -0.063007884 0.052289747 -0.050021797 0.062532745 0.0062868893
-0.07130568 0.052220784 -0.060413785 -0.022539146 0.077258624 -0.034997363 -0.052640274 0.003630817
-0.07848039 0.0009773821 0.012568243 0.022482686 0.04919664 -0.016228676 -0.076364376 0.07776173
0.015087426 0.0822167 -0.018091828 -0.063313946 -0.058333755 0.034716055 0.058347903 0.046320327
0.048930176 -0.019081123 0.024769291 0.021864928 -0.07985615 -0.0065308213 -0.020915426 0.05899047
0.03040792 -0.0074289367 -0.047503985 0.074535094 0.05721853 -0.07067076 0.08494028 -0.0068599656
-0.0855859 -0.01446522 0.0073799565 -0.02095887 0.056608297 0.03785891 -0.011342347 -0.04198749
0.055731498 -0.07406049 0.010379128 -0.002083011 -0.02610873 -0.05260561 -0.075968 -0.07293067
-0.0040474758 -0.028119933 0.036082096 -0.011840127 -0.0039490536 0.04712706 0.08162051 0.034611084
0.04414957 -0.07991667 -0.07981709 0.011306956 -0.006092064 0.017752051 -0.03209614 -0.010059863
0.08238905 0.082078196 0.0029615536 -0.08268777 0.07926621 0.06360064 0.0653924 -0.007469654
-0.07069807 0.013581231 -0.0074137226 0.02575574 -0.034594566 -0.030379068 -0.0014882237 -0.07601939
0.082710676 -0.07519959 -0.058851622 0.07524944 -0.064816825 0.060105108 -0.056236256 0.039314933
0.056645848 0.06362977 -0.07307577 -0.073402256 0.024321683 0.016805947 -0.06412548 0.052885227
-0.022048198 -0.018757604 0.048098497 0.018840797 0.0182499 -0.054176033 -0.02252648 -0.070499726
0.046661697 -0.031846885 0.0036724433 0.04831838 -0.047030054 0.024207339 -0.07367177 0.007635832
00000000: 8d33 87bd ec2e 9f3c 2414 5fbd d48d 86bc
00000010: d76c 803d c4b1 94bc ac09 be3c a07e 063b
00000020: 25e5 2fbd 8415 b53c 5280 203d b84a 4a3c
00000030: 2287 493d e864 6abd bdb6 53bd 423c a2bd
00000040: aadb 6d3d 44f1 89bd 7c25 29bd ecce a73c
00000050: 2deb 893d 4817 61bc c203 a9bd 7166 8c3d
00000060: 408f 9d3b 4366 993d 1447 f13c 8c02 cdbc
00000070: 213b 8f3d c6e9 293d aabf 8cbd 6055 83bc
00000080: 2c84 09bd f0f9 703c 0cd3 83bc f84a 213c
00000090: 6a5b 5fbd 244a b53c a02f 11bb 402e 7abc
000000a0: ee49 04bd 23a3 ae3d f01c c9bc 3d74 acbd
000000b0: 3a73 74bd c819 17bc 5839 ff3c d0dc 4fbd
000000c0: a043 aabb 7311 1fbd 4e13 34bd 1ce7 84bc
000000d0: 049f 963c 08e3 efbc 08d6 5abc 6eab 043d
000000e0: de05 02bd a02a 31bd 9536 9d3d 5468 ce3c
000000f0: ebfd 893d 5c77 58bd ea69 b3bd c319 a9bd
00000100: b3ce ac3d 06cc 563d 6e74 773d 81d0 66bd
00000110: 04b6 933c beaf 323d b00e 993c 8ae7 613d
00000120: ee04 5e3d 917f 9f3d 3c15 ce3c 2b7b a33d
00000130: 32fc dbbc 8bbc 933d 16ab 39bd c484 d43c
00000140: 8c96 df3c 8007 feba 2571 42bd 8dbf acbd
00000150: d05e 383c a21e 353d ccc8 e3bc d48b 88bc
00000160: c08f d13b 200f f33c dd5a 8c3d dc0b db3c
00000170: 0071 7cbb b074 ce3b 82a3 8bbd d85d 18bd
00000180: b8ba ba3c 4070 f53c 7eec 323d b8a6 653c
00000190: aa49 adbd 6089 cfbc d498 99bd 8d63 2abd
000001a0: 12a6 3c3d 0638 2b3d e20a 483d 203b aebc
000001b0: 31c1 87bd 0ecc 83bd c062 9cbd 2321 8d3d
000001c0: 0090 ecbb 6231 013d bcc2 06bd ffe3 5dbd
000001d0: 1e7b 32bd 88fb bcbc 7e29 5a3d 80b5 b1ba
000001e0: 085a 36bc 29a5 8f3d 00b7 fdba cbeb 943d
000001f0: 80ce 9cbc fcb9 b53c b8a0 b53c 9ad3 a4bd
00000200: 8117 903d d0eb e9bb 81df 9dbd 470a 81bd
00000210: c62d 563d a8e3 4cbd 2b11 803d 4002 ce3b
00000220: b608 92bd 76e5 553d 7274 77bd 04a4 b8bc
00000230: c539 9e3d 6559 0fbd 549d 57bd 00f3 6d3b
00000240: 54ba a0bd 801b 803a 08eb 4d3c 9c2d b83c
00000250: 6a82 493d 00f2 84bc ed64 9cbd 8b41 9f3d
00000260: 4031 773c 3b61 a83d 5035 94bc beaa 81bd
00000270: 60ef 6ebd 6c32 0e3d 36fe 6e3d 62ba 3d3d
00000280: 026b 483d 0450 9cbc f8e8 ca3c 141e b33c
00000290: 9f8b a3bd 8000 d6bb d456 abbc fe9f 713d
000002a0: 081a f93c 706e f3bb 8a93 42bd dba5 983d
000002b0: fa5d 6a3d d5bb 90bd 2bf5 ad3d 90c9 e0bb
000002c0: a947 afbd 88ff 6cbc 90d3 f13b f0b1 abbc
000002d0: 1ade 673d f211 1b3d 40d5 39bc 13fb 2bbd
000002e0: b646 643d 07ad 97bd 380d 2a3c 2083 08bb
000002f0: fae1 d5bc fb78 57bd 1c95 9bbd ad5c 95bd
00000300: b0a0 84bb c65b e6bc d2ca 133d 18fd 41bc
00000310: 1067 81bb 4e08 413d a728 a73d 5ac4 0d3d
00000320: 2ed6 343d 5aab a3bd 2477 a3bd d040 393c
00000330: f09f c7bb c06c 913c 3e77 03bd 20d2 24bc
00000340: 97bb a83d 9d18 a83d a016 423b 3558 a9bd
00000350: 5356 a23d 0d41 823d 73ec 853d 00c4 f4bb
00000360: 26ca 90bd d083 5e3c d0ee f2bb b4fd d23c
00000370: 08b3 0dbd 86dd f8bc 8010 c3ba 0eb0 9bbd
00000380: 3764 a93d 3e02 9abd 660e 71bd 611c 9a3d
00000390: afbe 84bd c630 763d fd57 66bd b208 213d
000003a0: 7a05 683d 5350 823d c0a8 95bd ec53 96bd
000003b0: 443e c73c a0ac 893c 3854 83bd 2e9e 583d
000003c0: 6c9e b4bc 8ca9 99bc ee02 453d 0458 9a3c
000003d0: d080 953c b0e7 5dbd 7489 b8bc 2962 90bd
000003e0: 5620 3f3d e171 02bd 60ad 703b 7ee9 453d
000003f0: 96a2 40bd 784e c63c 3ae1 96bd 0036 fa3b

fc2.bias f4 [2]
-0.023823157 0.012555733
00000000: c828 c3bc 90b6 4d3c
