IA/best_model.pth (torch, 6696 bytes, 4 tensors)

fc1.weight f4 [128, 6]
0	0x3c9d56e6	0.019206475
1	0xbe08495f	-0.13309239
2	0x3d38d160	0.04512155
3	0xbbec39d6	-0.007209043
4	0x3d37a51f	0.044835206
5	0x3d58095b	0.052743297
6	0x3d5b889b	0.053597074
7	0xbd484ccd	-0.048901368
8	0x3cbfa288	0.02339293
9	0xbc0e1f72	-0.008674489
10	0xbe368ad3	-0.17826395
11	0xbe034386	-0.12818727
12	0x3dedf027	0.11618071
13	0xbdd47534	-0.10373917
14	0x3e0ad5fa	0.13558188
15	0x3db7a426	0.08966856
16	0xbd0f94ea	-0.035054125
17	0xbdcb05dc	-0.09913227
18	0x3d3beeda	0.045882083
19	0x3d153641	0.036428694
20	0xbe1ac267	-0.15113221
21	0xbd001ea0	-0.031279206
22	0x3db1f494	0.08689228
23	0x3d6871da	0.056749202
24	0xbd87106a	-0.065949276
25	0x3de3cb2b	0.111227356
26	0x3d80da1c	0.06291601
27	0x3e438aa6	0.19095859
28	0xbd9fa8de	-0.07795881
29	0x3de186cd	0.11012039
30	0x3d874915	0.06605736
31	0x3d988084	0.074463874
32	0x3de821a0	0.113345385
33	0xbe19e1b2	-0.15027502
34	0xbd63e4e8	-0.055638224
35	0x3e859ac6	0.26094645
36	0x3d127036	0.035751544
37	0xbe06eac8	-0.131755
38	0x3d40a78d	0.04703479
39	0x3d254266	0.040346526
40	0x3c954e78	0.018225893
41	0x3db5d9f0	0.08879459
42	0xbc5e8d16	-0.013583442
43	0xbcd842fe	-0.026399132
44	0x3c2253fe	0.009907721
45	0xbd32825a	-0.043581344
46	0xbd8354a0	-0.06412625
47	0x3e8160f8	0.25269294
48	0x3de9bad4	0.11412588
49	0xbd4eb058	-0.050461143
50	0x3dfc7f27	0.1232894
51	0xbdf5668c	-0.1198245
52	0x3c4ff7cc	0.012693357
53	0xbcc491d0	-0.02399531
54	0xbdb084ac	-0.08619055
55	0x3e0e3a22	0.13889363
56	0xbde16ece	-0.110074624
57	0x3de2bea8	0.11071521
58	0x3d656da2	0.056012757
59	0x3d9f3a92	0.07774843
60	0xbd8c4cf0	-0.06850612
61	0x3d773710	0.060355246
62	0x3ce33f52	0.027740154
63	0x3c4d10d6	0.012516221
64	0xbddab5aa	-0.10679181
65	0xbe3bb59a	-0.18330994
66	0xbd8d741d	-0.069069125
67	0x3cfebc94	0.03109578
68	0x3cfd4100	0.030914783
69	0x3d7e5dad	0.062101055
70	0x3dd5f0cc	0.10446319
71	0xbd9a072f	-0.075209014
72	0xbdf4b5b9	-0.11948723
73	0xbe4aae46	-0.19793043
74	0xbe120ba4	-0.14262253
75	0x3e06703d	0.13128753
76	0x3d592efa	0.053023316
77	0x3c582983	0.013193491
78	0x3d2c88df	0.042122718
79	0x3df018c8	0.11723477
80	0x3db68dd0	0.08913767
81	0x3d33240a	0.04373554
82	0x3cda26b8	0.02662979
83	0xbde43817	-0.11143511
84	0x3cc8b865	0.024501989
85	0x3cd7bfa4	0.026336499
86	0x3d6032c7	0.054735925
87	0x3c01b4b8	0.007916622
88	0xbdbf7c2a	-0.09349854
89	0x3c4481fe	0.011993883
90	0x3d84b3d7	0.06479614
91	0xbc92941c	-0.01789289
92	0xbd0cffb9	-0.034423564
93	0x3dd72b84	0.10506347
94	0xbc5ce982	-0.013483407
95	0xbdaf844c	-0.085701555
96	0x3d7cfceb	0.06176464
97	0xbe10cd4a	-0.14140812
98	0xbd97b060	-0.07406688
99	0x3d805752	0.06266655
100	0x3da5ac9f	0.080895655
101	0xbd93ab6c	-0.072104305
102	0xbd025d70	-0.03182739
103	0xbcc80a14	-0.024418868
104	0xbd05a063	-0.03262366
105	0x3cee7501	0.029108526
106	0x3dd852fe	0.105627045
107	0xbd8b63a5	-0.06806115
108	0x3ba6d086	0.005090776
109	0xbe0b6674	-0.13613302
110	0xbbd4d4fc	-0.0064951163
111	0xbcb85aee	-0.022504296
112	0xbcd57044	-0.026054509
113	0xbdb4ce9d	-0.08828471
114	0x3e0df84d	0.1386425
115	0x3d589986	0.052880786
116	0x3de9167d	0.113812424
117	0xbd9f7d32	-0.07787551
118	0xbd35645e	-0.04428517
119	0x3d8056fe	0.062665924
120	0xbd5095ec	-0.050924227
121	0xbe217c54	-0.15770084
122	0xbda1ded0	-0.07903826
123	0xbcbb370c	-0.022853397
124	0xbe27f556	-0.16402182
125	0xbe22f85f	-0.15915059
126	0x3c58d810	0.013235107
127	0xbe5eb8c4	-0.2175017
128	0x3e03be81	0.1286564
129	0xbc46f05a	-0.012142265
130	0xbd0a390d	-0.033745814
131	0x3d71ec7d	0.059063423
132	0xbbcf2b7f	-0.006322324
133	0xbdea4638	-0.114391744
134	0xbdc8cea4	-0.098050386
135	0x3dc057bb	0.09391733
136	0xbe5a046b	-0.21290748
137	0x3d0978c8	0.03356245
138	0x3c0ea3b2	0.00870602
139	0xbe3bccb4	-0.18339807
140	0x3d461836	0.048362933
141	0xbd407434	-0.04698582
142	0xbe234c64	-0.1594711
143	0x3d475622	0.048666127
144	0xbd797302	-0.060900696
145	0xbda85d1c	-0.08220884
146	0xbd1cdf84	-0.0382991
147	0x3d0cd5fa	0.03438375
148	0xbd8723a5	-0.065985955
149	0xbb4c039e	-0.0031130086
150	0xbd823222	-0.06357218
151	0x3d953e28	0.07287246
152	0xbd5a85ab	-0.053350132
153	0x3d5c99cb	0.053857606
154	0xbdaa196e	-0.083056316
155	0xbd87614c	-0.06610355
156	0x3d93b64e	0.07212506
157	0xbd14307c	-0.03617905
158	0x3c888c25	0.016668389
159	0x3d734a64	0.059397116
160	0xbd06279e	-0.032752626
161	0xbc91d846	-0.017803323
162	0x3e1f1d34	0.15538484
163	0xbdcdf28d	-0.100560285
164	0xbd1b7ef0	-0.037962854
165	0x3da95eca	0.08270033
166	0xbca429cc	-0.020039462
167	0xbe1227d3	-0.14273004
168	0x3e4a4a14	0.19754821
169	0x3be90e23	0.007112281
170	0xbca72bed	-0.020406688
171	0x3e11924d	0.14215966
172	0xbe027fdc	-0.12744087
173	0x3b9e93c9	0.0048393947
174	0xbd276b30	-0.040873706
175	0x3c9ca1f6	0.019120198
176	0x3ca709c7	0.020390404
177	0xbe0661fa	-0.13123313
178	0x3d1f4e0c	0.03889279
179	0x3bb900c4	0.005645843
180	0xbd003547	-0.03130081
181	0x3e16dd80	0.14732933
182	0x3d2a91fe	0.041643135
183	0x3daad3e8	0.08341199
184	0xbd5aaeef	-0.053389486
185	0xbd82965d	-0.06376336
186	0x3ce3e042	0.027816895
187	0x3e0c192e	0.1368148
188	0xbdd2b836	-0.10289042
189	0x3bd6345c	0.0065370034
190	0x3dcac3e6	0.09900646
191	0xbd342798	-0.043983072
192	0x3dc2380e	0.09483348
193	0xbceed10d	-0.029152418
194	0x3d0105f4	0.031499818
195	0xbb9e63ca	-0.004833673
196	0x3d497d98	0.04919204
197	0xbe2cc65e	-0.16872546
198	0xbcc9606a	-0.024582107
199	0xbdaa095e	-0.08302568
200	0xbe0f11da	-0.13971654
201	0x3dbfddc3	0.093684696
202	0xbd95da59	-0.07317037
203	0xbd86c43b	-0.06580397
204	0x3d4d78e5	0.050164122
205	0x3e66eeef	0.22552083
206	0xbd3eaa85	-0.04654934
207	0x3d5dab3e	0.054118387
208	0x3b814eb5	0.00394615
209	0x3ca6c064	0.02035541
210	0xbc886e44	-0.016654141
211	0xbcec0642	-0.028811578
212	0x3bc67ba3	0.006057219
213	0xbcf4daeb	-0.029889544
214	0xbd8c6c2a	-0.06856568
215	0x3d796c0b	0.060894053
216	0xbe06580c	-0.13119525
217	0xbda1395a	-0.07872267
218	0xbd202c53	-0.03910477
219	0x3dec52fd	0.11539266
220	0x3d712a63	0.058878314
221	0x3e4f6108	0.20251858
222	0xbcf22dcd	-0.029562855
223	0xbd6b5b7e	-0.0574603
224	0x3b52200b	0.0032062556
225	0xbc833e08	-0.01602079
226	0x3c8fe45c	0.017564945
227	0xbd23edac	-0.040021583
228	0x3b8fdb30	0.004390143
229	0x3d9b4202	0.07580949
230	0x3cf39ee8	0.029738858
231	0xbd9fcc23	-0.07802608
232	0xbdf4e20c	-0.119571775
233	0x3d99f9e5	0.07518367
234	0x3dbf62e3	0.09345033
235	0x3def2112	0.116762295
236	0x3d1cd806	0.038291954
237	0x3e24783f	0.16061495
238	0x3d8c33e3	0.06845834
239	0xbe98c43e	-0.2983722
240	0xbb02883f	-0.0019917635
241	0xbdbcd2d0	-0.09219897
242	0xbda2e330	-0.07953489
243	0xbe51caba	-0.2048749
244	0x3e3487ec	0.17629975
245	0x3daf0e0b	0.085476
246	0xbdadd504	-0.08487895
247	0x3e28eec6	0.16497335
248	0x3d9bdbeb	0.076103054
249	0x3c322fa6	0.010875618
250	0x3c269842	0.010168137
251	0x3d776152	0.060395546
252	0xbcde3b2a	-0.027127821
253	0xbdf1c805	-0.11805729
254	0x3cbddb40	0.023175836
255	0x3e1b4efb	0.15166847

fc1.bias f4 [128]
0	0x3e9cd144	0.30628407
1	0x3eb4ff46	0.35351008
2	0x3df30390	0.11865914
3	0xbe76d5ae	-0.2410495
4	0xbea824cc	-0.32840574
5	0x3d0e2630	0.034704387
6	0x3c4db020	0.0125541985
7	0x3e880a94	0.2657057
8	0xbdc72c4c	-0.09725246
9	0xbec78640	-0.38969612
10	0xbe4d3ee2	-0.20043519
11	0xbe767270	-0.24067092
12	0xbe58abde	-0.21159312
13	0x3eb599ae	0.3546881
14	0x3d573810	0.0525437
15	0x3e32086c	0.17386025
16	0x3c59d820	0.013296157
17	0xbe1b763a	-0.15181819
18	0xbe602add	-0.21891351
19	0xbe590fc3	-0.21197419
20	0xbe8af957	-0.27143356
21	0x3d314e08	0.043287307
22	0x3e165424	0.14680535
23	0x3e9f18b2	0.3107353
24	0x3e3d5ce4	0.18492466
25	0xbec552f8	-0.38539863
26	0xbdc99634	-0.09843102
27	0xbc2d5ec0	-0.010581672
28	0xbe1d42e2	-0.15357545
29	0xbe5cef42	-0.21575645
30	0xbd3f26e0	-0.046667933
31	0x3e88702a	0.26648074
32	0x3e5e0d68	0.21684802
33	0x3e6f4748	0.23367035
34	0xbdceefc8	-0.101043284
35	0x3ca92fb0	0.020652622
36	0xbde6e824	-0.11274746
37	0x3e4be6a4	0.19912201
38	0xbe75abb9	-0.23991288
39	0x3eb4ae0a	0.3528903
40	0x3eba42d6	0.36379117
41	0xbc781be0	-0.015143365
42	0x3dbd6fc8	0.09249836
43	0xbe8dddbb	-0.2770823
44	0x3e8e9a4c	0.27852094
45	0x3d00aec8	0.031416684
46	0x3e1bb9a8	0.15207541
47	0xbd9c9ac0	-0.07646704
48	0x3d4f7480	0.050648212
49	0xbe42e053	-0.19030885
50	0xbe9c9b5b	-0.30587277
51	0xbe6492c1	-0.22321607
52	0x3d9e2868	0.07722551
53	0x3e00be68	0.12572634
54	0x3e0c37e4	0.13693196
55	0x3d3caa38	0.04606077
56	0xbea0caf3	-0.31404838
57	0xbe44442e	-0.19166633
58	0x3ec3aa70	0.3821597
59	0xbe1e1d38	-0.15440834
60	0x3e93ebf0	0.28890944
61	0xbe9505a3	-0.29105863
62	0x3d795210	0.060869277
63	0x3d76b070	0.060226858
64	0xbe194be0	-0.1497035
65	0xbd5510e0	-0.052018046
66	0xbd0c4b88	-0.03425172
67	0x3e5d9f8c	0.21642894
68	0xbec806d4	-0.3906771
69	0x3eb81eae	0.35960907
70	0x3e6dbe78	0.2321719
71	0x3e9b4e54	0.30333197
72	0x3ebc59dc	0.36787307
73	0x3cd8d120	0.026466906
74	0x3e5a875c	0.21340698
75	0x3ebbb0b4	0.3665825
76	0x3d831db0	0.06402147
77	0xbe97df37	-0.29662487
78	0xbe77f24b	-0.24213521
79	0xbd216e90	-0.03941208
80	0xbe984911	-0.29743245
81	0x3e514048	0.20434678
82	0xbe7ba808	-0.24575818
83	0xbecddcfa	-0.40207654
84	0x3e3e2224	0.18567711
85	0xbeca4396	-0.3950469
86	0x3e7e5688	0.24837697
87	0xbe922e2c	-0.2855085
88	0xbc4be980	-0.012445807
89	0xbd805e40	-0.06267977
90	0xbe6e9455	-0.23298772
91	0xbd4e6e78	-0.05039832
92	0x3e418ba0	0.18900919
93	0x3e369b38	0.17832649
94	0xbdde8ed4	-0.10867086
95	0x3ea31b72	0.31856877
96	0x3ece85b4	0.40336382
97	0xbe4eb814	-0.20187408
98	0x3da8d948	0.08244568
99	0xbe69423d	-0.22779174
100	0xbe910e2c	-0.28331125
101	0xbe8b2599	-0.27177122
102	0xbd8947b4	-0.067031294
103	0x3e5a3934	0.21310884
104	0x3e7727e4	0.24136311
105	0x3e3bdab0	0.18345141
106	0xbdca17f0	-0.09867847
107	0x3e5542c0	0.20826244
108	0x3e9655ea	0.29362422
109	0x3ed0cc46	0.40780848
110	0xbe9d3c4b	-0.30710062
111	0xbd4919a8	-0.049096733
112	0x3e700488	0.23439229
113	0xbe214bbe	-0.1575155
114	0x3ea22c24	0.31674302
115	0xbd524060	-0.051330924
116	0xbd0189d8	-0.0316256
117	0x3ea37afa	0.3192976
118	0x3e9addf2	0.30247456
119	0x3e6e1d28	0.2325331
120	0xbda0fee8	-0.078611195
121	0xbdef7720	-0.11692643
122	0x3d902528	0.07038337
123	0xbe3cc72c	-0.18435353
124	0x3e133640	0.14376163
125	0xbd8610c0	-0.065461636
126	0xbe47212d	-0.1944625
127	0xbeb0f3d3	-0.34561023

fc2.weight f4 [2, 128]
0	0xbc46a740	-0.012124836
1	0xbd3bf744	-0.045890108
2	0xbd51697d	-0.051125992
3	0xbc568ec8	-0.013095565
4	0xbdac299b	-0.08406373
5	0xbcbd4964	-0.023106284
6	0xbd470387	-0.04858735
7	0xbd1cb255	-0.03825601
8	0x3d5befd2	0.053695507
9	0x3d7b0146	0.06128051
10	0x3cd1ace0	0.025595129
11	0xbd9ec5c0	-0.077525616
12	0x3da685d7	0.08130997
13	0x3cb11208	0.021615043
14	0x3dab1637	0.083538465
15	0xbc5f61b8	-0.013634138
16	0x3cc435b0	0.023951381
17	0xbc1ab5e0	-0.009442776
18	0xbd28fc5f	-0.041256305
19	0x3cd0998c	0.025463842
20	0xbd6ebc85	-0.058285255
21	0xbda8b2fe	-0.08237265
22	0x3d9d5dc9	0.07683904
23	0xbd94a29e	-0.07257579
24	0x3d88af65	0.06674079
25	0x3d27b37a	0.040942647
26	0x3d3b3d76	0.04571291
27	0x3ce2b74c	0.027675293
28	0x3d9dbb23	0.07701709
29	0x3ce3adcc	0.027792834
30	0xbda9aab4	-0.08284512
31	0x3d2b8d2e	0.041882686
32	0x3d90616b	0.07049831
33	0xbd2ff842	-0.042961366
34	0xbdabd4ac	-0.08390173
35	0xbd7d1659	-0.06178889
36	0xbd85ab1a	-0.06526776
37	0xbc04c260	-0.008102983
38	0xbd7c59df	-0.061609145
39	0xbdb00d02	-0.08596231
40	0x3d833055	0.06405703
41	0xbd7f4781	-0.06232405
42	0x3c6b75b8	0.014371328
43	0x3bd1a8b0	0.006398283
44	0x3d35b6ee	0.04436391
45	0xbdafbdd8	-0.08581132
46	0x3d6d9f8a	0.058013476
47	0x3d143f46	0.036193155
48	0x3d3dc6ba	0.0463321
49	0x3cd9c610	0.026583701
50	0x3d07938e	0.033099703
51	0x3cbce4e4	0.023058362
52	0xbc0afa58	-0.008482538
53	0xbd1556cd	-0.036459733
54	0xbd95a78e	-0.07307349
55	0xbd35ac42	-0.04435373
56	0xbd4e397c	-0.05034779
57	0xbd79b48d	-0.060963202
58	0xbc2454c8	-0.010029979
59	0xbca42a80	-0.020039797
60	0x3d6697a2	0.056296952
61	0x3da73e79	0.081662126
62	0xbdb4b2f4	-0.08823195
63	0x3ce92260	0.028458774
64	0x3cde1cbc	0.027113311
65	0xbce0edfa	-0.027457226
66	0xbd6b12b2	-0.057390876
67	0x3cbeb3b8	0.023279056
68	0xbc164880	-0.009172559
69	0x3cf6bc24	0.03011901
70	0xbd1545d1	-0.036443535
71	0xbc3cda50	-0.011526659
72	0x3af8e600	0.0018989444
73	0xbd98e13d	-0.07464836
74	0xba8518c0	-0.0010154471
75	0xbd16c2dc	-0.036806926
76	0x3d95a179	0.07306189
77	0x3c4b3390	0.01240243
78	0x3d5ebffa	0.054382302
79	0xbd5e9830	-0.054344356
80	0xbda07315	-0.0783445
81	0xbd6ab392	-0.057300158
82	0x3d9e824f	0.07739698
83	0x3da7deb7	0.08196776
84	0xbc640b00	-0.013918638
85	0x3c8f8e80	0.017524004
86	0x3d99aaef	0.07503306
87	0xbd15327e	-0.036425106
88	0xba627c80	-0.0008639768
89	0x3c342ad0	0.010996535
90	0x3cca8a8c	0.024724267
91	0x3cd8f490	0.026483804
92	0x3bea1570	0.007143669
93	0xbd94d2cf	-0.07266771
94	0xbc5a8668	-0.013337709
95	0xbd28e53d	-0.041234244
96	0x3ca4e4f8	0.020128712
97	0x3d28858a	0.041142978
98	0xbd70fd08	-0.05883506
99	0xbcc9311c	-0.02455955
100	0xbc9d4a30	-0.019200414
101	0x3db056fb	0.0861034
102	0xbd9f5366	-0.07779579
103	0x3d9a658d	0.075389005
104	0xbd5f4001	-0.0545044
105	0x3bf44270	0.007454209
106	0xbdb26a79	-0.08711714
107	0xbd5e7e6f	-0.054319795
108	0xbd98541b	-0.07437917
109	0x3cbda5b4	0.023150302
110	0xbd0fea87	-0.035135772
111	0xbd9a3705	-0.075300254
112	0x3d5bf7ea	0.053703226
113	0x3d091c9e	0.033474557
114	0xbdab48b8	-0.083634794
115	0x3d860e61	0.06545711
116	0xbd32a10f	-0.04361063
117	0x3b4e5c80	0.003148824
118	0xbd903f2a	-0.070432976
119	0x3d4d58b6	0.05013343
120	0xbb969f90	-0.004596658
121	0xbc56a7e0	-0.013101548
122	0xbc282558	-0.01026281
123	0x3d65b052	0.056076355
124	0x3ce4f060	0.027946651
125	0x3daae387	0.08344179
126	0x3cc88ef0	0.02448222
127	0xbd6419fe	-0.05568885
128	0xbd823e7e	-0.06359576
129	0x3d532eba	0.051558234
130	0x3d6c7532	0.057728954
131	0xbc202b40	-0.009775937
132	0xbda42470	-0.080147624
133	0xbd9e51f9	-0.07730479
134	0x3d3b4732	0.045722194
135	0x3d51826a	0.051149763
136	0x3d59a9be	0.053140394
137	0x3da91ff5	0.082580484
138	0xbb803510	-0.0039125755
139	0xbc19b150	-0.0093806535
140	0xbd4a2fbe	-0.049361937
141	0xbd8a3c98	-0.067498386
142	0x3d686612	0.056737967
143	0xbd1a081e	-0.037605397
144	0xbcdb6c36	-0.026784997
145	0x3a8eb280	0.0010886937
146	0x3cb94da0	0.022620022
147	0xbd0cd927	-0.03438678
148	0xbd009d39	-0.03139994
149	0xbb54aa40	-0.003245011
150	0x3d4f40a2	0.050598748
151	0x3ccb85c0	0.02484405
152	0xbd9c4987	-0.07631212
153	0x3db36bd1	0.08760799
154	0xbbdc4670	-0.006722264
155	0x3d7db9de	0.061944835
156	0xbd8fac72	-0.07015313
157	0x3d7044aa	0.058659233
158	0xbd3c3b34	-0.045954898
159	0x3d863041	0.065521725
160	0x3d3b07b2	0.045661636
161	0xbd430110	-0.047608435
162	0x3c79c9e8	0.015245892
163	0xbd57b9fa	-0.052667595
164	0x3d660ada	0.056162693
165	0xbccf1404	-0.025278099
166	0x3d9a4fef	0.075347774
167	0xbd23f0e0	-0.04002464
168	0xbd1c0410	-0.03808981
169	0xbd806196	-0.06268613
170	0xbd8f611e	-0.070009455
171	0xbd91f0c5	-0.07126001
172	0xbd871d42	-0.06597377
173	0xbd230b08	-0.039805442
174	0x3cedc488	0.029024377
175	0x3da94d91	0.08266748
176	0x3c9f2b94	0.01942996
177	0x3cd452e0	0.025918424
178	0x3d9e9cdb	0.077447616
179	0xbd0511b5	-0.03248759
180	0xbc58f3b0	-0.013241693
181	0x3d261dce	0.040555768
182	0x3cd0f75c	0.025508575
183	0x3bcbedf0	0.0062234327
184	0x3cbb0ba4	0.0228327
185	0x3d6a0fe6	0.05714407
186	0xbd499523	-0.049214493
187	0xbb9dab50	-0.004811682
188	0x3d9d98c9	0.07695157
189	0xba831e00	-0.0010003448
190	0xbcff7e50	-0.03118816
191	0x3ce62698	0.028094575
192	0xbd4e91c4	-0.05043198
193	0xbd63a569	-0.05557767
194	0xbd9e7026	-0.07736234
195	0xbca88820	-0.020572722
196	0x3d1e6446	0.038669847
197	0xbd9fd405	-0.078041114
198	0xbda31f86	-0.07964997
199	0x3d1bd4ca	0.03804473
200	0x3d8c99d9	0.068652816
201	0xbd4e1fa2	-0.050323136
202	0x3d3a9b06	0.045557998
203	0xbd792ad8	-0.060831875
204	0x3ce84650	0.02835384
205	0xbd50cbd3	-0.050975632
206	0x3d67a60e	0.056554846
207	0xbd888974	-0.06666842
208	0xbd8ff348	-0.07028824
209	0xbc858d08	-0.0163026
210	0x3d915a4b	0.070973
211	0xbcb136e4	-0.02163262
212	0x3cbb81b8	0.022889003
213	0x3da263f7	0.07929223
214	0x3da5bf9b	0.080931865
215	0xbda36cc0	-0.07979727
216	0xbdae7313	-0.085180424
217	0x3bb09740	0.005389124
218	0x3d23809a	0.039917566
219	0x3d96d8cd	0.0736557
220	0x3d0f3e8c	0.03497176
221	0x3d2abaf6	0.041682206
222	0xbd2e15de	-0.042501323
223	0xbcfe52ec	-0.0310454
224	0x3c87c344	0.016572602
225	0xbce531d8	-0.027977869
226	0x3d96efbf	0.07369947
227	0x3da5f7ab	0.081038795
228	0xbca34c78	-0.019933924
229	0x3d4e5a2a	0.050378956
230	0xbd11a3a7	-0.03555646
231	0xbc95ac60	-0.018270671
232	0x3d48ecc6	0.04905393
233	0x3d519b7a	0.051173665
234	0x3d1d7a4a	0.038446702
235	0x3cf8cae0	0.030370176
236	0x3da2a469	0.07941515
237	0x3ce89390	0.028390676
238	0xbd3d0f9d	-0.046157468
239	0x3d1ebe4a	0.038755693
240	0xbd781961	-0.06057108
241	0xbbe471a0	-0.006971553
242	0x3cb62e40	0.02223885
243	0xbd6f4766	-0.0584177
244	0x3d0f0c62	0.03492392
245	0x3d7bae86	0.061445735
246	0x3d5b5e1e	0.053556554
247	0x3d784716	0.060614668
248	0x3d28493a	0.04108546
249	0x3d2b2e26	0.041792057
250	0x3cf543dc	0.029939584
251	0xbcec4c9c	-0.028845124
252	0xbceeb770	-0.029140204
253	0x3d5a260a	0.053258933
254	0x3c97ce74	0.018531062
255	0x3d6da15e	0.05801522

fc2.bias f4 [2]
0	0x3cea0a80	0.02856946
1	0xbd90d054	-0.070709854
