IA/best_model.pth (torch, 6696 bytes, 4 tensors)

fc1.weight f4 [128, 6]
0	0xbd082834	-0.033241466
1	0xbdb3e265	-0.08783416
2	0xbd2d8062	-0.042358764
3	0xbd8646e2	-0.065564886
4	0x3db56fb9	0.088592
5	0xbe1794ac	-0.14802808
6	0x3d471d44	0.048611894
7	0x3cbdc554	0.023165382
8	0xbcb5c0ce	-0.022186663
9	0x3da9118c	0.082553
10	0x3dbd1d2a	0.09234078
11	0x3ccaffc0	0.024780154
12	0x3c499ce6	0.012305474
13	0xbd20f3a0	-0.03929484
14	0x3d428f0a	0.047499694
15	0x3dca49a4	0.09877327
16	0x3d83adc6	0.06429629
17	0x3e14cd36	0.14531407
18	0xbc252730	-0.010080144
19	0xbdbf4ce6	-0.09340839
20	0xbe0dfd96	-0.13866267
21	0x3cd6cb1a	0.026219893
22	0xbdfb02d4	-0.12256399
23	0xbe24824e	-0.16065332
24	0xbd6ce8c8	-0.057839185
25	0x3e0a4714	0.13503677
26	0xbd952bbf	-0.072837345
27	0x3e48427f	0.19556616
28	0x3d5fdfee	0.054656915
29	0xbdd6e05c	-0.10492012
30	0x3ba09850	0.0049009696
31	0x3daeba03	0.08531573
32	0x3cb87e2c	0.022521101
33	0x3d2887d8	0.041145176
34	0xbd2cd044	-0.042190805
35	0xbdde2f48	-0.10848862
36	0xbda13812	-0.07872023
37	0x3e17358a	0.14766517
38	0xbe104db5	-0.14092143
39	0xbe06f27c	-0.13178438
40	0x3b876eb3	0.0041330694
41	0x3db02330	0.086004615
42	0xbdb86b6c	-0.09004864
43	0xbc468807	-0.012117392
44	0xbe15f6ed	-0.14644976
45	0xbdaebbb0	-0.08531892
46	0x3da068d1	0.07832492
47	0x3ce13c26	0.027494501
48	0x3e13a9d8	0.14420259
49	0xbd03e493	-0.032200407
50	0xbb3eff98	-0.0029144045
51	0x37cf99c0	2.4747918e-05
52	0x3d3c255b	0.045934062
53	0xbd3b7e19	-0.045774553
54	0x3d0bdf12	0.034148283
55	0x3bc4bb4c	0.006003773
56	0xbde0a2c6	-0.109685466
57	0xbdb5af3e	-0.088713154
58	0x3cc88f73	0.024482464
59	0xbe12d270	-0.14338088
60	0xbe2b1a0a	-0.16709152
61	0x3da3da36	0.08000605
62	0xbd35e0f2	-0.044403978
63	0xbc18b564	-0.009320591
64	0x3d839516	0.0642492
65	0x3c77447e	0.015092013
66	0x3d0fea08	0.0351353
67	0xbcd3fdf7	-0.025877936
68	0x3cd8cca2	0.026464764
69	0xbd73e2ae	-0.05954235
70	0x3da56448	0.08075768
71	0xbe270e81	-0.16314127
72	0x3ce4538b	0.027871868
73	0xbe17bcb5	-0.1481808
74	0xbd6cc900	-0.057808876
75	0x3da80396	0.08203809
76	0xbd1c76da	-0.038199283
77	0x3dc2013d	0.094728924
78	0xbd9abc5c	-0.07555458
79	0xbcc86478	-0.02446197
80	0x3d6955b0	0.056966484
81	0x3d728d5a	0.059216835
82	0x3cb12a64	0.021626659
83	0x3d8830ec	0.06649956
84	0xbd75c642	-0.060003527
85	0x3c5c9659	0.01346358
86	0x3c945fde	0.01811212
87	0xbe04b493	-0.12959509
88	0xbd74fe38	-0.059812754
89	0xbbf4f37e	-0.0074753156
90	0x3bfa966e	0.007647327
91	0xbd9cca66	-0.07655792
92	0xbd5b913e	-0.05360531
93	0x3d85457c	0.06507394
94	0x3b6611e8	0.0035105888
95	0xbd447ea3	-0.047972333
96	0xbdc3af0e	-0.095548734
97	0x3d9f2a23	0.07771709
98	0xbd86c766	-0.06581001
99	0xbd73386a	-0.059379973
100	0x3dbfb262	0.09360196
101	0x3d4e25ec	0.050329134
102	0x3d84b41e	0.06479667
103	0x3d9069e1	0.07051445
104	0xbe20d2a6	-0.15705356
105	0x3e3403f4	0.17579633
106	0x3d5ccc29	0.05390564
107	0xbdcaa247	-0.09894233
108	0x3cc21cec	0.023695432
109	0xbdd61d70	-0.104548335
110	0xbd6efdc4	-0.05834748
111	0xbdfba36a	-0.12287028
112	0xbc4af074	-0.01238643
113	0x3d7bec40	0.061504602
114	0x3db01805	0.08598331
115	0x3de5569c	0.1119816
116	0xbd8e93fe	-0.06961821
117	0x3d2fb78a	0.042899646
118	0x3bfa0032	0.007629418
119	0xbc901943	-0.01759017
120	0xbdb1b0cc	-0.086762995
121	0x3acb7a6f	0.0015524159
122	0xbe64678f	-0.2230513
123	0xbdf5c61d	-0.12000678
124	0xbc87463e	-0.016512986
125	0xbdb6f600	-0.089336395
126	0xbd100aee	-0.035166673
127	0xbd33e2f5	-0.043917615
128	0x3e5e0f78	0.21685588
129	0xbbe5ebe5	-0.007016646
130	0xbddbfe3b	-0.1074185
131	0x3d44f034	0.048080638
132	0xbe011da2	-0.1260896
133	0x3d549761	0.05190218
134	0xbbd02170	-0.0063516423
135	0xbc17b43c	-0.00925928
136	0x3d179fb4	0.03701754
137	0xbc3124a2	-0.010811957
138	0xbddec5d9	-0.1087758
139	0x3bd761f8	0.006572958
140	0x3d2bb63c	0.04192184
141	0x3cbc06ff	0.022952555
142	0xbca15009	-0.019691484
143	0xbd391224	-0.045183316
144	0xbcc0d235	-0.023537735
145	0x3dae7e12	0.0852014
146	0x3dc4ace0	0.09603286
147	0xbdd1e575	-0.102488436
148	0xbd23c5b0	-0.03998345
149	0xbdb756d6	-0.089521095
150	0xbadc8a5f	-0.0016825906
151	0xbc1ad2fc	-0.009449717
152	0x3dcb5a32	0.09929313
153	0x3d2fd44a	0.042927064
154	0x3ca61ff8	0.020278916
155	0xbdb9d6ea	-0.09074195
156	0x3b404257	0.0029336417
157	0x3d0009b4	0.031259254
158	0x3d52cb57	0.05146345
159	0x3d2b8d2d	0.041882683
160	0x3de46b96	0.11153333
161	0xbd34ac47	-0.04410961
162	0x3d35ef3a	0.044417597
163	0xbc81276f	-0.015765874
164	0xbd6eb3e2	-0.05827702
165	0xbd298566	-0.041386984
166	0x3d7ddd77	0.061978783
167	0x3dbb439d	0.091437556
168	0x3d94e40e	0.072700605
169	0x3dd9bf87	0.10632234
170	0x3c31af90	0.01084508
171	0xbdce4454	-0.10071626
172	0x3d36195e	0.044457786
173	0x3daeff44	0.08544782
174	0xbd9bee73	-0.0761384
175	0x3ddbf215	0.10739533
176	0xbc37bd36	-0.011214545
177	0x3dd55f7c	0.10418603
178	0x3e0e53dd	0.13899179
179	0xbc232a4b	-0.009958814
180	0x3cbc9722	0.023021284
181	0xbde237b0	-0.11045778
182	0xbd96a7c6	-0.07356219
183	0x3e421236	0.1895226
184	0x3bfb2ec2	0.007665486
185	0xbc8ecac8	-0.017430678
186	0x3d2e5d6a	0.042569555
187	0xbc4e1b90	-0.012579814
188	0x3ad8ddac	0.0016545556
189	0x3d011617	0.031515207
190	0x3d8a5eb3	0.06756344
191	0x3dc1fbed	0.09471879
192	0x3d7c74a1	0.061634663
193	0x3d3407f2	0.04395289
194	0x3c919395	0.017770568
195	0xbe4bf748	-0.19918549
196	0x3d6fec6f	0.05857509
197	0xbe07f278	-0.13276088
198	0xbb18c8dc	-0.002331308
199	0x3d2d0540	0.042241335
200	0xbcbe56d3	-0.02323476
201	0x3cbcdc77	0.023054345
202	0xbe017b1e	-0.12644622
203	0xbc06fe44	-0.008239333
204	0x3d4d8e49	0.05018452
205	0xbd508b4d	-0.050914098
206	0x3d87810a	0.06616409
207	0xbde8aa49	-0.11360604
208	0x3caa4906	0.020786773
209	0xbc92ba93	-0.017911231
210	0xbc3121e9	-0.0108113075
211	0xbb838a55	-0.004014293
212	0xbda34455	-0.07972018
213	0xbdbc3cce	-0.09191285
214	0xbc89e407	-0.016832365
215	0x3d919344	0.07108167
216	0xbdfcc0a6	-0.12341432
217	0x3d7e259c	0.062047586
218	0xbe2ef0d0	-0.1708405
219	0x3b94824d	0.0045321346
220	0x3d137d0c	0.036007926
221	0xbd8ba31e	-0.068182215
222	0x3bbc1010	0.0057392195
223	0xbe001b84	-0.12510496
224	0xbc67b62a	-0.014142552
225	0x3d9f056f	0.07764708
226	0x3d1b251a	0.03787718
227	0xbbf2efe4	-0.007413851
228	0xbdc5132d	-0.09622798
229	0xbd1e5620	-0.038656354
230	0xbddbe820	-0.10737634
231	0x3d1bf7a0	0.03807795
232	0xbdf29e1c	-0.11846563
233	0xbdc57d3a	-0.09643026
234	0x3da81ca0	0.08208585
235	0x3e1ec3df	0.15504406
236	0xbd50a8fd	-0.05094241
237	0x3d19669d	0.037451375
238	0xbd9d2450	-0.07672942
239	0x3d16bd52	0.036801644
240	0x3e3ae6e6	0.18252143
241	0xbdbd3b74	-0.092398554
242	0x3c491a13	0.012274283
243	0x3dbef10e	0.09323321
244	0x3dee78c0	0.11644125
245	0xbe1a3ea2	-0.15062955
246	0xbbadfa15	-0.005309353
247	0x3d093bac	0.033504173
248	0xbd002390	-0.031283915
249	0x3d0e90fc	0.034806237
250	0xbda1d263	-0.07901456
251	0x3e1e0971	0.15433289
252	0x3cb111b7	0.021614892
253	0x3c281c4c	0.010260653
254	0xbd3c2048	-0.045929223
255	0x3d27249c	0.040806398

fc1.bias f4 [128]
0	0x3eb5d36e	0.3551287
1	0x3d8a4f2c	0.06753382
2	0x3eb566bc	0.35429943
3	0x3ea984b6	0.33109063
4	0xbd98fd18	-0.07470149
5	0xbdfaa83c	-0.122391194
6	0xbdc50478	-0.09619993
7	0xbd98a300	-0.07452965
8	0x3e4e5430	0.20149302
9	0x3e242944	0.16031367
10	0xbe84b5cc	-0.2591995
11	0x3e6167f8	0.22012317
12	0xbe1dac22	-0.15397695
13	0x3ea906a8	0.3301289
14	0xbe929bb7	-0.28634426
15	0xbe2d21fa	-0.16907492
16	0xbe5c518f	-0.21515487
17	0x3e69c534	0.22829133
18	0xbea9fe94	-0.3320204
19	0xbb7d5800	-0.0038657188
20	0x3ea2e1b2	0.31812817
21	0xbe593b9f	-0.2121415
22	0xbe3ea2f6	-0.18616852
23	0x3ed06782	0.4070397
24	0x3e9df9c0	0.30854607
25	0xbed0e7d7	-0.4080188
26	0xbe9b689f	-0.30353257
27	0x3dff2788	0.12458712
28	0xbcabf100	-0.020988941
29	0xbe1309bc	-0.14359182
30	0xbd98efd4	-0.074676186
31	0x3ea15322	0.31508738
32	0x3e8b4272	0.2719913
33	0xbd41fb10	-0.047358572
34	0x3e4413b0	0.19148135
35	0x3e21adcc	0.15788954
36	0x3d9c500c	0.07632455
37	0xbe9b79d8	-0.30366397
38	0xbd663908	-0.056206733
39	0x3c8d50d0	0.017250448
40	0xbe3bf803	-0.18356328
41	0xbdb8b1d8	-0.09018296
42	0xbebb946c	-0.36636674
43	0xbe257309	-0.16157164
44	0x3d81c2e8	0.063360035
45	0xbe05fd88	-0.13084996
46	0xbbf4bf00	-0.007469058
47	0xbe89174a	-0.2677558
48	0x3ec99f6a	0.39379436
49	0x3ea872b0	0.329
50	0xbdad7f88	-0.0847159
51	0x3ea93678	0.3304937
52	0x3e5b62e8	0.21424448
53	0xbd41b1f0	-0.047288835
54	0xbe44ce03	-0.19219212
55	0xbe7d2fc9	-0.2472526
56	0x3dce0270	0.10059059
57	0x3eac67ea	0.3367303
58	0x3e56a0b4	0.20959741
59	0xbeb8078e	-0.35943264
60	0xbec35f15	-0.3815848
61	0xbec96967	-0.39338228
62	0x3e126ad4	0.14298564
63	0xbdaf4494	-0.08558002
64	0x3e20c8e4	0.15701634
65	0xbe63bd5e	-0.22240207
66	0x3eb84858	0.35992694
67	0xbd87d5a4	-0.066325456
68	0x3e5bd3d8	0.2146753
69	0x3eb74d8e	0.35801357
70	0xbe4ea683	-0.20180707
71	0xbe734594	-0.2375701
72	0xbe22e04d	-0.15905876
73	0xbe3a85b1	-0.18215062
74	0xbeb8bfde	-0.36083883
75	0xbe6c9d96	-0.2310699
76	0x3e5598d0	0.20859075
77	0xbe78a499	-0.24281539
78	0xbaa94f00	-0.0012917221
79	0xbea9dbfb	-0.33175644
80	0xbe398662	-0.18117669
81	0x3ea2790e	0.31732982
82	0x3e11b810	0.1423037
83	0x3eb223bc	0.34792888
84	0xbd3b9968	-0.045800596
85	0x3df1c888	0.118058264
86	0x3e02a9fc	0.12760156
87	0x3e9951f2	0.29945332
88	0x3e6c2148	0.23059571
89	0x3ec4d1e8	0.38441396
90	0x3ecc507c	0.39905155
91	0xbe8c5512	-0.27408653
92	0x3cc77190	0.024346143
93	0x3eb73978	0.35786033
94	0xbea665f1	-0.3249965
95	0x3dea2088	0.11431986
96	0xbccc5b90	-0.024946004
97	0xbe287b93	-0.1645339
98	0x3c4c6a20	0.012476474
99	0x3e391bac	0.18076962
100	0x3c2e3100	0.0106318
101	0x3eace314	0.33766997
102	0xbe289c1e	-0.16465804
103	0xbe1521fa	-0.14563742
104	0xbcc48bb0	-0.02399239
105	0xbd14b470	-0.03630489
106	0xbeaa72f2	-0.3329082
107	0xbe123c8a	-0.14280906
108	0xbe0352c6	-0.12824544
109	0xbdc5759c	-0.09641573
110	0x3e61a638	0.22036064
111	0x3e97468a	0.29546005
112	0xbc69cc00	-0.014269829
113	0x3e15284c	0.14566153
114	0xbe1ee076	-0.15515313
115	0x3c4ea020	0.012611419
116	0x3e2990bc	0.16559118
117	0xbe299a82	-0.16562846
118	0xbe83a4f4	-0.25711787
119	0x3e36cc94	0.17851478
120	0xbd3dc730	-0.046332538
121	0xbe58fec8	-0.21190941
122	0x3e74243c	0.23841947
123	0x3dc041d8	0.09387559
124	0xbebd1c4e	-0.36935657
125	0xbe61ad6d	-0.22038813
126	0x3e994f30	0.29943228
127	0x3ecd51d6	0.40101498

fc2.weight f4 [2, 128]
0	0xbd6c7665	-0.057730097
1	0x3d288e16	0.04115113
2	0x3c9be08c	0.01902797
3	0xbc8e6d14	-0.017385997
4	0xbd6ef9f9	-0.05834386
5	0xbb2d96e0	-0.0026487634
6	0xba8dda40	-0.001082249
7	0x3d917785	0.07102875
8	0xbdb1b8fd	-0.08677862
9	0xbdace4a1	-0.08442045
10	0xbc82a018	-0.01594548
11	0xbd4f225b	-0.050569873
12	0xbcb26938	-0.021778688
13	0xbd453e13	-0.0481549
14	0xbda54922	-0.080705896
15	0x3befb7c0	0.007315606
16	0x3cea35dc	0.028590135
17	0xbd8f3629	-0.06992752
18	0xbd58b5f1	-0.052907888
19	0xbd95a3a8	-0.073066056
20	0xbd8646d3	-0.065564774
21	0x3db2fefd	0.087400414
22	0x3d85dfdd	0.06536839
23	0xbd039f6b	-0.032134455
24	0x3d306556	0.04306539
25	0xbd68ed7c	-0.056867108
26	0x3d6c5826	0.057701252
27	0xbd601cf7	-0.054715123
28	0x3cb806f8	0.02246426
29	0xbd9e8e7a	-0.07742019
30	0x3d65e13a	0.056122996
31	0xbd236f52	-0.039901085
32	0xbcf4923e	-0.02985489
33	0xbd03ae47	-0.032148626
34	0x3d1a520a	0.037675895
35	0x3d7dd4ea	0.06197063
36	0xbd894873	-0.06703272
37	0xbd7c007d	-0.061523903
38	0xbd85f4b0	-0.06540811
39	0x3da2d7e1	0.07951332
40	0xbd8e4b8b	-0.069480024
41	0x3d365afa	0.044520356
42	0x3cec18b8	0.02882038
43	0x3d9dda4d	0.07707653
44	0x3d11ab98	0.035564035
45	0xbd81a8cd	-0.06331024
46	0xbc8508b0	-0.016239494
47	0xbcef0a9c	-0.029179864
48	0xbda79e90	-0.0818454
49	0x3d125024	0.03572096
50	0x3d91f785	0.07127289
51	0xbc0b8900	-0.00851655
52	0x3d755226	0.059892796
53	0x3cc5e450	0.02415672
54	0x3b2f1d60	0.002672039
55	0x3d534c2e	0.051586322
56	0xbd5a66de	-0.053320758
57	0x3cb1bc98	0.021696374
58	0xbd5cc552	-0.053899117
59	0x3d66955e	0.05629479
60	0x3d044972	0.032296605
61	0x3d9c32bb	0.076268636
62	0x3cbc94e0	0.023020208
63	0x3d6c13e2	0.05763615
64	0xbd17f3a8	-0.037097603
65	0xbc84cb60	-0.016210258
66	0xbcaee508	-0.021349445
67	0xbd9c190a	-0.07621963
68	0xbd069dcc	-0.03286533
69	0xbc47d258	-0.012196146
70	0x3d8b639f	0.068061106
71	0x3cc418e8	0.023937657
72	0x3d9bc201	0.07605363
73	0x3d0d8cc4	0.034558073
74	0x3d23a4b6	0.039952002
75	0xbce658ba	-0.02811848
76	0x3d887b63	0.06664159
77	0x3c4b5728	0.012410916
78	0x3d7bdcf2	0.061490007
79	0xbd893b87	-0.06700807
80	0xbd859cb4	-0.065240294
81	0xbd12e4bf	-0.03586268
82	0xbd495736	-0.049155436
83	0x3c0cd150	0.008594826
84	0x3d856363	0.06513097
85	0xbdab1742	-0.083540455
86	0x3d85489b	0.06507989
87	0xbd9b60d8	-0.07586831
88	0x3d65fbf6	0.05614849
89	0xbd310936	-0.043221675
90	0x3b7ba9e0	0.0038400814
91	0xbce89346	-0.028390538
92	0x3db4ad93	0.08822169
93	0xbcba490c	-0.02273991
94	0x3d90428d	0.070439436
95	0xbd45350c	-0.048146293
96	0xbcf6ffce	-0.030151274
97	0xbd92cdaa	-0.071681336
98	0xbda998a3	-0.08281066
99	0xbd4e3c92	-0.050350733
100	0x3d310e86	0.04322674
101	0xbc424bc8	-0.011858888
102	0x3dac92cd	0.084264375
103	0xbc48d4b8	-0.012257747
104	0xbce95752	-0.02848402
105	0x391eac00	0.00015132129
106	0xbb281c80	-0.0025651753
107	0x3d89c787	0.0672751
108	0x3d93e721	0.07221819
109	0x3d1a541e	0.037677877
110	0x3ba3a5c0	0.004994124
111	0x3d490e92	0.04908616
112	0x3d610b02	0.05494214
113	0xbda38366	-0.07984047
114	0x3d85dedb	0.06536647
115	0xbd927d9d	-0.07152865
116	0xbccd5ee0	-0.025069654
117	0x3c719c68	0.014746763
118	0x3d843d3b	0.06456991
119	0x3d94d1a3	0.072665475
120	0xbd2ab2b1	-0.04167432
121	0xbd4e6c06	-0.050395988
122	0xbd2070b7	-0.039169993
123	0x3d7d2efe	0.061812393
124	0x3c9effa8	0.019409016
125	0x3cd74590	0.026278287
126	0xbd19c114	-0.03753765
127	0x3d9c16fb	0.07621571
128	0x3d8f0dc9	0.06985051
129	0x3c95edf4	0.018301941
130	0x3ce546a4	0.027987786
131	0x3d8d5151	0.069002755
132	0x3cee9d24	0.029127665
133	0xbd17f3a5	-0.037097592
134	0xbda97c0b	-0.082756124
135	0x3d52e44e	0.05148726
136	0xbd15fc2c	-0.036617443
137	0x3cd685b0	0.026186794
138	0xbd39814d	-0.045289326
139	0xbd64b022	-0.055832036
140	0xbd8e1560	-0.06937671
141	0x3da17bbd	0.07884929
142	0x3da20789	0.079115935
143	0x3d88ae2b	0.06673845
144	0x3d544c8e	0.05183082
145	0xbd1d39b9	-0.038385127
146	0x3d90dcf3	0.07073393
147	0xbc628a70	-0.013826951
148	0x3d93271f	0.07185196
149	0xbd5491a8	-0.05189672
150	0x3d2d9262	0.04237593
151	0x3d6e9f06	0.058257125
152	0xbda64741	-0.08119059
153	0x3da7163f	0.0815854
154	0xbd8e376b	-0.06944164
155	0x3d1f9fda	0.038970806
156	0xbd536cd6	-0.051617466
157	0xbd204a72	-0.039133497
158	0x3cef78c4	0.02923239
159	0x3c0d18b0	0.008611843
160	0x3ce473a8	0.02788718
161	0x3d1b93e2	0.03798283
162	0x3ca97a38	0.020688161
163	0xbcb01a58	-0.021496937
164	0x3d0a2020	0.033722043
165	0x3d3ecb12	0.04658038
166	0xbc8cd8fc	-0.01719331
167	0x3d29d6ce	0.04146462
168	0x3d898cb5	0.06716291
169	0xbd38c5ff	-0.0451107
170	0x3d0c2e76	0.034223996
171	0x3d4490c6	0.04798963
172	0x3d21c37e	0.039493077
173	0xbd5dbd1e	-0.054135434
174	0x3c9bdfa0	0.019027531
175	0xbcd419cc	-0.025891207
176	0x3d5216e2	0.051291354
177	0x3d89c06b	0.06726154
178	0x3d912a9b	0.070882045
179	0xbda6183a	-0.081100896
180	0xbd5ac056	-0.053406082
181	0x3d41e866	0.047340773
182	0xbda5d4e2	-0.08097245
183	0xbd5d129e	-0.053972833
184	0x3bcca1c0	0.006244868
185	0x3b9daa90	0.0048115924
186	0xbc861c7c	-0.016371004
187	0x3d2728f6	0.040810548
188	0xbd819704	-0.06327632
189	0x3d9663e9	0.07343275
190	0x3db138cd	0.08653412
191	0xbd0981d2	-0.033571072
192	0xbd709ce6	-0.05874338
193	0x3bb9c460	0.0056691617
194	0xbc95f014	-0.018302955
195	0xbcc9a960	-0.024616897
196	0x3c2d3198	0.010570906
197	0x3c829c80	0.015943766
198	0xbd74fb2e	-0.059809856
199	0xbd5bcd94	-0.05366285
200	0xbd8c669d	-0.068555094
201	0x3d883e3b	0.066524945
202	0xbd4edf3d	-0.050505865
203	0x3d854a1d	0.065082766
204	0x3d174bae	0.03693741
205	0x3d02a0b4	0.03189154
206	0x3d86e781	0.065871246
207	0xbd675533	-0.056477737
208	0x3b4ae9e0	0.0030962154
209	0x3d77a29e	0.06045782
210	0xbd474498	-0.0486494
211	0xbcd0b47c	-0.025476687
212	0x3d43b7d6	0.04778274
213	0x3d806da9	0.06270916
214	0xbbe3e2d0	-0.0069545284
215	0xbd948c7c	-0.07253358
216	0x3d796026	0.06088271
217	0xbd4f9e55	-0.050688107
218	0x3d8feb01	0.07027245
219	0xbc6ef370	-0.014584407
220	0x3d4ae07a	0.049530484
221	0x3d1a865e	0.0377258
222	0x3d8edce7	0.069757275
223	0xbcd2ff18	-0.025756404
224	0xbd323eb7	-0.04351684
225	0x3c1aaad0	0.009440139
226	0xbd0216e2	-0.031760104
227	0x3dae8987	0.08522325
228	0x3ccfd88c	0.025371812
229	0xbce7d7a0	-0.02830106
230	0xbcd96c00	-0.026540756
231	0x3cbbfdac	0.022948109
232	0x3daf2d87	0.085536055
233	0xbc523960	-0.012831062
234	0xbd9ad954	-0.07560983
235	0x3d808d69	0.06276972
236	0xbd203875	-0.03911634
237	0xbda60c2d	-0.08107791
238	0xbd5017ca	-0.050803937
239	0xbd9ae0f8	-0.07562441
240	0x3d9cd5ef	0.07657992
241	0x3d8ab797	0.06773298
242	0xbce54828	-0.027988508
243	0xbd4403b3	-0.04785509
244	0xbd96ffd3	-0.07373013
245	0x3b36cf80	0.0027894676
246	0xbc32e740	-0.010919392
247	0x3c667998	0.014067076
248	0xbda745d0	-0.081676126
249	0xbc3481e0	-0.011017293
250	0x3da3c7cb	0.07997092
251	0x3da72d6f	0.08162963
252	0xbdb1a0ee	-0.08673273
253	0xbd7288de	-0.059212558
254	0x3cd27924	0.02569253
255	0xbcdeb9e8	-0.027188256

fc2.bias f4 [2]
0	0xbd126fa7	-0.03575101
1	0xbd0107e0	-0.03150165
