IA/best_model.pth (torch, 6696 bytes, 4 tensors)

fc1.weight f4 [128, 6]
0.07497631 -0.035332017 -0.14956857 -0.08274577 -0.08316926 -0.14942765 0.10153815 -0.105623275
0.13803668 -0.13906705 0.14071633 0.0032492122 -0.05762366 0.012128452 -0.017774232 0.07373305
-0.048359953 0.005920059 0.059334014 0.03470102 0.034556467 -0.042703677 -0.0037952908 -0.072276145
0.023484264 -0.043841377 0.041587144 0.026218843 0.13507739 -0.22334903 -0.028429743 0.077309325
0.062132463 0.15581346 0.03405211 -0.09040876 -0.18750614 0.10851098 0.085279435 0.11801775
-0.057775475 0.029966272 -0.016585734 -0.16400622 0.10066144 0.10958219 -0.120574206 0.09123146
0.02135196 0.010184997 0.08716315 -0.09295471 -0.0049750004 0.009502734 -0.10374375 0.06545665
-0.14852257 0.011819925 -0.029728362 -0.23597762 0.17411816 0.008348417 0.07177691 0.071718276
0.0048725945 -0.10365092 0.10971077 -0.1619604 0.15003261 -0.06635843 -0.019804139 0.13335769
-0.011242183 -0.15577063 -0.04370708 -0.13573426 -0.10478884 -0.16860004 0.025002297 0.013326537
0.20033784 0.06268343 0.05843372 0.09717227 0.18420285 0.16945368 0.11379548 0.04773768
-0.08127314 -0.018125197 -0.022500303 -0.025582213 0.085350096 0.15135498 0.14050326 -0.061281383
0.03406028 0.10625301 -0.039437495 -0.04712984 -0.041856606 -0.011561446 -0.226055 0.008775316
-0.18302196 0.21752799 0.074069686 0.059242006 -0.013836246 -0.02823663 -0.011883769 0.102894045
0.013940059 -0.03551937 0.064505 -0.037456404 0.036364786 -0.029230598 0.13335314 0.020629313
0.04999274 0.07198721 0.032952875 0.1437194 0.22397971 0.15101725 0.054595336 0.18188761
0.05016929 -0.01236281 -0.08555572 0.08997532 0.08633008 0.18068194 0.16769882 -0.009902093
0.21581638 -0.15151809 0.024964146 0.0187779 -0.07610886 0.13021192 -0.081920475 -0.073157236
0.011726452 -0.13564067 -0.004003425 0.03513229 -0.061905615 -0.108385324 0.038089875 0.024637714
0.06578328 0.02946534 -0.008287419 -0.077447765 0.17551237 -0.1856859 0.017784435 0.11037092
-4.5331457e-05 0.019585049 -0.028269554 -0.080143645 0.15992427 -0.12420007 0.08125873 -0.1712442
-0.057738375 0.094157174 0.04368493 0.062049363 -0.08214766 -0.005696104 -0.057648834 0.12438081
0.0074061826 0.12131834 0.030504908 -0.19810416 0.024211869 -0.012073792 -0.05094419 -0.024020802
0.10170184 0.03546313 -0.08076581 0.080033645 0.0152143985 0.06817646 -0.08002782 0.20615655
-0.07626809 0.08216469 -0.038511068 0.046776824 0.102013275 -0.03372544 0.09588532 0.03767085
-0.023060288 0.10938138 0.06297067 -0.014916466 -0.022002116 -0.290775 0.023386173 0.1299822
0.03268432 -0.016001943 -0.09946205 0.08450891 -0.035778727 0.0339319 0.0811771 -0.17039216
0.05767772 0.06569357 -0.032407664 -0.06890948 0.16386959 -0.08113029 0.15468943 -0.05179566
-0.08645199 0.15548581 -0.104724124 0.12485431 -0.06937851 0.018691462 0.1612144 0.13031772
-0.017342728 -0.07825894 0.059630923 -0.018741474 -0.11027329 -0.24094719 0.055598654 0.08091821
0.13920134 0.085414365 0.1184386 0.020316143 -0.05885399 -0.18476917 -0.020944323 0.17922336
0.026201308 -0.07039409 0.019530423 0.001641744 0.095869556 -0.093306184 0.24572977 -0.042383906
00000000: 2e8d 993d 4eb8 10bd 8128 19be 9d76 a9bd
00000010: a554 aabd 9003 19be 3cf3 cf3d 0451 d8bd
00000020: 7d59 0d3e 9867 0ebe f117 103e bcf0 543b
00000030: c906 6cbd 6ab6 463c 449b 91bc 5a01 973d
00000040: 1615 46bd 0efd c13b 3908 733d a822 0e3d
00000050: 158b 0d3d 0dea 2ebd 6aba 78bb 8405 94bd
00000060: 1262 c03c 0493 33bd 4857 2a3d e6c8 d63c
00000070: ba51 0a3e 9cb5 64be 7ee5 e8bc 5a54 9e3d
00000080: 9c7e 7e3d 908d 1f3e 3a7a 0b3d 3a28 b9bd
00000090: 9c01 40be 013b de3d fca6 ae3d 4ab3 f13d
000000a0: faa5 6cbd d47b f53c cede 87bc 3ff1 27be
000000b0: 9627 ce3d a16c e03d 9cef f6bd 8fd7 ba3d
000000c0: 4eea ae3c f9de 263c 9882 b23d 0a5f bebd
000000d0: 5405 a3bb 5bb1 1b3c 9a77 d4bd 230e 863d
000000e0: 4d16 18be 5ca8 413c e588 f3bc 1ea4 71be
000000f0: 084c 323e ccc7 083c c6ff 923d 08e1 923d
00000100: 49aa 9f3b ef46 d4bd 0ab0 e03d f2d8 25be
00000110: 26a2 193e eee6 87bd 4a3c a2bc eb8e 083e
00000120: 2231 38bc 5682 1fbe 3206 33bd ecfd 0abe
00000130: 889b d6bd 7da5 2cbe 9ed1 cc3c 8c57 5a3c
00000140: 5d25 4d3e 2c60 803d 3258 6f3d 4102 c73d
00000150: ac9f 3c3e 4485 2d3e 9b0d e93d 9688 433d
00000160: 8872 a6bd 4b7b 94bc 8e52 b8bc ca91 d1bc
00000170: 08cc ae3d cdfc 1a3e 16e0 0f3e 3002 7bbd
00000180: cb82 0b3d 2e9b d93d 3689 21bd 380b 41bd
00000190: d571 2bbd 386c 3dbc f67a 67be 58c6 0f3c
000001a0: 1c6a 3bbe a8bf 5e3e d9b1 973d bfa7 723d
000001b0: 6cb1 62bc 8150 e7bc 24b4 42bc 1dba d23d
000001c0: d864 643c c27c 11bd 331b 843d e36b 19bd
000001d0: 3ef3 143d 0275 efbc ba8d 083e cefe a83c
000001e0: 30c5 4c3d 086e 933d 98f9 063d 2e2b 133e
000001f0: f05a 653e 44a4 1a3e 5c9f 5f3d bf40 3a3e
00000200: 507e 4d3d 628d 4abc d637 afbd fb44 b83d
00000210: d3cd b03d b004 393e 3db9 2b3e 633c 22bc
00000220: f8fe 5c3e 8f27 1bbe 9c81 cc3c 1cd4 993c
00000230: f6de 9bbd 4656 053e ecc5 a7bd 76d3 95bd
00000240: 4e20 403c 63e5 0abe 2a2f 83bb e0e6 0f3d
00000250: be90 7dbd 20f9 ddbd 2104 1c3d 08d5 c93c
00000260: 62b9 863d 4c61 f13c f4c7 07bc ef9c 9ebd
00000270: 84b9 333e 7224 3ebe aab0 913c 260a e23d
00000280: 4822 3eb8 d370 a03c 8d95 e7bc 5a22 a4bd
00000290: 30c3 233e 9b5c febd fa6a a63d a45a 2fbe
000002a0: 137f 6cbd 7ad5 c03d f8ee 323d 7927 7e3d
000002b0: 083d a8bd 62a6 babb 2f21 6cbd 5ebb fe3d
000002c0: 90af f23b c075 f83d 6ee5 f93c d1db 4abe
000002d0: f857 c63c 27d1 45bc dbaa 50bd 46c7 c4bc
000002e0: 0e49 d03d c941 113d 8c68 a5bd aee8 a33d
000002f0: d045 793c 1aa0 8b3d a0e5 a3bd b41a 533e
00000300: 7232 9cbd f645 a83d c8bd 1dbd 0e99 3f3d
00000310: 56ec d03d b023 0abd 865f c43d c04c 1a3d
00000320: eee8 bcbc 5803 e03d c4f6 803d 3164 74bc
00000330: c83d b4bc 76e0 94be 5c94 bf3c 0e1a 053e
00000340: fedf 053d 8216 83bc c2b2 cbbd 0213 ad3d
00000350: b78c 12bd 2dfc 0a3d 2e40 a63d 487b 2ebe
00000360: 793f 6c3d 5a8a 863d e6bd 04bd 6a20 8dbd
00000370: 6ecd 273e a327 a6bd e866 1e3e b027 54bd
00000380: be0d b1bd ac37 1f3e 9a79 d6bd 9eb3 ff3d
00000390: 5216 8ebd d61e 993c 6315 253e 0272 053e
000003a0: 5612 8ebc 3946 a0bd 8e3f 743d b887 99bc
000003b0: f6d6 e1bd dcba 76be 6abb 633d 72b8 a53d
000003c0: cc8a 0e3e baed ae3d f08f f23d 0a6e a63c
000003d0: e210 71bd 2134 3dbe 6e93 abbc 5486 373e
000003e0: 20a4 d63c c72a 90bd 44fe 9f3c ca2f d73a
000003f0: 4257 c43d 5017 bfbd 96a0 7b3e bf9a 2dbd

fc1.bias f4 [128]
0.24768169 -0.008116677 -0.3291702 0.20751405 -0.25764024 -0.3808593 0.17792341 -0.29083976
-0.40656796 0.079691105 -0.03992323 0.24750221 0.1207425 -0.20976034 -0.4503933 -0.29938114
0.4105628 0.037148066 -0.23489386 0.23965888 -0.11543247 0.12738001 -0.18411583 -0.35380253
0.19804078 -0.111045 0.27095324 0.09987439 0.3900411 0.4658821 0.44656175 0.24587327
-0.19254453 -0.2283988 0.050183117 0.17055094 0.0031616092 0.43804318 0.19149171 0.18807371
0.20415516 -0.13792752 -0.15685141 0.26932314 -0.05502128 -0.39336115 0.15773001 0.47424185
0.20648354 -0.04988527 -0.27311128 0.1422004 0.10318698 0.19850779 -0.077986136 -0.089844815
0.09994748 0.21312322 -0.20203957 -0.21668763 0.40084535 -0.13144547 0.017562687 0.17588446
-0.33861047 -0.15206626 0.602931 -0.29559737 0.31913698 -0.31496254 -0.20757201 -0.102043666
0.12872332 0.18773851 -0.2471323 -0.27799508 -0.31757057 -0.3516704 0.2833513 -0.27414557
0.047112092 0.08920707 0.17240381 -0.25272855 0.005522087 0.13467766 -0.17018978 -0.4028647
0.47987196 -0.09477234 -0.27717564 0.06318072 0.4898381 -0.100572236 -0.3349411 0.26834062
0.34485734 -0.06166033 0.2126271 0.016446639 -0.37671068 -0.45213145 0.14554715 0.382407
-0.11886713 0.346757 -0.3262078 0.035902463 0.17468323 -0.14042158 -0.3157105 0.2406533
0.29547575 -0.25903443 -0.43489325 -0.088974856 -0.34190196 0.11818675 -0.061630383 -0.022604514
-0.16267054 -0.3153608 -0.28301278 -0.310814 -0.27159858 -0.112773955 0.15850866 0.2657957
00000000: 45a0 7d3e d0fb 04bc ff88 a8be 907e 543e
00000010: 6ce9 83be fdff c2be 8e31 363e f3e8 94be
00000020: ad29 d0be 1735 a33d 8a86 23bd 3871 7d3e
00000030: d847 f73d 6acb 56be f399 e6be 7c48 99be
00000040: 4a35 d23e 9228 183d 0488 70be 2369 753e
00000050: dc67 ecbd e86f 023e dc88 3cbe 9b25 b5be
00000060: 34cb 4a3e 906b e3bd 62ba 8a3e f28a cc3d
00000070: 78b3 c73e 1988 ee3e bea3 e43e 34c6 7b3e
00000080: 652a 45be 60e1 69be d08c 4d3d e8a4 2e3e
00000090: 0033 4f3b 3247 e03e 6716 443e 6596 403e
000000a0: 0d0e 513e df3c 0dbe a89d 20be b9e4 893e
000000b0: fe5d 61bd a266 c9be fa83 213e d4cf f23e
000000c0: 6c70 533e 7f54 4cbd 3ed5 8bbe fb9c 113e
000000d0: b253 d33d a045 4b3e 32b7 9fbd 8f00 b8bd
000000e0: 44b1 cc3d f93c 5a3e 76e3 4ebe 5de3 5dbe
000000f0: 9a3b cd3e a499 06be a0df 8f3c 0e1b 343e
00000100: 5a5e adbe 42b7 1bbe b059 1a3f 8a58 97be
00000110: ec65 a33e c542 a1be c28d 54be 45fc d0bd
00000120: 0cd0 033e 863e 403e 4010 7dbe 5f55 8ebe
00000130: 9c98 a2be 250e b4be 6c13 913e cf5c 8cbe
00000140: 9cf8 403d 32b2 b63d a08a 303e a365 81be
00000150: a0f2 b43b f1e8 093e 3b46 2ebe 4844 cebe
00000160: c7b1 f53e 0018 c2bd f7e9 8dbe e564 813d
00000170: 0fcc fa3e d1f8 cdbd 667d abbe f163 893e
00000180: 2491 b03e 8b8f 7cbd ebba 593e 1abb 863c
00000190: 39e0 c0be c67d e7be 500a 153e daca c33e
000001a0: 9c70 f3bd 228a b13e b504 a7be 760e 133d
000001b0: 29e0 323e adca 0fbe cfa4 a1be d26d 763e
000001c0: 9948 973e 29a0 84be 54aa debe 7338 b6bd
000001d0: c60d afbe e50b f23d 2470 7cbd 1a2d b9bc
000001e0: 1b93 26be f976 a1be 0de7 90be 0323 9fbe
000001f0: f80e 8bbe 08f6 e6bd 1850 223e 6016 883e

fc2.weight f4 [2, 128]
-0.08766687 0.074637 -0.038323317 -0.010379575 -0.044008296 -0.060183875 -0.021747373 -0.04321644
-0.0030256286 0.056187294 -0.039394133 -0.020262726 -0.001016058 -0.045608062 -0.08068857 0.043363906
-0.07082006 0.033251062 0.025843456 -0.026109215 -0.05364222 -0.08086772 -0.025340214 0.0058716983
0.00075609237 0.029030189 0.042166807 0.069537796 0.026154734 -0.015193455 0.06953708 0.042706586
-0.023204498 0.052543245 0.025519207 -0.032049518 0.0074094757 0.056325115 0.046304338 -0.0871073
0.023043178 -0.031524252 -0.031885248 -0.029250652 0.01739192 0.05152356 0.023998037 -0.03342674
-0.00081931055 -0.06595157 0.08050423 -0.03654805 0.071822055 -0.008132845 0.001586102 0.030751467
-0.0134403035 -0.02247642 -0.043352425 -0.032952227 0.08095793 -0.05800956 0.07131071 -0.053618375
0.048357286 0.0030679926 -0.048766337 -0.07273429 -0.055103704 -0.027137544 0.086243086 -0.08631992
-0.0032126755 -0.0810785 0.035290577 0.03657735 -0.05791398 0.044420682 -0.0026280433 0.041703917
0.06397603 0.033638053 -0.021593213 0.07820734 -0.08278179 -0.009412795 0.002136223 -0.08816935
0.008477151 -0.07484395 0.07437449 -0.027172063 -0.009771429 0.04368148 0.064121254 -0.055529103
-0.03865786 -0.08074627 0.04515805 -0.041052062 0.023442626 -0.05581245 0.03855849 -0.0043011084
-0.0016648397 -0.051097468 0.034642264 -0.07524856 0.029245257 -0.045998584 -0.06741355 0.058105253
0.027896643 0.028382488 0.065629445 0.028454535 0.062818535 -0.011937402 -0.08816979 0.037523024
0.08775949 0.04125061 0.05197244 -0.05059491 0.06591994 0.022234716 0.0152989775 -0.07231279
-0.004054241 0.00975924 0.021715097 0.03098809 -0.024947517 -0.0238154 0.042877056 0.031339288
0.009249203 -0.0104808435 -0.016060613 -0.077556774 0.056639336 0.076980434 0.023102924 0.07165543
0.04450307 0.010410808 0.084678166 -0.030003972 0.007889591 0.009573512 0.051435895 0.058051206
-0.053162336 0.045681648 -0.008798756 0.08400532 -0.025523186 -0.03146829 -0.0621446 0.045166336
-0.020380005 -0.025858082 -0.008913405 -0.001364775 0.036444686 0.020088851 -0.085368894 0.056709923
-0.019073114 0.06068977 -0.0035147443 -0.033213034 -0.05745627 0.014064632 0.08714662 -0.043483093
0.0675379 0.01879292 -0.08040925 -0.06943445 -0.03626514 0.07492178 0.07077115 0.0736781
-0.08837425 0.03897754 -0.072879046 -0.021045312 0.06546784 -0.06715883 0.011803716 -0.050988454
-0.033410743 -0.08587488 -0.031648375 0.077964045 -0.019975074 0.015665129 0.033841833 0.07391588
-0.08025047 0.030220248 0.040818937 -0.06800223 -0.05062615 0.003426358 0.040349208 -0.014318742
-0.0795839 -0.0053108633 0.03465546 -0.015460253 0.04501777 0.0043857694 0.050402142 0.08806654
0.057299055 0.029490992 -0.04574211 0.058767684 0.07809285 -0.009907089 0.01395563 0.05295176
-0.06298086 -0.07015151 0.032977857 0.053060733 0.049601413 -0.03017199 0.072159044 -0.04106596
0.08473215 0.068676256 0.008322962 0.06596189 0.031769387 -0.010201648 0.026754081 -0.03556785
0.06997856 0.076020055 0.037833385 -0.007115245 -0.07135056 0.01970204 0.0563161 -0.014036067
-0.0061834827 -0.07785115 -0.025290795 0.052841417 -0.039379507 -0.045532484 0.04290498 0.026512593
00000000: b08a b3bd 49db 983d e9f8 1cbd 180f 2abc
00000010: 0b42 34bd 5e83 76bd 8c27 b2bc b903 31bd
00000020: a049 46bb a624 663d be5b 21bd 04fe a5bc
00000030: 402d 85ba 85cf 3abd 0d40 a5bd 5a9e 313d
00000040: 1c0a 91bd 4432 083d a8b5 d33c fee2 d5bc
00000050: f2b7 5bbd fa9d a5bd 4896 cfbc 6067 c03b
00000060: 8034 463a b8d0 ed3c 1ab7 2c3d d569 8e3d
00000070: 7442 d63c f8ed 78bc 7569 8e3d 1aed 2e3d
00000080: 5c17 bebc 9637 573d a80d d13c 5b46 03bd
00000090: 30cb f23b 2ab5 663d 9ea9 3d3d 5065 b2bd
000000a0: 0cc5 bc3c 931f 01bd 1b9a 02bd 109f efbc
000000b0: 8079 8e3c 5e0a 533d 8897 c43c 7aea 08bd
000000c0: 00c7 56ba 9e11 87bd 67df a43d 68b3 15bd
000000d0: 7117 933d a03f 05bc c0e4 cf3a 80ea fb3c
000000e0: b834 5cbc 7820 b8bc 5092 31bd eaf8 06bd
000000f0: 45cd a53d 6f9b 6dbd 590b 923d f19e 5bbd
00000100: 4a12 463d 6010 493b 36bf 47bd b7f5 94bd
00000110: 6cb4 61bd 8e4f debc 37a0 b03d 80c8 b0bd
00000120: c08b 52bb 7c0c a6bd da8c 103d 22d2 153d
00000130: 3637 6dbd 76f2 353d 403b 2cbb bad1 2a3d
00000140: dd05 833d 0ec8 093d 40e4 b0bc 2b2b a03d
00000150: 8089 a9bd 2038 1abc e0ff 0b3b 2292 b4bd
00000160: c0e3 0a3c c947 99bd a751 983d f297 debc
00000170: 5818 20bc 5aeb 323d 0152 833d 7c72 63bd
00000180: b457 1ebd 4d5e a5bd a6f7 383d 3526 28bd
00000190: c00a c03c 989b 64bd 82ef 1d3d 50f0 8cbb
000001a0: c036 daba 944b 51bd 0ce5 0d3d eb1b 9abd
000001b0: c093 ef3c 0369 3cbd 1e10 8abd c6ff 6d3d
000001c0: 8087 e43c 6482 e83c bb68 863d 7c19 e93c
000001d0: 01a7 803d 1895 43bc 5d92 b4bd beb1 193d
000001e0: 3fbb b33d 66f6 283d 0ee1 543d 9c3c 4fbd
000001f0: 0901 873d 9425 b63c 90a8 7a3c ba18 94bd
00000200: 70d9 84bb 38e5 1f3c dce3 b13c bcda fd3c
00000210: bc5e ccbc 8418 c3bc da9f 2f3d a05d 003d
00000220: f889 173c d8b7 2bbc 8c91 83bc 16d6 9ebd
00000230: a6fe 673d eba7 9d3d 5842 bd3c 15c0 923d
00000240: da48 363d 1892 2a3c bf6b ad3d e4ca f5bc
00000250: 5843 013c 38da 1c3c 72ae 523d 1ac7 6d3d
00000260: c0c0 59bd ae1c 3b3d a828 10bc fb0a ac3d
00000270: 0016 d1bc e5e4 00bd 568b 7ebd 5600 393d
00000280: f8f3 a6bc 54d4 d3bc 8809 12bc 40e2 b2ba
00000290: 0647 153d 6091 a43c e3d5 aebd aa48 683d
000002a0: 383f 9cbc d695 783d a057 66bb 640a 08bd
000002b0: 4457 6bbd 586f 663c ed79 b23d 541b 32bd
000002c0: 4f51 8a3d 9cf3 993c 9bad a4bd a633 8ebd
000002d0: c18a 14bd 9770 993d 77f0 903d 8be4 963d
000002e0: 8ffd b4bd eaa6 1f3d 9c41 95bd 3867 acbc
000002f0: 0114 863d 928a 89bd 6064 413c 45d9 50bd
00000300: b4d9 08bd 2bdf afbd baa1 01bd 9dab 9f3d
00000310: c4a2 a3bc 2854 803c bc9d 0a3d 3561 973d
00000320: 5c5a a4bd 7490 f73c c231 273d c144 8bbd
00000330: 5e5d 4fbd c08c 603b 3645 253d 2899 6abc
00000340: e2fc a2bd c006 aebb e2f2 0d3d 004d 7dbc
00000350: 8e64 383d 80b6 8f3b 7a72 4e3d 3b5c b43d
00000360: 6ab2 6a3d 1897 f13c 145c 3bbd 62b6 703d
00000370: 25ef 9f3d 5851 22bc 28a6 643c f2e3 583d
00000380: 1cfc 80bd 98ab 8fbd ca13 073d 3656 593d
00000390: da2a 4b3d 402b f7bc 1fc8 933d c834 28bd
000003a0: 0d88 ad3d 23a6 8c3d 085d 083c 0717 873d
000003b0: 9e20 023d d024 27bc 602b db3c 98af 11bd
000003c0: eb50 8f3d 67b0 9b3d 2ef7 1a3d 0027 e9bb
000003d0: 3e20 92bd 2c66 a13c b6ab 663d 88f7 65bc
000003e0: d09e cabb 6c70 9fbd a42e cfbc 3e70 583d
000003f0: 684c 21bd 4580 3abd 22bd 2f3d f030 d93c

fc2.bias f4 [2]
0.059006996 0.053237863
00000000: 52b1 713d f20f 5a3d
