IA/best_model.pth (torch, 7016 bytes, 4 tensors)

fc1.weight f4 [128, 6]
000000 05 17 ee 3d 7e 08 62 be 60 83 a5 3c ee 3d df 3d
       0.116254844 -0.22073552 0.020204246 0.10900484
000010 bf 10 2c bd 1a cb 03 bd c0 11 b6 bd f7 6c 9d bd
       -0.042008158 -0.032176115 -0.08890104 -0.07686799
000020 88 10 27 3e 76 7e fd 3d 6e f3 b7 bd dc 10 9b bd
       0.163149 0.12377636 -0.089819774 -0.07571575
000030 62 43 69 3e 7c 13 0a bd 08 fc 84 3d 9c 09 09 be
       0.22779611 -0.033709988 0.06493384 -0.13382572
000040 55 f9 98 3c 9c 67 72 bb 6c 5b 44 bd 18 95 ff bc
       0.018673578 -0.0036988026 -0.04793875 -0.031199023
000050 e0 da 85 bd 49 63 72 bc 9c 3c 1b 3e 58 e5 43 bb
       -0.06535888 -0.014794179 0.1515984 -0.0029891338
000060 5d 86 e8 bb 8e b9 80 bc 81 0c 9a bd c8 d0 b2 3d
       -0.0070960955 -0.01571348 -0.07521916 0.08731228
000070 9f f9 01 be 23 81 cf 3c 14 95 8b bb 40 4a 24 3c
       -0.12692879 0.025330132 -0.004259715 0.010027468
000080 7c e6 18 be d5 8d 2d 3e a0 b9 b9 3d 56 9c ee bc
       -0.14931673 0.16948636 0.09068608 -0.029127281
000090 33 13 fb bc 53 f6 30 3d e9 2d 4f 3d 24 58 a8 3b
       -0.030648803 0.043203663 0.050580893 0.0051374603
0000a0 da 3c 66 3c 26 9f 89 3d 60 ba 72 bd 50 fe 8b 3d
       0.014052594 0.06719808 -0.059259772 0.06835616
0000b0 87 fb 51 3e 33 67 f3 3c 42 95 f1 bd 38 29 fd bd
       0.20506106 0.029712295 -0.11796047 -0.123613775
0000c0 82 ea 40 3d 6d 0b 5c bc 2b 54 68 3c 4b b5 8a bd
       0.047098644 -0.0134304585 0.014180223 -0.0677286
0000d0 46 f6 8e 3d 62 5c a8 3d b4 37 39 be 2e 2c bc bd
       0.06980567 0.082207456 -0.18087655 -0.09188114
0000e0 65 66 99 3c e9 cb 97 3d dd 5e 44 3d 99 19 11 3a
       0.018725583 0.0741194 0.04794203 0.00055351254
0000f0 74 8b e4 bc ca 12 44 be e2 88 0d bd 5a 72 dd bd
       -0.027898528 -0.19147792 -0.03455437 -0.108128265
000100 e6 98 7c 3c 5c e7 29 3d 34 e6 02 3d 17 3d b0 bd
       0.015417313 0.041480407 0.03195782 -0.08605402
000110 ba a6 78 3d 83 25 0a bd 61 3c 2b 3b 32 0e 48 be
       0.060705878 -0.03372718 0.0026128518 -0.19536665
000120 e8 91 75 bd dc 5d d5 3d 8e f2 3b bd bb 56 88 bc
       -0.0599536 0.10418293 -0.045885615 -0.016642919
000130 40 cd c6 3d 9e dd 18 be 9a 69 a2 bd a4 2d da bd
       0.09707117 -0.1492829 -0.07930298 -0.106532365
000140 29 1c 5b 3d 51 c8 89 3d 44 61 05 3e 02 8c a5 3d
       0.053493652 0.067276604 0.13025385 0.08083345
000150 c0 e6 54 bb f8 13 ee 3c 3f d9 b8 3c 42 2f 63 3d
       -0.003248617 0.029062256 0.022564529 0.05546499
000160 1c 51 0f bd a2 47 05 be 64 ea 11 3e 39 84 3a 3d
       -0.03498946 -0.13015607 0.14249569 0.045536254
000170 94 61 26 bd d9 71 32 be 03 3c a3 bc b8 9a 7a bd
       -0.0406204 -0.17426242 -0.019926077 -0.061182708
000180 e6 65 0d 3d 62 f5 15 bd 48 4a 13 3a f9 e1 27 3e
       0.034521006 -0.03661097 0.0005618674 0.16394795
000190 86 05 4b 3e 43 dd 10 bd 8a e4 0d bd 38 4a da bd
       0.19826326 -0.03536726 -0.03464178 -0.10658687
0001a0 8c 6f e0 bd 75 d3 0f 3d f7 97 ea 3d 68 35 fe 3d
       -0.10958776 0.03511377 0.11454766 0.1241253
0001b0 0a 37 06 3e d1 95 56 bd 9d 70 1f bd 5a 13 51 3d
       0.13106933 -0.05238897 -0.038925756 0.051043846
0001c0 c7 87 8e bc 34 0a 98 3d 33 72 aa bd 26 91 fe 3c
       -0.017398728 0.07423821 -0.08322563 0.031075072
0001d0 4a 51 75 3d 98 96 fe 3d 5e 1c 15 be 56 4e 95 3c
       0.059891976 0.12431067 -0.14561602 0.01822583
0001e0 5e 11 36 bc b7 68 1c bd 4e a0 a3 3c 16 bf bd 3d
       -0.011112539 -0.0381858 0.0199739 0.092649624
0001f0 c5 17 d6 3c fa 07 72 bd 4e 2a 96 3c 2e af b3 bd
       0.026134381 -0.05908964 0.01833072 -0.08773647
000200 e8 4a ba bb e8 ee 94 bd 72 25 cd 3d 67 20 00 bd
       -0.005685199 -0.0727213 0.10016908 -0.0312809
000210 ae 81 46 3e dd da a9 bc a0 fc a3 3c 4c f0 3b 3d
       0.19385406 -0.020734245 0.020017922 0.04588346
000220 2b 12 fe 3c 93 29 91 3d 77 13 85 bd 98 8f 23 bd
       0.031014523 0.07088008 -0.06497853 -0.039931864
000230 76 59 90 bc c2 09 9c bd 44 a5 5b 3d c7 6f 60 3c
       -0.017620783 -0.07619049 0.053624406 0.013698525
000240 9c 5c 7b bd a2 49 07 bd a3 be 88 bc e8 fb 4e bc
       -0.061367616 -0.033029206 -0.016692465 -0.012633301
000250 48 d8 bd ba 9a 1e 45 3c ec 6c 71 bd 57 a3 cf bd
       -0.0014484012 0.012031222 -0.058941767 -0.101385765
000260 f1 f1 96 bc 86 59 3b 3d 7f f6 b6 bd 3a e6 ec 3c
       -0.018425914 0.045739673 -0.08933734 0.028918374
000270 99 2d 0e 3e 2a 54 fd bd 56 84 a3 3b 5d 97 91 bd
       0.13884582 -0.12369569 0.004990141 -0.071089484
000280 79 81 f0 bb 0a cc 23 be 87 d3 88 3d 10 bb 96 bc
       -0.007339653 -0.15995803 0.06680971 -0.018399745
000290 78 81 18 3d 82 45 1d be 74 17 a5 bd 97 88 7f 3b
       0.037232846 -0.15358546 -0.08061114 0.0038991326
0002a0 60 39 c0 bc c6 2b d1 3d 16 46 0a 3e c4 e2 ba bb
       -0.023464859 0.10213427 0.13503298 -0.005703302
0002b0 4f 98 2c 3c a4 fe 60 bd 35 9c 61 3d 32 a4 75 bd
       0.01053436 -0.054930344 0.05508061 -0.059971042
0002c0 c3 1b 05 3d ee 17 1f be 6a 13 a8 bd ad ac 8a bd
       0.03249718 -0.15536472 -0.08206828 -0.067712165
0002d0 80 d3 0e 3e 14 f4 1e be fe 40 02 bd b8 84 46 bd
       0.13947868 -0.15522796 -0.031800263 -0.048466414
0002e0 48 d2 ea bd 46 a9 2d bc 9e 73 c2 3b 5a 1e 40 bc
       -0.11465889 -0.01059944 0.005934193 -0.011725986
0002f0 e4 c2 dd bd 8e c4 26 3d 64 6f 97 3d 2e 22 d5 3d
       -0.10828188 0.040714793 0.07394293 0.1040691
000300 dd 0a 56 bd 10 01 ce 3d 9e 5e 7e bc aa 40 a8 3b
       -0.052256454 0.100587964 -0.015525488 0.0051346617
000310 05 a6 66 bd 2c 8d 6e bd 3e 1f 15 bc 7a a0 a3 bc
       -0.056310672 -0.0582401 -0.009101687 -0.019973982
000320 f0 de ca bc ce 3a 07 bd 30 75 42 bd 1b bd 0d bd
       -0.024764508 -0.033015065 -0.04747504 -0.034604173
000330 48 6d 05 be 54 18 2f bd 9d 7e c3 bd e6 5d 67 bd
       -0.13029969 -0.04274781 -0.09545634 -0.056486033
000340 85 80 3a be 16 50 17 3d ab 21 f7 bc a0 20 2c be
       -0.18213089 0.03694161 -0.030167421 -0.1680932
000350 ea 1c a1 3b a0 03 7e bd 78 ea 9c bc a0 5f 15 3d
       0.004916777 -0.062015176 -0.019154772 0.03646815
000360 98 d1 70 3d e1 76 73 bd 7d ce 06 3e a2 f1 8a bc
       0.058793634 -0.059439544 0.13164707 -0.016960923
000370 b1 b9 6b bd 80 c8 e5 bd be 81 f3 3d b0 b7 74 3a
       -0.057550136 -0.11219883 0.11889981 0.0009335233
000380 26 b9 b5 bd 8e 3f f7 bb 6e 0c 8f 3d cc ef 21 bd
       -0.08873205 -0.007545418 0.06984793 -0.03953533
000390 aa a1 a0 3b fe 2f 40 be a4 fd 3d bd da da 3a 3d
       0.0049020844 -0.18768308 -0.04638447 0.04561887
0003a0 24 4e 9e 3c 59 86 28 3e 27 cc 05 3d 48 3b c4 bc
       0.01932437 0.164575 0.032665398 -0.023954049
0003b0 f6 3d ba ba ed 87 85 3b 45 ba 8d 3d 66 1b 3b be
       -0.001420914 0.0040750415 0.06920294 -0.1827217
0003c0 0b 80 89 bd da 0b fd 3b 9e 5a b1 bc 44 c4 2a 3e
       -0.067138754 0.00772236 -0.021649655 0.16676432
0003d0 d4 74 be 3d 62 f2 d8 bc 3c e9 43 3b 7c b2 ab bd
       0.09299627 -0.026482765 0.0029893657 -0.083836526
0003e0 1d a6 40 3d 0d f7 19 bd 4f 70 ae 3d 91 a3 e3 3d
       0.047033418 -0.03758912 0.08517515 0.11115182
0003f0 94 05 d8 3d 6b d4 9b bd 5e 17 f1 3c 24 fc cb 3c
       0.10547939 -0.07608875 0.029430088 0.024900503

fc1.bias f4 [128]
000000 36 13 69 be 84 bc 00 3e f2 6d ca 3e fb 49 57 be
       -0.22761235 0.12571913 0.39537007 -0.21024315
000010 68 82 be 3d d2 82 af 3e 58 e6 d3 3d 56 cb 20 be
       0.09302217 0.34279495 0.10346669 -0.15702567
000020 a0 f0 22 3e 80 f5 d2 bb a0 24 0f bd 60 b4 96 be
       0.15912104 -0.0064379573 -0.034947038 -0.2943449
000030 88 7c 61 3d 10 aa 95 3e d0 cf 98 bc 74 2a f6 bd
       0.055050403 0.2923131 -0.01865378 -0.12019816
000040 c2 98 a0 3e c9 29 a8 be 08 fe 41 3d 43 0e 25 be
       0.31366545 -0.3284438 0.047361404 -0.16118722
000050 0f 43 93 be 82 9e 34 be 08 f9 da 3d d8 b2 a8 3e
       -0.287621 -0.17638591 0.1069203 0.32948947
000060 d8 4f 70 3e a8 f7 61 3e 3c 85 c0 be 1b 42 4f be
       0.23467958 0.2206713 -0.3760165 -0.20240061
000070 ba 50 88 3e 6a f0 b1 be c2 20 58 be 0c 65 a2 be
       0.2662409 -0.34753734 -0.21106246 -0.31717718
000080 3c 18 88 bd 74 5b 93 3e 0a 91 89 3e 1b a8 7c be
       -0.06645247 0.2878071 0.2686847 -0.24673502
000090 9c e4 8c 3d 28 7c 19 3e 00 14 68 ba 6a 1e 9f be
       0.06879541 0.14988768 -0.0008853078 -0.31077892
0000a0 28 30 5a 3e e2 30 b8 be 4c ca 54 3e a6 97 13 be
       0.21307433 -0.35974795 0.20780295 -0.14413318
0000b0 b0 0f e7 3c 54 40 99 be 32 d6 74 be 4e 87 cb 3e
       0.028205723 -0.2993189 -0.23909834 0.39751667
0000c0 86 34 b2 be 7b c7 44 be a4 ab a5 be 58 49 a1 3e
       -0.34805697 -0.19216721 -0.32357514 0.3150127
0000d0 30 10 12 3e 66 27 a4 3e 0a c9 80 3e 44 67 5e be
       0.14263988 0.3206131 0.2515338 -0.2171908
0000e0 da a5 aa be c2 6f cf 3e 94 63 1c 3e 37 91 3e be
       -0.3332966 0.40514952 0.15272361 -0.18610083
0000f0 f2 cc 42 be c2 a4 30 be da ea 80 be 3c 08 2e 3e
       -0.19023493 -0.1725035 -0.25179178 0.16995329
000100 2a dd 0b be 84 24 b6 be 00 0c 4c 3e 78 50 eb 3d
       -0.13658586 -0.35574734 0.19926453 0.114899576
000110 d3 ff c2 be de d6 b0 3e 8c 1c c2 be 5c 95 74 3e
       -0.38085803 0.3453893 -0.37912405 0.23885101
000120 38 08 88 bd bb 3f 75 be 80 9a 91 3c e4 c3 69 3e
       -0.066421926 -0.23950092 0.017773867 0.22828633
000130 c8 b8 8d 3e 5f ca 34 be 30 12 ab 3e b4 a8 ae bd
       0.2768004 -0.17655323 0.33412313 -0.08528271
000140 a4 9b 0c 3e 58 30 56 3e 64 3f 55 3e 6b 96 50 be
       0.13731247 0.20916879 0.20824963 -0.2036988
000150 84 96 74 3e 10 98 82 3e 9e de a5 3e fb e5 ba be
       0.23885542 0.2550664 0.32396406 -0.36503586
000160 00 ef 85 3e 40 36 d8 3b a8 22 03 bd 14 cf b7 3d
       0.26158905 0.006598264 -0.032015473 0.08975044
000170 c1 d4 be be 38 d6 85 3e be eb 81 be ce 49 8a be
       -0.37271693 0.26139998 -0.2537517 -0.27009434
000180 d2 66 ab be 00 bc 59 3c 52 39 2d be 98 22 44 3e
       -0.33476883 0.013289452 -0.16916397 0.19153821
000190 a7 e3 9c be ac ba 8b 3d 52 70 b5 3e 70 7c 87 3d
       -0.30642435 0.06822714 0.35437256 0.066155314
0001a0 c0 ad 4e 3c 44 13 a2 3e f0 49 2a 3d d8 b3 ae 3e
       0.012614667 0.31655324 0.04157442 0.34121585
0001b0 c8 59 fb bd 20 22 9f bd 20 eb 76 bc e8 2b 24 3e
       -0.12272984 -0.07770181 -0.015070707 0.16032374
0001c0 40 b8 0c bc d4 76 bd be f0 26 22 3e 10 ff 96 3e
       -0.0085888505 -0.3700472 0.15835166 0.29491472
0001d0 c0 72 55 bc 0d e7 af be 8c 70 0b 3e 0c ee 03 be
       -0.013027847 -0.34355965 0.13617152 -0.12883776
0001e0 3c bb 15 be 00 fd 3f 3b 8c f9 25 3e d1 04 3d be
       -0.14622205 0.0029295087 0.16208476 -0.18458869
0001f0 08 c0 85 be d4 74 00 3e 72 94 a2 3e 50 37 a6 3d
       -0.2612307 0.12544566 0.3175388 0.08116019

fc2.weight f4 [2, 128]
000000 38 4c 14 3c 2f 44 0a bd cf 74 9e 3d 19 0b 12 bd
       0.009051375 -0.03375643 0.07737123 -0.035655115
000010 98 9b 78 3c 84 5f c7 3c 70 15 4a 3c 9d 8b 8e 3d
       0.015173815 0.024337538 0.012334213 0.06960223
000020 cf 19 ab 3d 5c 1e 2f bd 22 c0 61 bd 96 23 1d 3d
       0.08354532 -0.042753562 -0.055114873 0.038364016
000030 42 d0 47 bd ab 97 b0 bd ad 45 a6 3d 07 ba b3 3d
       -0.048782595 -0.08622678 0.08118758 0.08775716
000040 00 07 a5 bc 38 88 24 3c 61 34 aa bd 28 76 8a 3c
       -0.02014494 0.010042243 -0.08310772 0.016902044
000050 08 a3 3d 3c 06 00 a1 bd c0 7c 28 3c c2 92 69 3d
       0.011574514 -0.078613326 0.010283649 0.057024725
000060 0a 84 66 bd 1a 77 43 3d bc c1 0f 3d 64 5d bb bc
       -0.056278266 0.047721006 0.03509687 -0.02287168
000070 53 8c 9e 3d 8e b1 3b 3d ae 2d 99 bd 70 61 76 3c
       0.077416085 0.045823626 -0.07479416 0.015037879
000080 cd 33 a6 bd 40 79 db ba a8 4f 50 bc 16 fc 3f bd
       -0.08115349 -0.0016744509 -0.012714304 -0.046871267
000090 c6 10 0f bd d0 98 f2 3c 4b b3 46 bd 00 70 d4 3b
       -0.034928106 0.029613882 -0.04851083 0.006483078
0000a0 50 79 4a bc e7 6a a4 3d aa 33 20 3d 3c 9e f9 3c
       -0.012358025 0.080282025 0.03911177 0.03047096
0000b0 68 05 5a bd 60 95 a9 3c 8e 59 3b 3d f7 5d a0 3d
       -0.053227812 0.02070111 0.045739703 0.07830422
0000c0 51 1b 96 3d f6 73 32 3d e1 fc 4c bd 0e 4e 8a bd
       0.07329429 0.04356762 -0.05004585 -0.06753169
0000d0 da c4 28 3d 5a 02 40 bd 2b 48 af 3d 0d 96 a3 bd
       0.041203357 -0.046877243 0.08558687 -0.07987604
0000e0 c8 a5 a8 3c d9 67 5a bd 17 9d a9 bd c0 a9 22 bb
       0.020586863 -0.053321693 -0.08281916 -0.0024820417
0000f0 72 cc 57 3d 80 0c 30 3b 9c 25 b4 bd 43 96 b1 3d
       0.05268521 0.002686292 -0.08796236 0.08671238
000100 f2 27 76 3d f0 67 b2 3b e0 9d 97 3b ab 42 96 bd
       0.06009669 0.005444519 0.0046269745 -0.07336935
000110 34 8a 82 bd de 24 2c 3d 98 d8 f0 bc 12 0c 4a 3d
       -0.063740164 0.042027347 -0.029400155 0.049327917
000120 bc ca 71 bd 26 db 29 3d 5f 0a 99 bd c0 8e 10 bc
       -0.059031233 0.04146876 -0.07472681 -0.008823097
000130 00 e5 fd bb 18 8c 88 3c 35 c6 8f 3d a9 4c ac 3d
       -0.007748246 0.016668364 0.07020227 0.08413059
000140 bc 27 01 3d 72 b2 5c 3d c3 81 a7 3d a0 75 c1 bc
       0.031532034 0.053881116 0.08179047 -0.023615658
000150 e0 7f 3c 3c 8f 50 3f bd 18 f6 f5 bc 57 a6 47 bd
       0.011505097 -0.046707686 -0.030024573 -0.04874262
000160 4c a7 4e bd 1a 67 50 3d e7 a6 41 bd 98 cb 39 bc
       -0.050452515 0.050879575 -0.04727831 -0.011340044
000170 50 d7 db bc e1 3f 10 bd 90 54 42 bd 29 ea 83 3d
       -0.026836067 -0.03521717 -0.047443926 0.06441147
000180 ae a6 37 bd b5 93 72 bd 3c 0f 89 bd a9 bd ac 3d
       -0.044836693 -0.059222896 -0.06692359 0.08434612
000190 2a 31 52 3d 48 fc ed 3c 64 80 36 bd 33 4d 86 bd
       0.051316418 0.029050961 -0.044556037 -0.06557693
0001a0 f4 76 b0 bc 09 5e 3b bd 9c fe a3 bd 4c bf 9c 3c
       -0.021541096 -0.045743976 -0.08007547 0.019134186
0001b0 20 ed a8 bd 70 f0 61 bc 18 6a ac 3c 3b b2 2d bd
       -0.08248353 -0.013790235 0.021046683 -0.042406302
0001c0 10 a6 1f bc f8 0f c2 bc ba b6 49 bd 87 d4 a2 3d
       -0.009744182 -0.023689255 -0.049246527 0.079506926
0001d0 52 44 7f 3d 25 ae a6 3d 6c 7e 6b bd e1 e0 ac bd
       0.062321015 0.08138684 -0.057493612 -0.0844133
0001e0 a8 13 5e bc 82 d0 21 3d 90 9b b5 bb a4 75 a0 3c
       -0.013554491 0.03950549 -0.005542226 0.019587345
0001f0 e2 5d 64 3d 28 d0 6b bd 11 c5 87 bd ea c6 67 3d
       0.055753596 -0.05757156 -0.06629384 0.056586184
000200 b0 50 f5 3b 32 2f 79 3d 23 68 8f 3d 9a b8 6c 3d
       0.0074864253 0.060836025 0.070022844 0.057793237
000210 bb 55 94 3d 58 9d 02 3c c3 ea 87 bd 86 7f 29 3d
       0.07242914 0.007972084 -0.06636574 0.04138138
000220 81 51 72 bd 8e 76 a2 bd 22 c1 35 3d ee 64 a6 bd
       -0.05915976 -0.07932769 0.04437364 -0.081247196
000230 70 95 a0 3c 7c 1d 9e bc 20 d4 8f 3c 48 cb b8 bc
       0.019602507 -0.019301169 0.017557204 -0.02255787
000240 80 a1 2f bb 1b 43 38 bd 3f f5 52 bd a0 53 70 bc
       -0.0026799142 -0.04498587 -0.051503416 -0.014668375
000250 7c 3d 85 bc 71 26 80 3d 46 3e 9f bd c8 09 01 3c
       -0.01626467 0.06257332 -0.077755496 0.007875867
000260 f4 b0 06 3d 5a 0f 37 3d 80 be 93 bd 78 18 14 3c
       0.0328836 0.044692375 -0.07214069 0.009039037
000270 14 91 48 bd d3 d8 a0 3d a7 3d 78 bd 05 76 5d bd
       -0.048966482 0.07853856 -0.06060567 -0.05406763
000280 fb 9a b1 3d 7c b5 c2 3c 5c 76 14 3d a6 8b 9d bd
       0.08672138 0.02376818 0.03624569 -0.076926515
000290 92 8a 0b 3d 22 2a 75 bd 27 6e 31 bd d9 fe 9d 3d
       0.034067698 -0.059854634 -0.04331794 0.07714624
0002a0 99 9d 81 bd 49 0d 83 3d 17 25 09 bd a4 a1 a7 bd
       -0.063288875 0.06399018 -0.033482637 -0.081851274
0002b0 2e 47 1a 3d 00 72 1e b9 42 e4 a1 bd 96 8a 11 3d
       0.03766554 -0.00015110523 -0.07904865 0.035532556
0002c0 d9 6f 15 bd 1d 2a a6 bd 32 62 a8 bd a6 a1 2e 3d
       -0.03648362 -0.08113501 -0.08221854 0.04263463
0002d0 9f 94 9e 3d d4 13 c8 3c d9 29 7b bd eb 02 9b 3d
       0.07743191 0.024423517 -0.061319206 0.07568916
0002e0 15 fc a3 bd 78 4b 86 bd b2 e0 53 3d e6 76 47 bd
       -0.08007065 -0.06557363 0.051727958 -0.048697375
0002f0 9c 0a 94 3c c0 25 92 3c 15 64 56 bd c6 87 27 3d
       0.018071465 0.017840266 -0.05234154 0.040900968
000300 97 58 56 bd 7a 1f 9b bd 7b e2 af bd 51 ef 75 bd
       -0.05233058 -0.07574363 -0.085881196 -0.060042683
000310 a0 25 79 bd 48 b4 84 bc 4f ba a1 3d 30 a5 95 bb
       -0.060826898 -0.016199246 0.07896864 -0.004566811
000320 55 1f 46 bd e0 76 08 3d 64 a3 58 bd 40 c0 08 3d
       -0.048369724 0.033316493 -0.052890196 0.03338647
000330 56 ef 38 3d 8a e0 59 bd 85 22 8c bd 2c 2a 8c 3c
       0.045150124 -0.053192653 -0.068425216 0.017109953
000340 9a 1c f6 bc c7 d2 95 3d 52 5d 0c bd 20 12 6d bb
       -0.030042935 0.07315593 -0.034268685 -0.0036174133
000350 c8 3e 98 3c 48 f5 53 3c ec 88 44 bd 4a 13 21 3d
       0.018584624 0.012936898 -0.04798214 0.039325036
000360 3c 73 ae 3c e4 54 99 3c 5c 47 86 3c 0a ac 5c 3d
       0.021295182 0.018717237 0.016391449 0.053875007
000370 07 86 ad 3d 8d 8d 42 bd bf ea 88 3d 70 55 96 3c
       0.08472829 -0.047498275 0.06685399 0.018351287
000380 8c f6 8a 3c 5f 9c 19 bd 81 30 8f 3d b0 04 a4 bb
       0.016963266 -0.037502643 0.06991673 -0.0050054416
000390 90 03 0c 3c 04 05 9f 3c e9 d6 32 bd 11 c2 0b bd
       0.008545771 0.019411571 -0.043661986 -0.034120623
0003a0 18 5b 8c 3c 2a f3 53 bd dc a8 d0 bc fe 20 a4 bd
       0.01713328 -0.05174557 -0.025471143 -0.08014105
0003b0 14 b9 ad 3c 7c 86 7a bd c2 3f 19 3d 98 da 26 bc
       0.021206416 -0.06116341 0.03741432 -0.010183953
0003c0 56 da 6a 3d 30 a8 0f 3c 99 c5 32 bd a0 06 67 3b
       0.057337128 0.008768126 -0.043645475 0.0035251752
0003d0 36 0f 64 bd ae 39 35 3d 16 ab a5 bd 80 a3 36 ba
       -0.05567857 0.04424446 -0.08089273 -0.00069671124
0003e0 74 ae 8c bc 14 77 10 3d 4c 23 e1 3c 98 36 53 3c
       -0.01717303 0.03526981 0.027482651 0.012891434
0003f0 31 7b a3 3d 01 4e 8b 3d ac c4 03 bd 86 e6 2d 3d
       0.07982481 0.068019874 -0.032169983 0.042456172

fc2.bias f4 [2]
000000 d5 e0 a9 3d 06 91 74 3d
       0.082948364 0.059708618
