IA/best_model.pth (torch, 6696 bytes, 4 tensors)

fc1.weight f4 [128, 6]
-0.062562756 -0.027519163 0.046965487 -0.023151651 -0.06275045 -0.08598854 -0.027412565 0.013339242
-0.14050408 0.06304907 0.025569547 -0.0648606 -0.024800017 0.04779365 -0.04305841 -0.16251135
0.12281218 0.11836024 -0.045217186 -0.019153535 0.06207389 -0.118054315 0.10794228 -0.10498965
0.07813442 -0.0851542 -0.05946939 -0.014555428 -0.07129826 -0.009118304 0.016836256 -0.009759588
-0.03144485 -0.026163047 -0.10851908 0.101547666 -0.042578146 -0.052822627 -0.14247298 -0.08161946
-0.15613961 -0.1418641 -0.008274488 0.055146113 -0.13512355 0.0030741338 -0.27840778 -0.046724133
0.06238651 -0.10910531 0.067430794 -0.14818245 -0.04122445 0.19284439 -0.027392166 0.04354029
0.076626986 0.043112125 -0.031071771 -0.16391122 -0.040802695 0.03470056 0.072772086 -0.019255996
-0.04962057 0.042206682 -0.037903793 0.02516554 -0.05321548 -0.016388394 -0.092586935 -0.03754206
-0.06350954 0.0845598 -0.020172004 0.08339046 0.07000737 -0.051382072 -0.08473566 0.17617154
-0.05111477 0.050141063 -0.09296855 -0.06948483 0.04837887 -0.13921136 0.10802138 -0.1075587
-0.07441281 -0.006804416 0.1803416 -0.18505675 0.06638238 0.06007825 0.064563096 -0.050631586
-0.13309164 -0.014321897 0.06762023 -0.12905037 0.050555572 0.04676593 0.007777772 -0.20266321
-0.15131937 -0.05237096 -0.15999731 -0.0025343196 -0.07714625 0.048792526 -0.055428956 0.15362263
0.09179719 0.2299842 0.095286146 0.099567175 0.15064488 0.029611856 -0.1013692 -0.060084607
-0.03540335 -0.00063888286 0.14943245 0.11632465 -0.124078825 -0.104194924 0.0018760175 0.021237966
-0.050553143 -0.12787932 0.11898023 0.058225457 0.027283043 0.012922159 0.049868084 -0.0513668
-0.016577411 0.08810576 0.066697896 -0.015013628 -0.101946995 0.12425369 0.030805975 -0.09020117
0.10521968 -0.07307877 -0.08104112 0.074534774 -0.033844184 -0.01851097 0.029791974 0.12627202
0.082419604 0.0043587005 -0.0621733 0.0014877567 0.06926495 0.15718237 -0.1463365 0.11875816
0.0873103 -0.06758393 -0.047625147 -0.12384136 0.0027209024 -0.1276537 -0.10744384 -0.08754818
0.09099966 0.038021974 0.011640186 -0.18225497 -0.029194739 0.055160593 -0.041269477 -0.051745817
0.042968985 0.044823535 -0.1039224 -0.03099716 -0.027128678 0.12781213 0.020256996 -0.24698925
-0.17183533 -0.05312306 0.11517626 0.09361069 -0.0195974 -0.039956346 0.09483124 -0.036870107
0.091334686 0.17757869 -0.04943014 0.104169466 0.08740983 0.01612665 -0.017850507 0.05972623
0.13458285 0.013140036 -0.09438624 0.11290865 0.028579593 0.16138858 -0.06335994 -0.04845731
-0.14884546 -0.042014748 0.13642785 -0.053695016 0.006998252 0.037052505 -0.098750845 0.028457858
0.07467203 -0.13659859 -0.086313054 -0.1036624 -0.064143494 0.19881448 0.03636297 -0.11248882
-0.050667103 0.09954419 0.0575533 0.03863588 -0.098918624 -0.04241071 0.03976518 0.1379124
-0.17070302 0.03736828 0.09209442 -0.11190043 -0.029819824 0.18512441 -0.055484325 0.014470067
0.18619895 -0.008666175 -0.06329793 0.044831187 -0.0015944401 -0.08385041 -0.09702772 -0.042244192
0.08780435 0.22697121 0.17676415 0.10994202 0.09641419 -0.12481733 0.1838369 0.14087157
00000000: e720 80bd de6f e1bc e25e 403d 88a8 bdbc
00000010: 4f83 80bd c21a b0bd 5190 e0bc d68c 5a3c
00000020: 4de0 0fbe df1f 813d 3a77 d13c a2d5 84bd
00000030: 6829 cbbc 46c3 433d 045e 30bd 6069 26be
00000040: f484 fb3d da66 f23d a835 39bd e0e7 9cbc
00000050: 3141 7e3d 76c6 f1bd d810 dd3d d004 d7bd
00000060: f004 a03d 5365 aebd 2d96 73bd e479 6ebc
00000070: d204 92bd f064 15bc 30ec 893c aee6 1fbc
00000080: 51cc 00bd e353 d6bc 403f debd 39f8 cf3d
00000090: 6c66 2ebd 8a5c 58bd 70e4 11be 1a28 a7bd
000000a0: 10e3 1fbe d344 11be b891 07bc e4e0 613d
000000b0: d45d 0abe 6877 493b 778b 8ebe ce61 3fbd
000000c0: ff88 7f3d 9b72 dfbd 2819 8a3d 24bd 17be
000000d0: f8da 28bd 0079 453e 8965 e0bc 4e57 323d
000000e0: 9cee 9c3d 5796 303d 3a8a febc 58d8 27be
000000f0: ba20 27bd 2d22 0e3d 8809 953d c0be 9dbc
00000100: f03e 4bbd eae0 2c3d 0241 1bbd f627 ce3c
00000110: 7af8 59bd f440 86bc 389e bdbd b4c5 19bd
00000120: 4a11 82bd b02d ad3d c23f a5bc 9ec8 aa3d
00000130: 0660 8f3d 0276 52bd e489 adbd 5066 343e
00000140: b95d 51bd b760 4d3d 4c66 bebd 104e 8ebd
00000150: ec28 463d 6c8d 0ebe 503a dd3d bc47 dcbd
00000160: be65 98bd 94f7 debb 78ab 383e 847f 3dbe
00000170: 7cf3 873d 9c14 763d a839 843d 1163 4fbd
00000180: 2d49 08be 64a6 6abc 7a7c 8a3d c825 04be
00000190: 5c13 4f3d a28d 3f3d aedc fe3b f286 4fbe
000001a0: 77f3 1abe ef82 56bd 56d6 23be d416 26bb
000001b0: dafe 9dbd acda 473d 7909 63bd 404f 1d3e
000001c0: 2a00 bc3d fa80 6b3e 6225 c33d e0e9 cb3d
000001d0: a742 1a3e 9094 f23c a89a cfbd 471b 76bd
000001e0: 1a03 11bd b47a 27ba d204 193e 9e3b ee3d
000001f0: 0a1d febd 2664 d5bd b4e4 f53a 3efb ad3c
00000200: d010 4fbd ccf2 02be e8ab f33d d17d 6e3d
00000210: b080 df3c 77b7 533c 7a42 4c3d fe65 52bd
00000220: 5acd 87bc cb70 b43d e898 883d b8fb 75bc
00000230: 96c9 d0bd b878 fe3d d05c fc3c 64bb b8bd
00000240: 6a7d d73d 52aa 95bd e3f8 a5bd b0a5 983d
00000250: 33a0 0abd 51a4 97bc 4c0e f43c 744d 013e
00000260: 9ccb a83d 6ed3 8e3b 6ea9 7ebd d500 c33a
00000270: c8da 8d3d 6af4 203e 3cd9 15be 7a37 f33d
00000280: becf b23d 7269 8abd 9612 43bd 8aa0 fdbd
00000290: 2b51 323b a7b7 02be 840b dcbd 764c b3bd
000002a0: 085e ba3d eebc 1b3d 7bb6 3e3c 0ca1 3abe
000002b0: ce29 efbc 13f0 613d 2f0a 29bd 6cf3 53bd
000002c0: 3f00 303d e298 373d 44d5 d4bd c2ed fdbc
000002d0: f63c debc 2fe1 023e 00f2 a53c c0ea 7cbe
000002e0: 9af5 2fbe 9197 59bd 88e1 eb3d f6b6 bf3d
000002f0: ba8a a0bc 44a9 23bd e236 c23d 1c05 17bd
00000300: ae0d bb3d 30d7 353e 4277 4abd cd56 d53d
00000310: ed03 b33d 091c 843c 3a3b 92bc 7ea3 743d
00000320: 16d0 093e 4e49 573c 934d c1bd a63c e73d
00000330: c01f ea3c 0c43 253e dbc2 81bd 2c7b 46bd
00000340: f26a 18be a817 2cbd beb3 0b3e 4eef 5bbd
00000350: 9851 e53b 5ec4 173d e23d cabd 7420 e93c
00000360: a6ed 983d 80e0 0bbe e6c4 b0bd f44c d4bd
00000370: aa5d 83bd 0696 4b3e 56f1 143d 8a60 e6bd
00000380: 4f88 4fbd d3dd cb3d 02bd 6b3d a840 1e3d
00000390: d995 cabd dab6 2dbd d0e0 223d e838 0d3e
000003a0: c6cc 2ebe 7b0f 193d 009c bc3d 0d2c e5bd
000003b0: b448 f4bc 4191 3d3e 8843 63bd dc13 6d3c
000003c0: f0aa 3e3e 93fc 0dbc 58a2 81bd e8a0 373d
000003d0: 88fc d0ba c4b9 abbd 78b6 c6bd 3f08 2dbd
000003e0: c4d2 b33d 246b 683e a901 353e 4829 e13d
000003f0: ce74 c53d 3aa0 ffbd be3f 3c3e a340 103e

fc1.bias f4 [128]
-0.0061321855 0.3949772 0.38752776 -0.21550721 0.053984284 0.21366441 0.3865447 -0.3333704
-0.14254543 -0.13627294 -0.18701142 -0.24519598 -0.25760418 -0.16834457 0.36474085 0.39675558
0.36956352 -0.17522137 0.4022714 -0.18249178 -0.15162873 -0.37402403 -0.22456692 -0.17790389
-0.38915318 0.39338684 -0.12106249 -0.16475533 0.17717129 -0.35794657 0.03600365 -0.3509319
0.04326126 0.3093521 -0.3407671 -0.15730977 -0.3037405 0.3076622 -0.13199905 -0.2802022
0.13904727 -0.060406238 0.109921575 0.07766211 0.3538807 0.15984225 0.065491766 0.3888567
0.15791607 0.1492163 0.36923045 -0.12716705 -0.32321376 -0.39713797 0.34748995 -0.25145793
-0.3499105 0.3831489 -0.3334055 0.3981002 0.2534815 -0.33185455 0.026376247 -0.023587227
-0.112772405 -0.3482701 0.30366313 0.2690909 -0.30517787 -0.064269036 -0.35239592 -0.277766
-0.13347608 -0.2799057 0.07202783 -0.22346899 0.13677895 -0.11728448 0.3266741 -0.16012768
0.0130312145 -0.046075225 0.31794477 -0.2142046 0.266352 0.048848182 -0.3947253 0.22705519
0.35101265 0.17284238 -0.26278013 0.23593974 0.237162 -0.044945717 -0.25731707 -0.34353334
-0.16292131 0.3374768 0.023954004 -0.24170163 0.40182823 -0.07760844 0.3088376 0.35595
-0.07420096 -0.3912369 -0.30209845 0.19042414 -0.30558228 -0.14653513 -0.10017687 0.20590633
-0.23114528 -0.317087 0.30656034 0.30285645 0.38662797 -0.08278844 -0.26208943 -0.20287871
-0.040258735 -0.04249841 -0.18271077 0.2595994 -0.22714193 -0.21337074 -0.08230206 -0.3194547
00000000: 80f0 c8bb 743a ca3e 0a6a c63e ecad 5cbe
00000010: a01e 5d3d d8ca 5a3e 30e9 c53e 86af aabe
00000020: 6ef7 11be 228b 0bbe ec7f 3fbe a814 7bbe
00000030: b2e4 83be 8562 2cbe 50bf ba3e 8c23 cb3e
00000040: 6e37 bd3e 3b6d 33be 84f6 cd3e 20df 3abe
00000050: 9044 1bbe 1480 bfbe dff4 65be 702c 36be
00000060: 163f c7be 006a c93e 9cef f7bd 9fb5 28be
00000070: 646c 353e c644 b7be 9078 133d 59ad b3be
00000080: b832 313d 6663 9e3e 0679 aebe d015 21be
00000090: e083 9bbe e685 9d3e c22a 07be aa76 8fbe
000000a0: 6862 0e3e 886c 77bd 901e e13d 500d 9f3d
000000b0: da2f b53e b0ad 233e 8c20 863d 3a18 c73e
000000c0: c0b4 213e 28cc 183e c60b bd3e 1438 02be
000000d0: 467c a5be ab55 cbbe 34ea b13e 18bf 80be
000000e0: 7827 b3be 182c c43e 20b4 aabe cad3 cb3e
000000f0: 54c8 813e d7e8 a9be 0013 d83c 003a c1bc
00000100: 38f5 e6bd 7550 b2be bc79 9b3e 48c6 893e
00000110: 4640 9cbe 7c9f 83bd 3d6d b4be 5837 8ebe
00000120: f4ad 08be cd4f 8fbe 5483 933d 0ed5 64be
00000130: c80f 0c3e d832 f0bd d441 a73e 83f8 23be
00000140: e080 553c 60b9 3cbd a8c9 a23e 7358 5bbe
00000150: 4a5f 883e 0815 483d 6f19 cabe 2881 683e
00000160: eeb7 b33e 98fd 303e 1e8b 86be 309a 713e
00000170: 98da 723e 0019 38bd 10bf 83be 9ae3 afbe
00000180: d8d4 26be c2c9 ac3e 303b c43c a280 77be
00000190: 6ebc cd3e 2cf1 9ebd f61f 9e3e 143f b63e
000001a0: acf6 97bd 3450 c8be a6ac 9abe 8cfe 423e
000001b0: 4875 9cbe 4e0d 16be 8829 cdbd 1cd9 523e
000001c0: 59b1 6cbe 3a59 a2be 7af5 9c3e 0010 9b3e
000001d0: 1af4 c53e fc8c a9bd 9630 86be 70bf 4fbe
000001e0: 58e6 24bd d012 2ebd 8818 3bbe 36ea 843e
000001f0: e597 68be dc7d 5abe fc8d a8bd 918f a3be

fc2.weight f4 [2, 128]
-0.06884132 0.00082810223 -0.057411898 0.066377886 -0.029678576 -0.02532722 -0.015544407 0.05357354
0.06671298 -0.082657374 -0.07818023 0.06591476 0.02796027 -0.07047006 -0.04247847 0.08696029
-0.018789873 -0.024578713 0.07833689 0.0007890016 -0.0029216334 -0.079652645 -0.082243785 0.05713322
-0.07503598 -0.043010436 -0.015997387 0.026635557 -0.045410838 -0.04246943 0.008559383 -0.042461876
-0.014800414 -0.041869953 0.0076147467 -0.015111707 -0.04479817 -0.042384926 -0.06660002 -0.02831595
0.03887204 0.03384065 0.04996354 0.07721386 0.0015721694 0.048818655 0.07983991 -0.03487934
0.0624258 0.016786247 0.02004981 -0.038096502 0.03742238 0.009035617 0.05805818 -0.05502507
-0.05978035 -0.0054383352 0.062398605 0.01396507 -0.0660207 -0.01607307 -0.06808401 -0.043131083
0.020818196 0.08546128 0.04184275 0.008662388 -0.058518864 0.034632616 -0.011677079 0.025998399
0.038098447 -0.06603393 0.06323644 0.003808692 0.07616549 -0.03961085 -0.019551598 -0.044480193
0.008315407 -0.06559851 -0.07731634 0.0052514896 0.02870413 -0.016068242 -0.00829237 0.01937893
0.083562024 -0.0023435876 -0.03500929 -0.0025436282 -0.07858029 -0.03156895 0.0706692 -0.06408014
-0.056785997 -0.006825641 -0.07640078 0.036401324 -0.007907204 0.017024495 -0.029767074 0.06376553
-0.07917845 0.029143788 0.026928611 -0.035070036 0.040510975 -0.008104652 -0.04806222 0.059337907
0.0693428 -0.058929577 -0.0036904737 -0.04969384 0.045269333 0.08390079 0.083269544 -0.050081138
0.060906418 0.042625807 0.046974503 0.031507343 -0.066682264 0.043277793 -0.018426083 -0.026852
-0.087152466 -0.034641758 -0.08045257 0.05450567 0.0073462725 -0.03553559 0.043383755 0.08710734
0.055266522 -0.03308558 0.02076862 0.029607907 0.0010186657 -0.0546067 0.073199205 -0.08391326
0.07812508 -0.085045435 0.02791711 0.014285602 0.05385589 0.0831208 0.0494887 -0.050958235
-0.051583644 0.061968528 0.017621927 -0.058986723 -0.0073089898 0.08025771 -0.0022933036 0.0879338
0.082907535 -0.08816272 -0.030217942 -0.06316711 0.0072473437 -0.07406453 -0.06446492 0.05113276
0.05407002 -0.023843937 -0.02101273 -0.05312351 -0.02954156 0.07359781 -0.06780124 -0.08664936
-0.0287565 0.085616164 0.0053247586 -0.038377043 0.01917532 0.028773881 -0.071468875 0.017711408
0.08708579 0.0630329 -0.08509834 0.05811522 0.000634633 0.039297946 -0.07121344 0.08135622
-0.032867786 0.017163053 -0.075803995 -0.07873414 0.0023313537 -0.07262673 -0.04218678 -0.07661165
0.013376743 -0.06380548 -0.04095734 -0.014226489 0.037284233 0.036150925 0.0008684471 0.031029344
-0.07475723 0.06232422 -0.03616262 -0.045095082 -0.050749294 -0.057585187 -0.045451097 -0.019478947
-0.054122295 -0.02831538 -0.029774725 0.008070044 0.04936043 0.031186827 -0.055791143 -0.036717195
0.023111403 0.049059294 -0.05187997 0.052013405 -0.065427706 0.048497178 0.07471923 -0.029193878
-0.04912079 -0.02195286 -0.03130691 0.036938377 0.016115144 -0.008698806 -0.04688531 0.002064988
-0.0046803355 -0.021868147 -0.022011243 -0.02233646 -0.046876177 0.086729534 0.03914752 -0.0051521286
-0.049019195 -0.03169525 -0.029781595 -0.059157223 0.012933522 0.07887045 -0.077894054 0.005355336
00000000: aefc 8cbd 0015 593a bd28 6bbd 21f1 873d
00000010: 7c20 f3bc 087b cfbc f8ad 7ebc ee6f 5b3d
00000020: d1a0 883d 4548 a9bd f51c a0bd 51fe 863d
00000030: f00c e53c 9b52 90bd e7fd 2dbd 3d18 b23d
00000040: 38ed 99bc 4c59 c9bc 176f a03d 00d5 4e3a
00000050: e078 3fbb ed20 a3bd 6e6f a8bd 8604 6a3d
00000060: 77ac 99bd b62b 30bd f40c 83bc d032 da3c
00000070: b700 3abd 6df4 2dbd a83c 0c3c 81ec 2dbd
00000080: 707d 72bc d47f 2bbd 2085 f93b 1897 77bc
00000090: 497e 37bd d19b 2dbd 9765 88bd daf6 e7bc
000000a0: 4a38 1f3d 7e9c 0a3d 92a6 4c3d 4d22 9e3d
000000b0: 4011 ce3a 12f6 473d 1b83 a33d a4dd 0ebd
000000c0: 32b2 7f3d 5083 893c 803f a43c 140b 1cbd
000000d0: 3648 193d 200a 143c 6ace 6d3d f861 61bd
000000e0: 3edc 74bd 1034 b2bb ae95 7f3d c0cd 643c
000000f0: dc35 87bd acab 83bc a16f 8bbd 38aa 30bd
00000100: ec8a aa3c 5306 af3d 4e63 2b3d b0ec 0d3c
00000110: 7ab1 6fbd eeda 0d3d 3851 3fbc 98fa d43c
00000120: 1e0d 1c3d cc3c 87bd 1b82 813d 409b 793b
00000130: a7fc 9b3d fd3e 22bd ac2a a0bc dd30 36bd
00000140: 583d 083c 8358 86bd 0758 9ebd b014 ac3b
00000150: ec24 eb3c 8ca1 83bc b8dc 07bc 90c0 9e3c
00000160: 9122 ab3d e096 19bb e765 0fbd 00b3 26bb
00000170: b4ee a0bd 714e 01bd 03bb 903d 733c 83bd
00000180: 6f98 68bd a0a9 dfbb 0378 9cbd 8e19 153d
00000190: 388d 01bc f476 8b3c 14da f3bc 8197 823d
000001a0: 5028 a2bd f4be ee3c 6499 dc3c 99a5 0fbd
000001b0: d6ee 253d 60c9 04bc e4dc 44bd 4e0c 733d
000001c0: 9903 8e3d 2460 71bd e0db 71bb c58b 4bbd
000001d0: 566c 393d 2dd4 ab3d 3989 aa3d e121 4dbd
000001e0: 0279 793d 6698 2e3d 5668 403d d80d 013d
000001f0: b690 88bd 0e44 313d 4cf2 96bc baf8 dbbc
00000200: fe7c b2bd 84e4 0dbd 51c4 a4bd 5641 5f3d
00000210: 00b9 f03b c48d 11bd 2ab3 313d 5565 b23d
00000220: 265f 623d bf84 07bd f422 aa3c 488c f23c
00000230: c084 853a 46ab 5fbd 77e9 953d b7da abbd
00000240: 0b00 a03d 4d2c aebd 6cb2 e43c 280e 6a3c
00000250: fe97 5c3d 3d3b aa3d aab4 4a3d 95b9 50bd
00000260: 5f49 53bd b6d2 7d3d dc5b 903c 109c 71bd
00000270: 4080 efbb 275e a43d 404b 16bb a316 b43d
00000280: 6dcb a93d a88e b4bd 9e8b f7bc c25d 81bd
00000290: 207b ed3b 25af 97bd 2f06 84bd 9670 513d
000002a0: 8678 5d3d 5c54 c3bc e422 acbc 0a98 59bd
000002b0: 2401 f2bc 73ba 963d 60db 8abd 3875 b1bd
000002c0: c092 ebbc 8757 af3d 507b ae3b 3f31 1dbd
000002d0: 9015 9d3c 34b7 eb3c 465e 92bd 8417 913c
000002e0: 095a b23d 6517 813d 0a48 aebd 3a0a 6e3d
000002f0: 805d 263a e2f6 203d 5ad8 91bd 179e a63d
00000300: 5fa0 06bd 8899 8c3c 203f 9bbd 5d3f a1bd
00000310: a0c9 183b 53bd 94bd 0ccc 2cbd 92e6 9cbd
00000320: 202a 5b3c 73ac 82bd e2c2 27bd 3816 69bc
00000330: 5ab7 183d fe12 143d 80a8 633a 4031 fe3c
00000340: 521a 99bd ae47 7f3d 411f 14bd 9fb5 38bd
00000350: 7ede 4fbd 72de 6bbd ee2a 3abd 5092 9fbc
00000360: 57af 5dbd a8f5 e7bc 20ea f3bc 3838 043c
00000370: 2a2e 4a3d 847b ff3c 4185 64bd c564 16bd
00000380: 2054 bd3c 66f2 483d 1780 54bd 020c 553d
00000390: f6fe 85bd faa4 463d 6506 993d 0028 efbc
000003a0: e232 49bd 7cd6 b3bc ad3b 00bd b24c 173d
000003b0: e803 843c 7085 0ebc d00a 40bd c054 073b
000003c0: 805d 99bb d424 b3bc ec50 b4bc f4fa b6bc
000003d0: 3c01 40bd 419f b13d 2659 203d 30d3 a8bb
000003e0: 5ac8 48bd e1d2 01bd 88f8 f3bc d84e 72bd
000003f0: 20e7 533c d586 a13d eb86 9fbd d07b af3b

fc2.bias f4 [2]
0.009129494 0.015377268
00000000: e093 153c f0f0 7b3c
