IA/best_model.pth (torch, 7016 bytes, 4 tensors)

fc1.weight f4 [128, 6]
00000000: 8c03 9cbe ba0a ae3e 9217 993d 1008 ecbc
00000010: 48b5 df3d a22b 913e 4ad7 f83d a8e4 823d
00000020: 55b3 2dbe cc5e 213d ea69 7f3e ceba 42be
00000030: e06a ac3c 870a 3bbe 60c6 993c f0e8 433d
00000040: 4054 4abc 62ed 7b3e f4bc c03d ed60 74be
00000050: 6a8f a53d b862 50be ff94 3abe d869 ac3e
00000060: 90e0 8f3e 3113 a23d ec48 653e d8ef 7c3d
00000070: e82e 753e 30cc 173c 2c19 723e 7aa3 edbd
00000080: a02f f53d a90c a9be 7287 bb3e 62c0 24be
00000090: e85d f1bd 9815 563d b85d 243e ec80 983e
000000a0: 7095 3a3e 444f 113e a4fb 4d3d 3065 92bd
000000b0: 8b54 a7be 2ecd 843e 3834 80bd 4e5b a1bd
000000c0: f8a7 86be 8009 55bb 016c 19be 44c1 873e
000000d0: baaf 453e c254 c4bd 609e 51be 39e7 c8bd
000000e0: 8265 a23e 4b4b a63e 2bca 8e3e 725f 1a3e
000000f0: 5d6b 7bbe 41d2 a7bd 8d4d 93be 74a8 0ebd
00000100: 5294 673e 201b 01bc a8c5 a93c 0b91 79be
00000110: 005c 30bb 609b 07bc 7849 293d ba89 743e
00000120: 86c3 433e 747a 5a3e 0224 a13e 14cd 16be
00000130: 54be 3fbe 84e7 26bd 1b3e 0bbe 908b 24bd
00000140: b19e 1ebe 88cf 383d ba31 f73d ee55 913e
00000150: c9cf 62be 32ee df3d e0df 0bbd 2e26 923e
00000160: 7a80 a23d 52ab ff3d 63d9 953e c56b 09be
00000170: c6ad 923d 302d 1fbc 4491 b33d e403 a7bd
00000180: 31e5 b6bd 1684 c0bd c01d 883e 6e48 f5bd
00000190: 256b 77be e26d 4ebe 2026 9abd a809 f93d
000001a0: c004 8c3b 8ad2 8ebd 7f6b 83be aaf0 313d
000001b0: b8ab 8abd 6ecb 95be ca0e 253e 8c6c e3bc
000001c0: c2fe 45be 8558 983d 589f a93c f001 2a3c
000001d0: 36cb b33d 7808 8abc 5847 f23d 8156 9b3e
000001e0: 5b61 9a3e 23ad 873e 14f1 5ebd 388d 3cbd
000001f0: fce4 2c3e 1ebd 0f3e 902d 80be fc32 863c
00000200: 6bf2 a13e 1824 bfbc 485d 8fbd 2059 fe3d
00000210: 10ae 803d 7836 9b3d 4674 a8bd 75ed 8d3e
00000220: dad9 bdbd fa80 09be a76b 5abe f6e0 c7bd
00000230: 7566 42be 4e18 dc3d e4d2 163d ac57 60bd
00000240: 80c2 b13a 4ada 123e 649e 5c3d 991c 223e
00000250: 7fc7 183e 9c94 493e 8a8e 87be 2e3c a93e
00000260: b463 293d e41a 3ebe c067 d83b e205 f73d
00000270: ad9f 5e3e 3d21 d5bd 0bb6 9d3e 9c0f 23be
00000280: 6701 203e d830 7cbe 06c6 bfbd 3e95 013e
00000290: 40bf 0cbc fe12 bdbe e1f1 67be fd36 b73d
000002a0: 8ac3 58be 60cc fc3c a0e9 9b3c 234e 323e
000002b0: 1da2 4e3e e4a9 19bd fc51 4f3d c6d8 62be
000002c0: d0c2 a3bd c0ac 55be 7464 903e 8435 983e
000002d0: c63e 743d 3805 da3d 70ad 40be 7e7b 00bd
000002e0: 976d 0abe 24dd 01bd c448 ecbd 66df 923e
000002f0: 0a74 8c3d f053 3cbc 6c71 8abe 5477 923d
00000300: 9cb5 1a3e 736e a53d 2f63 02be c65d 31bd
00000310: 0dae 96be 76ca 68be 6096 813e 5601 903d
00000320: 4065 343c 449b c3be dc7e 2ebd 681b bfbd
00000330: e22e 883d acc5 163d a469 59be 6030 293c
00000340: 9db3 81be d0fb 1bbd 46cc babd 409f 48bd
00000350: 7c19 a73d c693 b3be 10ca 19be 78d7 88bd
00000360: 8c1f 9e3d 4c8e a5be ca3c 0c3e c0ca 92bb
00000370: 2500 353e 68c6 84be f567 2e3e b26a 8dbe
00000380: 2864 db3c 431c 353e f536 3ebe 5453 19bd
00000390: 465d d9bd 2897 2f3e b008 b7bc 860d e1bd
000003a0: 7862 c53d cc94 ef3d 5489 22bd e68b 50be
000003b0: 4c35 933d e823 163d d80b eebc b2f6 373d
000003c0: 26a0 153e 580d 433e ee79 b2be bab2 a43e
000003d0: e003 0ebe 408c 8c3e a68c 99be 40a2 2abe
000003e0: 4aa2 a23d 6008 f5bc f479 81be 4af1 a33e
000003f0: d020 d7bd 1021 173c bc2d 2abd 249a 103d
-0.30471456 0.3399256 0.07475199 -0.028812438 0.109232485 0.28353602 0.12150438 0.06391269
-0.16962941 0.039397046 0.24942747 -0.19016573 0.021047056 -0.18265735 0.01877135 0.04782957
-0.012349188 0.24602273 0.0941104 -0.23865099 0.08083995 -0.20350158 -0.182209 0.33674502
0.28101015 0.07913817 0.22391099 0.06175217 0.23943675 0.009264991 0.23642415 -0.11603446
0.119719744 -0.3301747 0.36626774 -0.16089013 -0.11785489 0.052266687 0.16051376 0.2978586
0.18221068 0.14190394 0.05028881 -0.07148206 -0.3268169 0.2593779 -0.0625996 -0.07878743
-0.26300025 -0.0032506883 -0.14982606 0.26514637 0.19305316 -0.09586479 -0.20470572 -0.09809727
0.3171807 0.3247932 0.27888617 0.15075472 -0.24552675 -0.081943996 -0.28770104 -0.03482862
0.22615173 -0.007880002 0.020724133 -0.24371736 -0.0026910305 -0.00827679 0.04132983 0.23880664
0.19117555 0.21335775 0.31472784 -0.14726669 -0.18724948 -0.040748134 -0.1359791 -0.04017216
-0.15490223 0.045119792 0.120700315 0.28385872 -0.22149576 0.10934104 -0.03414905 0.28544754
0.07934661 0.12483849 0.29267415 -0.13420017 0.07162051 -0.009715363 0.087679416 -0.08155039
-0.089304335 -0.094001934 0.26585197 -0.119767055 -0.24161966 -0.20159104 -0.07526803 0.12160045
0.004273027 -0.06973751 -0.2566795 0.043442406 -0.06771034 -0.29256767 0.16118923 -0.02776172
-0.19335464 0.07438759 0.020705864 0.0103764385 0.08778994 -0.016849741 0.11830014 0.30339435
0.301524 0.2649928 -0.05442913 -0.046033114 0.16884226 0.14036986 -0.2503476 0.016381733
0.31630263 -0.02333264 -0.07000214 0.12419343 0.062832 0.075787485 -0.082253024 0.27720228
-0.092700675 -0.13428107 -0.21330129 -0.09759705 -0.18984397 0.10746823 0.036822215 -0.05477111
0.0013561994 0.14341083 0.05386199 0.15831222 0.14919852 0.19685596 -0.26475936 0.33053726
0.04135485 -0.18564945 0.006604165 0.12061669 0.21740599 -0.1040673 0.3080295 -0.15923923
0.15625535 -0.24628007 -0.09363942 0.12654588 -0.008590519 -0.36928552 -0.22650863 0.08946035
-0.21168342 0.030859172 0.0190323 0.1741262 0.20179029 -0.037515536 0.050615296 -0.22153005
-0.07996142 -0.2086668 0.2820164 0.2972833 0.059630178 0.10645527 -0.18816161 -0.03136777
-0.13518368 -0.031705037 -0.115373164 0.28686064 0.0685807 -0.011494622 -0.2703966 0.07151666
0.15108341 0.08077707 -0.12733148 -0.04330232 -0.29429665 -0.22733483 0.2531004 0.07031505
0.011010468 -0.38204396 -0.04260145 -0.09331399 0.06649567 0.03680961 -0.21231705 0.010326475
-0.25332347 -0.038081944 -0.09120993 -0.048979998 0.08159158 -0.3507368 -0.15018487 -0.066817224
0.07720861 -0.32335126 0.13695064 -0.004479736 0.17675836 -0.25932622 0.17031844 -0.27620465
0.026781157 0.17686562 -0.18575652 -0.037432984 -0.106134936 0.17147505 -0.02234301 -0.109889075
0.09637922 0.116983026 -0.039681748 -0.20365867 0.071879 0.036655337 -0.029058382 0.044913
0.14611873 0.19048059 -0.3485865 0.32167608 -0.13868666 0.27450752 -0.2999012 -0.16663456
0.079411104 -0.02991122 -0.25288355 0.32020026 -0.10504305 0.009224191 -0.041547522 0.03530325

fc1.bias f4 [128]
00000000: 720b 71be 9408 35be d089 b63e e8e2 38be
00000010: 108c d63d 588f 70bd 0832 a63d e021 5c3e
00000020: 38ab dfbd 4cbf 643e 78ef ec3d e4c8 523e
00000030: f694 1bbe 4fa9 36be 06cb ccbe cabc 6dbe
00000040: 5028 8d3e 08cd cbbd dc4e a13d 5e53 bdbe
00000050: 06f6 993e 6ca5 acbd 08f5 eb3d 2732 32be
00000060: 6d46 c8be 500e 81bd f80c 583e 808d ea3b
00000070: 22f3 a03e dcdd 313e 1804 b43e a031 bc3d
00000080: 1068 a1be 08f7 433d d833 f5bd 680d 453d
00000090: dc31 ba3e 16e1 48be 9874 6e3d 3004 393d
000000a0: 1778 8fbe 740c 283e 8bd2 3abe 88f5 8c3e
000000b0: 40a9 9ebe 8087 a4be 5075 f9bd f084 c8bd
000000c0: 64bb 62be e423 343e b053 ab3e b4c6 d7bd
000000d0: cec3 91be 1895 ce3d 301f dc3d c0c6 ab3b
000000e0: 466d a23e bcd1 73be 3059 ac3d df0d b1be
000000f0: f452 15be c437 b0bd ec70 bfbe 53b9 c0be
00000100: 6cd5 a8be ee50 913e 97e5 36be c203 d03e
00000110: 1665 84be acac c03e 4646 8fbe e6ca ccbe
00000120: 58dc a8be a877 8e3e f1cc a6be 8085 d23c
00000130: 067d 7cbe 5093 06be b4f4 1a3e 605a a0be
00000140: 1863 a8be 844d 7e3e 8ad6 3abe 84ff 353e
00000150: 3cf9 a03e 5cb9 aa3e c8f8 5b3e 0062 803c
00000160: 70e5 983e bceb ac3d 7015 a9bd 28f3 31bd
00000170: b320 7fbe 082b 263e ae60 86be a27d 0fbe
00000180: 68f3 783e aa90 b23e 18e0 733e 1c5e dfbd
00000190: d091 e03c c080 cf3b c0de 09be f4fc 273e
000001a0: 7989 b8be 98ee 06be fee0 893e 0803 ac3e
000001b0: e2f4 80be 68d8 6bbd 00c0 393a 6042 65bc
000001c0: 314a cebe 34da c53e 1547 c4be 70c2 61bd
000001d0: 585d 2c3e 6aba 4ebe 603a 853e c055 593c
000001e0: 36c7 8b3e ac03 ecbd c46b 5bbe 0231 9f3e
000001f0: aa79 a4be e289 863e 801f 8d3b 1e80 b03e
-0.23539522 -0.17679054 0.35652018 -0.18055308 0.104759336 -0.058730453 0.081150115 0.21497297
-0.10921329 0.22338599 0.115691125 0.20584446 -0.15193543 -0.17838024 -0.39998645 -0.23216549
0.27569818 -0.09951216 0.07876369 -0.36977667 0.30070513 -0.08429989 0.115213454 -0.17401944
-0.3911623 -0.06301558 0.21098697 0.0071579814 0.31435496 0.17369789 0.35159373 0.09189153
-0.31524706 0.04784301 -0.11972779 0.04810849 0.36366165 -0.19617113 0.05821666 0.04517001
-0.2802131 0.16411 -0.18244378 0.27531075 -0.30988503 -0.32134628 -0.12180579 -0.09790981
-0.22141796 0.17591816 0.33462286 -0.105359465 -0.284697 0.10087031 0.10748136 0.0052421987
0.31723994 -0.23810476 0.08415449 -0.34580895 -0.14582425 -0.086043864 -0.3739084 -0.3764139
-0.32975328 0.28382057 -0.17861019 0.40627867 -0.25858372 0.37631738 -0.27983302 -0.3999855
-0.3298061 0.27825665 -0.32578233 0.025698423 -0.24657068 -0.13142133 0.1513241 -0.3131895
-0.32888103 0.24834257 -0.18245903 0.17773253 0.3144015 0.33344543 0.21481621 0.01567173
0.29862547 0.084434 -0.08256042 -0.043444782 -0.24914818 0.16227353 -0.26245636 -0.14012769
0.24311602 0.34875995 0.23815954 -0.10906622 0.027413279 0.006332487 -0.13463879 0.16405088
-0.36042383 -0.13176954 0.26929468 0.33596063 -0.2518683 -0.057579428 0.00070858 -0.013992876
-0.4029098 0.38643038 -0.3833548 -0.05511707 0.16832483 -0.20188299 0.260211 0.013265073
0.27300423 -0.11524138 -0.21427828 0.31092077 -0.32124072 0.2627707 0.0043067336 0.34472746

fc2.weight f4 [2, 128]
00000000: a8fb 81bc c8b3 653c 4f7f 9f3d 52c2 6b3d
00000010: ea8a 683d e65a 83bd bf84 a43d 3039 aabd
00000020: 5bec 803d 6611 b1bd 6980 0abd 832d 9b3d
00000030: baaf 1abd aed9 80bd b081 3e3c 38b6 11bc
00000040: fe92 32bd fec3 1dbd 0ab2 93bd be5c 473d
00000050: 062a d8bc 04d6 32bd 900b 58bc c4c1 b6bc
00000060: eea4 2a3d 3872 7bbd 6052 403c a041 8bbc
00000070: 3b35 0fbd 00ad 81bb fc08 84bd acaf 28bd
00000080: c21e 6ebd 163a abbd 9776 953d c6aa 743d
00000090: 00eb bf3b 8259 133d a007 e4bb d084 023c
000000a0: 9312 a43d 80b1 a3ba f3fa 8f3d cd32 8cbd
000000b0: 4a32 92bd b64e 7abd 8ca1 a2bc 6b92 96bd
000000c0: 6faa b23d 96aa 2e3d b062 a03b fc1d dbbc
000000d0: 8d59 933d 80c0 ae3a 0d67 953d b063 ce3c
000000e0: 1a3c 7e3d ac80 f8bc d0eb 23bc ccb7 98bc
000000f0: 5418 db3c e0e8 e13c 3ee5 12bd 44fd 943c
00000100: 4a9b 243d 20d0 00bb 8097 f63b 28c2 993c
00000110: 6278 dfbc 1886 2fbd 5a06 b0bd a49d 8fbc
00000120: 5932 88bd 31fa 7dbd 268c 253d 4ec4 743d
00000130: a652 4a3d 8450 af3c 317f 78bd 4efa 0f3d
00000140: 008a b03a 0abc 793d 98d2 4abc 9ebc 513d
00000150: 980d 2a3c 0d7e 8c3d fc9b 41bd cc82 a1bd
00000160: b27e 4f3d 15ef 97bd c252 6c3d 5e10 163d
00000170: fb8c 2cbd 60fc ad3b 5b43 5cbd d29f e1bc
00000180: 8b18 99bd e83e 4bbd 9caa b93c f22d 183d
00000190: b84b 113c d0b9 873c c0a6 9a3c 9edd 593d
000001a0: d08f 25bc c4fe 103d 8db7 983d 4031 e93a
000001b0: e420 febc 00d3 333a 074f 923d dc01 f93c
000001c0: 975d 913d 0020 8137 45ea 4dbd a057 fa3b
000001d0: eac8 92bd 47f4 8fbd cee0 2a3d d131 963d
000001e0: bb79 95bd d2df 253d 6077 bbbc f6e2 4c3d
000001f0: 474a 8d3d c03b 923b 94dd c0bc a072 bcbc
00000200: 6059 d83b 108f fd3b d4e6 69bd 6cda 58bd
00000210: 93ce 11bd cc01 f83c f1bb 823d c5eb afbd
00000220: e261 d4bc 87ae b43d 1175 a83d 56e6 51bd
00000230: d881 22bd f0b8 d5bb 82d3 0cbd 8ce4 2dbd
00000240: f192 863d 6013 a83c a86c 49bd 04fb cbbc
00000250: 9c38 f53c 279e 5ebd 9ec6 33bd 7203 283d
00000260: 7d09 a13d ae66 9dbd dae5 4b3d 0119 a03d
00000270: 69b1 833d e081 023d d1bc 8a3d 00d6 e1bc
00000280: dea9 7e3d 2126 843d 8a57 f1bc feb1 603d
00000290: e818 06bd b71d 9a3d 6138 b4bd eae2 5dbd
000002a0: 962d 07bd a05d 02bc 3b66 aebd 524a 3abd
000002b0: e43d 8bbc 82c1 483d bbc8 50bd d74f 7cbd
000002c0: 685e 9a3c f4d6 34bd 1da5 803d 25ae 66bd
000002d0: 0ce3 f43c 5637 373d 58b6 48bd c213 553d
000002e0: 3c39 983c b09a 8bbb 359c b2bd 82dd 543d
000002f0: 3ba3 a4bd 1b67 13bd 58c9 ee3c c848 ea3c
00000300: 8b84 1fbd e2da 82bd c891 3ebd 8e04 1a3d
00000310: 0016 7fb9 e6e4 3d3d cac9 503d da83 073d
00000320: 71f6 823d 91aa 983d a6d1 52bd e817 4c3c
00000330: 03e5 a13d 99ef a43d b010 bc3c f086 913c
00000340: 47b9 0abd 411b a63d 8474 9abd e00e 023c
00000350: e117 15bd 0869 ec3c d2b7 83bd 5ff7 a13d
00000360: fe83 4c3d 6d81 43bd 5d6a 09bd 43ef 813d
00000370: 5040 6cbc 6221 643d 4458 f33c 38c1 873c
00000380: c54f 55bd 6c19 bcbc e455 76bd 201e 063b
00000390: 2aab 043d 8603 213d 4ec0 85bd b26f 333d
000003a0: cd6c 1fbd 46a2 7cbd 4f5d 883d 8ea6 74bd
000003b0: e2a5 1cbd 75e7 883d 5a33 afbd a022 0bbd
000003c0: fdb8 56bd d05d 893c 76a0 5b3d 504e 203c
000003d0: b2ab efbc 88e9 95bc eefc 93bd c059 56bc
000003e0: 2ea0 95bd 00c8 813a 2f4a b1bd a2fb 17bd
000003f0: 4b14 8b3d 3017 0a3d 7ae9 233d 8003 113d
-0.01586707 0.014019914 0.07787954 0.057558365 0.056773104 -0.06413822 0.08033132 -0.08311689
0.06295081 -0.086458966 -0.033813868 0.0757704 -0.037765242 -0.06291519 0.0116276 -0.008893542
-0.043597214 -0.03851699 -0.07211693 0.04867243 -0.026387226 -0.043661132 -0.01318635 -0.022309192
0.041661195 -0.061388224 0.01173839 -0.016999066 -0.034962874 -0.003957391 -0.06447026 -0.04118316
-0.0581348 -0.083606884 0.0729801 0.059733175 0.0058568716 0.035974033 -0.006958917 0.007966235
0.08011355 -0.0012488812 0.07030287 -0.06845627 -0.07138498 -0.06111022 -0.019852422 -0.07352146
0.08723914 0.042643152 0.004894577 -0.026747696 0.07194815 0.0013332516 0.07295046 0.02519402
0.062069036 -0.030334793 -0.010004953 -0.018642329 0.026744999 0.027576864 -0.035863154 0.018187173
0.040187158 -0.0019655302 0.0075253844 0.018769339 -0.027279083 -0.04285249 -0.085949615 -0.017531224
-0.06650228 -0.06200618 0.04041686 0.059757523 0.049395226 0.021400698 -0.060668174 0.03515082
0.0013468862 0.060970344 -0.012379311 0.05120527 0.010379218 0.0685998 -0.0472679 -0.07886276
0.050657935 -0.07418648 0.05769611 0.036636703 -0.042126637 0.0053096265 -0.053775173 -0.027542029
-0.07475384 -0.04962054 0.02266436 0.037153192 0.00886815 0.016568094 0.01887834 0.053189866
-0.010105088 0.035399213 0.074568845 0.0017791167 -0.031021543 0.00068597496 0.071439795 0.030396394
0.07097929 1.53929e-05 -0.050272245 0.0076398402 -0.071672276 -0.07029014 0.041718297 0.073337205
-0.07298609 0.040496655 -0.02288407 0.050021134 0.06898933 0.004462689 -0.023543157 -0.023003876
0.006602451 0.0077380016 -0.0571049 -0.05294268 -0.035597395 0.030274294 0.06383503 -0.08589891
-0.02592558 0.08822351 0.08225454 -0.051245056 -0.03967461 -0.0065222904 -0.034381397 -0.042454287
0.065709956 0.020517051 -0.04917589 -0.024899967 0.02993422 -0.054350045 -0.043890588 0.04101891
0.07863138 -0.076856 0.04977975 0.07817269 0.06430323 0.03186214 0.06774295 -0.027567863
0.062173717 0.06452585 -0.029460687 0.054857247 -0.032738596 0.07525199 -0.08799816 -0.05417148
-0.03300246 -0.007956892 -0.08515593 -0.045481034 -0.016997285 0.04901267 -0.05097268 -0.06159958
0.018843845 -0.044150308 0.06281493 -0.05631842 0.02989342 0.044730507 -0.04900202 0.052020796
0.018581979 -0.0042603835 -0.087212004 0.05196906 -0.08038946 -0.035987 0.029148743 0.028599158
-0.038944762 -0.06389405 -0.046525747 0.037602 -0.0002432689 0.046360873 0.05097369 0.033084728
0.06394661 0.07454408 -0.051469468 0.012456872 0.07905009 0.08053512 0.022957176 0.017764539
-0.0338681 0.08110667 -0.07541755 0.007938117 -0.036399726 0.028858677 -0.06431545 0.079085104
0.049930565 -0.047730852 -0.0335487 0.06344464 -0.01441963 0.0556959 0.029705174 0.016571626
-0.052078027 -0.02296134 -0.060140505 0.0020464733 0.032389797 0.03931 -0.0653082 0.043807693
-0.03892212 -0.061678194 0.06658422 -0.05972915 -0.038244136 0.06684772 -0.085547164 -0.033968568
-0.052422512 0.016768366 0.053619824 0.009784296 -0.029256675 -0.018299833 -0.07225977 -0.0130829215
-0.073059425 0.0009901524 -0.086567275 -0.03710521 0.0679098 0.03371352 0.040017582 0.03540373

fc2.bias f4 [2]
00000000: c0ce 9a3b f803 63bd
0.0047243536 -0.055423707
