IA/best_model.pth (torch, 6696 bytes, 4 tensors)

fc1.weight f4 [128, 6]
0	0x3df080a9	0.1174329
1	0x3d80c56a	0.06287654
2	0x3dc4bda1	0.09606481
3	0x3d655f84	0.055999294
4	0x3e35542b	0.17707889
5	0xbda13362	-0.078711286
6	0xbddcdbf9	-0.10784144
7	0x3d7ccfda	0.06172166
8	0x3d6c8561	0.057744388
9	0x3d75de40	0.060026407
10	0xbdc17711	-0.09446538
11	0xbd28b2da	-0.04118619
12	0x3d2fda73	0.04293294
13	0x3c83557b	0.016031971
14	0x3daabe48	0.083370745
15	0x3e0de22b	0.13855807
16	0x3db664e0	0.08905959
17	0x3da5cd5a	0.08095808
18	0xbd422d5a	-0.047406532
19	0x3d8669d2	0.065631524
20	0xbe1feaed	-0.15616961
21	0x3dc24e88	0.09487635
22	0x3cbe5cfa	0.023237694
23	0xbd760ead	-0.06007259
24	0x3e5679ea	0.20944944
25	0xbd06a375	-0.03287073
26	0xbd49a859	-0.049232814
27	0xbe60916c	-0.21930474
28	0x3df5160c	0.11967096
29	0xbe1ac77e	-0.15115163
30	0xbda19dcd	-0.07891426
31	0x3e15b0f3	0.14618282
32	0xbdb153cd	-0.08658562
33	0xbd23b843	-0.039970648
34	0xbcd5f7a4	-0.02611906
35	0xbc8ba82a	-0.01704796
36	0x3dafedee	0.08590303
37	0xbe007995	-0.1254638
38	0xbc816425	-0.015794823
39	0x3d18cd6c	0.03730528
40	0x3c112c0f	0.008860602
41	0x3d7570fc	0.059922203
42	0x3e0abdee	0.13549015
43	0x3c11aaa0	0.008890778
44	0x3db57580	0.08860302
45	0xbde6be74	-0.11266795
46	0xbdb73616	-0.08945863
47	0xbd880600	-0.066417694
48	0x3c3e624a	0.011620114
49	0x3afdde4f	0.0019368621
50	0xbd1318c6	-0.035912298
51	0x3d55b301	0.052172665
52	0x3dd73827	0.10508757
53	0x3c25aa02	0.010111334
54	0x3d4970e6	0.049179934
55	0xbda0d02c	-0.07852206
56	0x3e1f7bc2	0.15574554
57	0x3b6f36fb	0.0036501277
58	0x3c4eb86e	0.012617214
59	0xbcbb4c2e	-0.022863474
60	0xbd91ba2f	-0.0711559
61	0x3d586ec4	0.05284001
62	0x3c3e040f	0.011597647
63	0xbdeb1658	-0.11478871
64	0xbb845f6f	-0.004039697
65	0xbd5129f3	-0.051065397
66	0x3dd073ba	0.10178323
67	0xbcef3792	-0.029201303
68	0xbced8dee	-0.028998341
69	0x3c9fe425	0.019517967
70	0x3d9c98a6	0.07646303
71	0x3d598b30	0.053111255
72	0x3cd31188	0.025765195
73	0xbd180cde	-0.037121646
74	0xbd9bf631	-0.07615317
75	0xbe000187	-0.12500583
76	0xbd95b0b6	-0.073090956
77	0xbdd4b69b	-0.10386392
78	0x3e447d05	0.19188316
79	0x3d9899ac	0.074511856
80	0x3cd1fb89	0.025632637
81	0xbdc3af34	-0.09554902
82	0xbc1f223e	-0.009712754
83	0xbcc6e7be	-0.024280425
84	0x3d71f4c5	0.05907132
85	0x3dc0799c	0.09398195
86	0x3d989e50	0.07452071
87	0xbc63eec7	-0.013911909
88	0xbd47e14a	-0.048798837
89	0x3da358c4	0.07975915
90	0xbdd33b81	-0.10314084
91	0xbd3b6727	-0.04575267
92	0xbe09f155	-0.13470967
93	0xbd7856ae	-0.06062954
94	0x3e22c44a	0.15895191
95	0xbdd6ce40	-0.10488558
96	0xbd89dcb9	-0.06731553
97	0xbc112788	-0.008859523
98	0x3c13243b	0.008980806
99	0x3dce61f1	0.100772746
100	0x3d730230	0.059328258
101	0xbda08aac	-0.078389496
102	0xbcb9115d	-0.022591287
103	0xbda7a1e9	-0.08185179
104	0x3db7ee0a	0.08980949
105	0xbe0099ff	-0.12558745
106	0xbd119568	-0.035542876
107	0xbd0b01ce	-0.033937268
108	0xbbb9f6b2	-0.0056751603
109	0x3db1bd26	0.08678655
110	0x3d341e45	0.04397418
111	0xbe44c67c	-0.19216341
112	0xbd3fb58d	-0.046804
113	0x3deaead6	0.11470573
114	0xbcd41250	-0.025887638
115	0x3d5ea524	0.05435671
116	0x3d57057e	0.052495472
117	0x3d98e62c	0.07465777
118	0x3d046d02	0.03233052
119	0x3dd5a78e	0.10432349
120	0x3d7fecb4	0.062481597
121	0x3d0f14be	0.03493189
122	0xbb53c0a7	-0.0032310875
123	0x3db71af0	0.08940685
124	0x3d150ca1	0.036388997
125	0xbd415c37	-0.047207084
126	0xbc8f43f9	-0.017488467
127	0xbe58c1ee	-0.21167728
128	0x3e2f31fb	0.1710891
129	0xbe8a6230	-0.27028036
130	0xbdb25652	-0.087078705
131	0xbdd0febd	-0.102048375
132	0x3e38b0fc	0.18036264
133	0xbe944c2d	-0.28964368
134	0x3d916818	0.070999324
135	0x3a63065e	0.00086603116
136	0x3b935522	0.0044962326
137	0xbc685945	-0.01418144
138	0x3c4d6342	0.012535872
139	0x3da06f17	0.07833689
140	0x3d242c50	0.040081322
141	0xbe17f80c	-0.14840716
142	0xbdc9cb06	-0.09853177
143	0x3b48e076	0.0030651367
144	0xbd31e7ab	-0.043433826
145	0xbda320f6	-0.07965271
146	0xbdcacbb0	-0.099021316
147	0xbda2f54b	-0.07956942
148	0xbd56d64a	-0.052450456
149	0x3db929ac	0.090411514
150	0xbd042c9c	-0.032269105
151	0x3d63397d	0.055474747
152	0xbd4da5b2	-0.050206847
153	0x3db24232	0.08704032
154	0x3d757f65	0.059935946
155	0x3d8ff13c	0.07028434
156	0xbc1a0a36	-0.009401849
157	0x3e2169a2	0.15762952
158	0x3dd7108e	0.105012044
159	0xbd4fea80	-0.050760746
160	0x3e0d803d	0.1381845
161	0x3d81101f	0.06301903
162	0x3d3f2052	0.046661682
163	0x3d233de2	0.039853938
164	0xbd16072c	-0.036627933
165	0xbddd54b0	-0.108071685
166	0x3ca70678	0.020388827
167	0x3da90f34	0.08254853
168	0xbe0fc074	-0.14038259
169	0xbb8eb967	-0.004355598
170	0x3d127759	0.03575835
171	0xbd46ccac	-0.048535034
172	0xbdbe3616	-0.0928766
173	0x3c946d42	0.018118504
174	0xbe3674fc	-0.17818063
175	0xbd08caca	-0.03339652
176	0x3dbec404	0.09314731
177	0xbdd8e334	-0.105902106
178	0x3b5ebfd7	0.0033988857
179	0x3d1b0066	0.037842177
180	0x3ce5e905	0.028065214
181	0x3c76cdd2	0.01506372
182	0xbe013f54	-0.12621814
183	0x3cb45785	0.022014389
184	0xbdf02f9c	-0.11727831
185	0xbcf43399	-0.02980976
186	0x3bff52f8	0.007791873
187	0x3d169f91	0.036773268
188	0xbdd57810	-0.10423291
189	0x3c9233fc	0.017847054
190	0x3dbffd59	0.09374494
191	0x3df46052	0.11932434
192	0xbd81f248	-0.063450396
193	0xbe8d3e76	-0.27586716
194	0xbd26fd8a	-0.040769137
195	0x3be7f23d	0.0070784376
196	0x3e15540c	0.14582843
197	0xbddc6a2a	-0.10762437
198	0xbd0d950a	-0.034565963
199	0xbc43a7dc	-0.011941876
200	0x3d73491b	0.05939589
201	0x3cb58c7c	0.022161715
202	0x3d9c8dc2	0.07644226
203	0x3cb1e8ab	0.02171739
204	0xbe246992	-0.16055897
205	0xbdb78cf6	-0.08962433
206	0x3d63bf7e	0.055602543
207	0x3da6060b	0.08106621
208	0x3d0e32de	0.03471648
209	0x3e2818f8	0.16415775
210	0xbd8c3e65	-0.06847838
211	0xbd5cde5a	-0.05392299
212	0x3d7392ab	0.059466045
213	0x3d85481f	0.06507897
214	0x3cadc0ea	0.021210153
215	0x3dae975e	0.08524965
216	0x3e270c9c	0.16313404
217	0xbd062e92	-0.032759257
218	0x3deb38e2	0.11485459
219	0xbe32969a	-0.17440262
220	0xbaf9145c	-0.001900326
221	0x3e59013d	0.21191879
222	0x3d797088	0.060898334
223	0xbda9cf1e	-0.082914576
224	0xbd21f7dc	-0.039543018
225	0xbd5b561c	-0.053548917
226	0xbe0ae3a9	-0.13563408
227	0xbd60b339	-0.05485842
228	0xbb860e03	-0.004091026
229	0x3d841e23	0.064510606
230	0xbc1d2886	-0.009592181
231	0x3e525048	0.20538437
232	0x3c41cd10	0.011828676
233	0x3c706543	0.01467258
234	0xbd71483c	-0.05890678
235	0x3ca55206	0.020180713
236	0xbd821416	-0.06351487
237	0x3d026790	0.031837046
238	0x3c0d66d9	0.008630478
239	0xbe2860b6	-0.16443142
240	0xbc75cbe9	-0.015002229
241	0x3d8ed5a6	0.06974344
242	0xbc5d3a0e	-0.013502611
243	0x3d8d2a91	0.068928845
244	0x3ded2be0	0.11580634
245	0x3d48f75f	0.049064036
246	0x3e12a652	0.14321259
247	0x3da614ba	0.08109422
248	0xbccba754	-0.024860062
249	0x3cae61eb	0.021286925
250	0x3c7226e0	0.014779776
251	0xbe320ff8	-0.17388904
252	0x3e52143c	0.20515531
253	0xbd1d24d3	-0.038365196
254	0xbe068618	-0.1313709
255	0x3e2e69a3	0.17032485

fc1.bias f4 [128]
0	0xbe84e467	-0.25955507
1	0xbec28da6	-0.37998694
2	0xbe9fd44e	-0.31216663
3	0xbe4e813c	-0.20166487
4	0x3eaa4dc8	0.33262467
5	0x3e35e2c0	0.1776228
6	0x3e92d058	0.2867458
7	0xbead951f	-0.33902833
8	0xbecb31c6	-0.39686412
9	0x3eb22c04	0.34799206
10	0xbe85c93d	-0.26130095
11	0x3e9683aa	0.29397327
12	0xbd376bf8	-0.0447807
13	0x3e28895c	0.16458648
14	0xbbbac480	-0.005699694
15	0xbd1a9d18	-0.037747473
16	0xbcbf1d60	-0.023329437
17	0x3e4aae30	0.1979301
18	0x3e8e9e32	0.27855068
19	0x3eb6b0b2	0.35681683
20	0x3e7f1680	0.24910927
21	0xbe5c07d8	-0.21487367
22	0x3df26140	0.11834955
23	0x3e17fae8	0.14841807
24	0xbd2cc810	-0.042182982
25	0x3e5bbc44	0.21458536
26	0xbecf0a30	-0.4043746
27	0x3dd16228	0.102238
28	0xbe6153eb	-0.22004668
29	0xbe215b7e	-0.15757558
30	0xbe05b412	-0.13056973
31	0xbdec1598	-0.11527556
32	0x3e72aa04	0.23697668
33	0x3e84dc92	0.25949532
34	0xbe3ef6a6	-0.18648776
35	0x3d317c68	0.043331534
36	0x3ea6f190	0.32606173
37	0x3db5f1dc	0.08884022
38	0x3ec93d44	0.39304554
39	0xbeac9406	-0.33706683
40	0x3eb9c8a4	0.3628589
41	0xbe8b4a4a	-0.27205116
42	0xbe9e4d47	-0.30918333
43	0x3de0be80	0.10973835
44	0xbe2d750a	-0.16939178
45	0xbe5355b1	-0.20638157
46	0xbd93ab70	-0.072104335
47	0xbe9ce05b	-0.3063992
48	0xbdb69dec	-0.0891684
49	0xbe2e15e1	-0.17000534
50	0x3d3af508	0.045643836
51	0x3ec89f06	0.39183825
52	0x3cae41e0	0.021271646
53	0xbe3e9580	-0.18611717
54	0x3d402d88	0.046918422
55	0x3eb1981e	0.3468637
56	0xbe82f9ad	-0.25581113
57	0xbe4009a5	-0.18753679
58	0xbdf731bc	-0.12070033
59	0xbe57010f	-0.20996498
60	0xbeb2021e	-0.3476724
61	0xbeb4c6be	-0.35307878
62	0x3ecb6724	0.39727128
63	0xbdd7ebd4	-0.105430275
64	0x3e9c1b8a	0.3048976
65	0x3e1f3c78	0.15550411
66	0xbd30b720	-0.04314339
67	0x3d379a88	0.044825107
68	0xbec69ec4	-0.38793004
69	0xbd7d1e58	-0.061796516
70	0x3e5d2b20	0.21598482
71	0x3d05b060	0.032638907
72	0xbe89102a	-0.26770145
73	0xbeabde2d	-0.33567944
74	0xbec7d857	-0.39032242
75	0xbe96f9f8	-0.29487586
76	0xbe3cae21	-0.184258
77	0x3e088d38	0.1333512
78	0x3e27b134	0.16376191
79	0xbeb685ff	-0.35649106
80	0x3c0e6ec0	0.008693397
81	0xbe12530a	-0.1428949
82	0x3ea0973c	0.31365383
83	0xbe7f5318	-0.24934042
84	0x3e3b2a50	0.1827786
85	0xbce7b070	-0.028282374
86	0xbde0a9e0	-0.10969901
87	0x3e96f874	0.2948643
88	0x3e7a1ec0	0.24425793
89	0x3e2f5d70	0.17125487
90	0x3e9d189c	0.30682838
91	0x3e7eafe4	0.24871784
92	0xbdeafed4	-0.11474386
93	0x3e1c1b84	0.15244871
94	0xbe734218	-0.23755682
95	0x3e5cb4d8	0.21553361
96	0x3eb40bda	0.35165292
97	0x3dc4c008	0.096069396
98	0x3e8920da	0.26782876
99	0x3cd4ae40	0.025961995
100	0x3dc77920	0.097399
101	0x3e871b4a	0.26388007
102	0xbd077c00	-0.03307724
103	0x3df0c4e8	0.11756307
104	0x3dd36520	0.103220224
105	0x3ebac2ec	0.3647684
106	0xbecd4481	-0.40091327
107	0x3ec1bf7e	0.3784141
108	0x3e640188	0.22266209
109	0x3c2dbe00	0.010604382
110	0xbea61408	-0.32437158
111	0xbd4419b0	-0.04787606
112	0x3e4bd41c	0.19905132
113	0x3eb50122	0.35352427
114	0xbeafeed7	-0.34361908
115	0xbe1331ce	-0.14374468
116	0xbe5f9d65	-0.21837385
117	0xbe16c546	-0.14723691
118	0x3e82feaa	0.25584918
119	0xbe261c31	-0.16221692
120	0xbe10e114	-0.1414836
121	0xbecab8b7	-0.3959405
122	0xbe5036c9	-0.20333399
123	0x3d0e7d58	0.034787506
124	0x3eb6eac0	0.35725975
125	0xbdb37c8c	-0.0876399
126	0x3e725270	0.2366426
127	0xbeab94b1	-0.3351188

fc2.weight f4 [2, 128]
0	0xbd70d131	-0.05879325
1	0x3d743be6	0.059627436
2	0x3d8cf213	0.068821095
3	0xbd401d96	-0.046903215
4	0xbbea8990	-0.007157512
5	0xbd93449c	-0.071908206
6	0x3d95bfbd	0.07311962
7	0x3c7dd3a0	0.01549235
8	0xbd4e61d0	-0.05038625
9	0x3da8f449	0.08249719
10	0x3a03ce80	0.00050280243
11	0xbda8d10c	-0.082429975
12	0x3ba46f50	0.0050181523
13	0x3b355a80	0.002767235
14	0xbcf1e518	-0.029528186
15	0x3c059dd8	0.008155309
16	0xbd3ff202	-0.046861656
17	0xbd5c9efe	-0.053862564
18	0xbc9f7f2c	-0.01946982
19	0xbd163729	-0.0366737
20	0xbdabca99	-0.08388252
21	0x3caf92a4	0.021432228
22	0xbce7d400	-0.028299332
23	0xbd674325	-0.05646052
24	0x3d3bdb66	0.04586353
25	0xbd4255c7	-0.047445085
26	0xbda14cfc	-0.07876012
27	0x3c6d4d90	0.014483824
28	0x3d9b47e1	0.07582069
29	0xbb3487c0	-0.0027546734
30	0xbc611700	-0.013738394
31	0xbd94df72	-0.07269181
32	0x3cef0b94	0.029180326
33	0xbd090035	-0.033447463
34	0x3d90f653	0.070782326
35	0xbd64deae	-0.055876426
36	0x3d592936	0.053017817
37	0xbba56250	-0.00504712
38	0x3be6de00	0.0070455074
39	0xbdaa1275	-0.08304302
40	0xbd4624b4	-0.048374847
41	0x3d141ed2	0.036162205
42	0x3d8904ad	0.06690345
43	0xbd365ea0	-0.044523835
44	0xbd8a894c	-0.067644686
45	0x3d320e12	0.04347045
46	0x3cc681c0	0.024231791
47	0xbd9bd74a	-0.076094225
48	0x3d9aed4b	0.07564791
49	0x3c9f8868	0.019474223
50	0x3d86597b	0.06560036
51	0xbb4f8000	-0.0031661987
52	0xbda11b39	-0.078665204
53	0xbd1dd242	-0.038530596
54	0x3d3ef422	0.046619542
55	0x3d478a62	0.048715957
56	0x3d6d8462	0.05798758
57	0x3d33798e	0.043817095
58	0x3d590e7a	0.05299232
59	0x3c832c7c	0.016012423
60	0xbda9aad3	-0.08284535
61	0xbcf75b82	-0.030195002
62	0x3c034730	0.008012578
63	0xbdada971	-0.08479584
64	0x3d6abdea	0.057310022
65	0xbdaf9386	-0.0857306
66	0x3d607416	0.05479821
67	0xbaed1ac0	-0.0018089637
68	0xbd23ed02	-0.04002095
69	0xbd237050	-0.03990203
70	0xbd5068cc	-0.050881192
71	0xbdb247ad	-0.08705077
72	0x3ce32398	0.027726933
73	0x3d1f617e	0.038911335
74	0xbbde8660	-0.006790921
75	0x3d7540e2	0.05987633
76	0x3d93113d	0.07181022
77	0x3d043eac	0.03228633
78	0x3afb9c80	0.0019196421
79	0xbd27f031	-0.04100055
80	0xbd4d4bad	-0.050121
81	0xbd9bec63	-0.076134466
82	0x3cd9fb4c	0.026609086
83	0x3d60ade2	0.054853328
84	0x3d8b5e9d	0.068051554
85	0xbd8e56a4	-0.06950119
86	0x3d07edea	0.033185877
87	0xbd01e8d0	-0.031716168
88	0xbcd666b0	-0.026172012
89	0xba2a6280	-0.0006499663
90	0x3c97f524	0.01854951
91	0x3da38385	0.0798407
92	0x3cb69e8c	0.022292398
93	0xbd9ffa72	-0.078114405
94	0xbda913ac	-0.08255705
95	0x3daf50b3	0.08560314
96	0x3cb71968	0.022350982
97	0x3c5999e0	0.013281316
98	0xbcac112c	-0.021004282
99	0xbda6c387	-0.08142763
100	0x3cd96bd8	0.026540682
101	0xbda0aec8	-0.07845837
102	0xbc70cd58	-0.014697395
103	0x3d22a132	0.03970451
104	0x3d4eb602	0.050466545
105	0xbd80e6ac	-0.06293997
106	0x3d13e080	0.03610277
107	0x3d3899fa	0.04506872
108	0xbd8bcd63	-0.06826284
109	0x3d1dbcd2	0.03851015
110	0x3c83f140	0.016106248
111	0x3c67a528	0.014138497
112	0xbd3cb53c	-0.046071276
113	0x3cc9caf0	0.024632901
114	0x3cb1c280	0.02169919
115	0xbcf4f042	-0.02989972
116	0xbdae7fae	-0.08520447
117	0x3d2efd0a	0.042721786
118	0x3d63cd22	0.05561555
119	0x3d7c1112	0.061539717
120	0x3d6f5732	0.058432765
121	0x3ca826e0	0.02052635
122	0xbac15b00	-0.0014751852
123	0x3c0594e0	0.00815317
124	0x3d877149	0.06613404
125	0x3d37377e	0.044730656
126	0xbd6edf1d	-0.058318246
127	0xbd6bb790	-0.057548106
128	0x3dab6eed	0.08370767
129	0x3b2ab640	0.002604857
130	0xbd3d6702	-0.046240814
131	0x3d580bfe	0.05274581
132	0xba9b1040	-0.0011830404
133	0x3d7cae5a	0.061689712
134	0x3d2440be	0.040100805
135	0x3d9813dd	0.074256636
136	0x3d61e77e	0.05515241
137	0xbd96aa7f	-0.07356738
138	0x3da002d3	0.07813039
139	0xbc9cb3ac	-0.019128643
140	0xbd8b1309	-0.0679074
141	0xbd7f662c	-0.062353298
142	0xbc977348	-0.018487588
143	0x3d43bd1e	0.047787778
144	0x3d485f1a	0.04891882
145	0xbca961c0	-0.020676494
146	0x3d28a362	0.04117144
147	0xbdb18344	-0.08667615
148	0xbd8740ad	-0.06604133
149	0x3d94962d	0.07255206
150	0x3da698b1	0.08134592
151	0x3daef103	0.08542063
152	0xbce0f934	-0.02746258
153	0x3d4d704a	0.050155915
154	0x3ca84b64	0.020543762
155	0xbd58c6d2	-0.052923985
156	0x3c842130	0.016129106
157	0x3cb17090	0.02166012
158	0xbd7ed71e	-0.06221687
159	0xbc9d25fc	-0.019183151
160	0x3cc6a2c0	0.024247527
161	0x3dae44cb	0.08509215
162	0xbb8a40e0	-0.0042191595
163	0x39b5a600	0.0003464669
164	0x3d87e859	0.06636114
165	0xbcad097c	-0.021122687
166	0x3c07cb38	0.008288197
167	0x3bbd0bd0	0.0057692304
168	0xbd7a19b0	-0.061059654
169	0xbc3e6a08	-0.0116219595
170	0xbd169bea	-0.036769785
171	0x3d93af2f	0.07211148
172	0xbd3d3f9f	-0.046203252
173	0x3cf4d34c	0.02988591
174	0x3d4a8b7e	0.049449436
175	0xbd1530ce	-0.036423497
176	0x3d7d16ce	0.061789326
177	0xbd8a3b2a	-0.06749566
178	0x3cf1d9a8	0.029522732
179	0x3d52d716	0.051474653
180	0xbd9aab6f	-0.075522296
181	0x3d9ea915	0.077470936
182	0xbd63893f	-0.05555081
183	0xbd21bc95	-0.039486486
184	0x3cf67d1c	0.030088954
185	0x3a30a880	0.00067389756
186	0x3cafcf54	0.021461166
187	0xbd7244cc	-0.05914764
188	0xb981bd00	-0.00024745613
189	0xbd53e336	-0.051730357
190	0x3b0fc100	0.0021935105
191	0xbd6845ec	-0.056707308
192	0x3d1ef072	0.038803525
193	0xbd8a2922	-0.06746127
194	0x3d3b95e6	0.04579725
195	0x3d63cc26	0.055614613
196	0x3b8c0d90	0.0042740777
197	0x3d133098	0.035935014
198	0xbd196e17	-0.037458505
199	0xbda57058	-0.080780685
200	0xbd3d258e	-0.046178393
201	0x3d461a22	0.048364766
202	0xbb42a3e0	-0.0029699728
203	0xbcf8f62a	-0.030390818
204	0x3c16ef70	0.00921236
205	0xbd8b9d42	-0.06817104
206	0xbcca3cf0	-0.02468726
207	0xbd0c7f19	-0.034300897
208	0x3c8b2e68	0.016989902
209	0x3c32add0	0.010905698
210	0x3cfcbaa8	0.030850723
211	0xbda0f23d	-0.07858703
212	0x3d7f566e	0.062338285
213	0x3d5aa486	0.053379558
214	0xbd74a32a	-0.059725918
215	0x3ca1f6e8	0.019771054
216	0x3bfbb8b0	0.0076819286
217	0x3d3d4572	0.046208806
218	0xbd006fd0	-0.031356633
219	0xbcada220	-0.021195471
220	0xbd687e40	-0.056761026
221	0x3cf9bf50	0.030486733
222	0xbc220008	-0.009887703
223	0xbd908366	-0.07056312
224	0xbd88c058	-0.06677312
225	0xbd60046a	-0.05469171
226	0x3bd9dc80	0.0066486
227	0x3da2fe21	0.079586275
228	0x3d440a96	0.047861658
229	0xbc89bdc0	-0.016814113
230	0x3dac29a3	0.08406379
231	0xbc37a110	-0.011207834
232	0xbcb60638	-0.022219762
233	0xbda867de	-0.08222936
234	0xbd07635c	-0.03305374
235	0xbcc37298	-0.023858353
236	0x3d915afd	0.07097433
237	0x3b014980	0.0019727647
238	0x3d5fc21e	0.054628484
239	0xbb975650	-0.0046184435
240	0x3da6add9	0.081386276
241	0x3c28e9f8	0.010309689
242	0xbd0db020	-0.034591794
243	0x3d58534a	0.052813806
244	0x3d200dc6	0.039075635
245	0xbccae240	-0.024766088
246	0xbda8d8cf	-0.08244478
247	0xbd1b7305	-0.037951488
248	0x3d120212	0.035646506
249	0x3ca922dc	0.020646505
250	0xba60d700	-0.00085769594
251	0x3d88789d	0.0666363
252	0xbcdf3990	-0.027249128
253	0xbda3a21e	-0.07989906
254	0xbbe33980	-0.006934345
255	0x3af7be40	0.0018901303

fc2.bias f4 [2]
0	0xbc635c58	-0.013876997
1	0xbd4fc369	-0.050723467
