IA/best_model.pth (torch, 6696 bytes, 4 tensors)

fc1.weight f4 [128, 6]
0	0xbdc8815a	-0.09790297
1	0xbe2520b8	-0.16125762
2	0xbc9dff37	-0.019286735
3	0x3cfcfd46	0.030882489
4	0xbe273146	-0.1632739
5	0x3ddc5c8d	0.1075984
6	0xbc35f2b4	-0.011105228
7	0xbe3a2b0d	-0.18180485
8	0x3dd40c8c	0.103539556
9	0x3e304f4d	0.17217751
10	0xbd81b8ed	-0.063341
11	0xbe036646	-0.12831983
12	0xbd3544d5	-0.044255096
13	0x3c5b6a8d	0.013392103
14	0x3d18c8fa	0.03730104
15	0xbda903b0	-0.082526565
16	0xbdcb7d81	-0.09936047
17	0x3d98a7cc	0.0745388
18	0x3d481612	0.048849173
19	0xbe15829f	-0.14600609
20	0x3c79440e	0.015213979
21	0x3c9f74a9	0.019464808
22	0xbd1f160c	-0.038839385
23	0xbd65c99a	-0.056100465
24	0xbd1e359e	-0.038625352
25	0xbdef6ad0	-0.11690295
26	0xbcac17f0	-0.021007508
27	0xbdb440ed	-0.08801446
28	0x3da1456f	0.078745715
29	0xbcd0ffcb	-0.025512597
30	0x3e06d184	0.13165861
31	0x3d4c7059	0.04991183
32	0xbbeb1eb5	-0.0071752914
33	0xbdded227	-0.10879927
34	0x3e3c9450	0.18415952
35	0x3e0d985a	0.13827649
36	0x3d8c19f2	0.06840886
37	0x3d94ce98	0.07265967
38	0x3da7ea50	0.081989884
39	0xbe11e1fa	-0.1424636
40	0xbbb3354f	-0.0054690014
41	0xbe1c5a0e	-0.15268728
42	0x3db65659	0.08903188
43	0x3ae4e5b8	0.0017463481
44	0xbbd49bc2	-0.0064882943
45	0x3c9d1b6d	0.019178117
46	0xbe3cbcc0	-0.18431377
47	0x3e29f7c6	0.16598424
48	0xbdc2379e	-0.094832644
49	0xbc9cb781	-0.01913047
50	0x3e44c1e4	0.19214588
51	0x3db237dc	0.087020606
52	0xbd612c22	-0.05497373
53	0x3ddb1985	0.10698227
54	0x3d1e6bcd	0.038677026
55	0xbe00270e	-0.12514898
56	0xbd14380f	-0.036186274
57	0x3ca81e94	0.020522393
58	0x3da3ad7c	0.07992074
59	0xbd221d14	-0.039578512
60	0x3c93992e	0.018017378
61	0xbd7d97cc	-0.061912343
62	0x3ce3dfdd	0.027816707
63	0xbdafa1ec	-0.08575806
64	0xbd5b4fa6	-0.053542756
65	0xbdc62bf6	-0.09676354
66	0x3dcc4ebe	0.099759564
67	0x3d14ea92	0.036356516
68	0xbd8a821c	-0.06763098
69	0x3d8112f4	0.06302443
70	0xbbc7ab30	-0.006093405
71	0x3e036e8d	0.1283514
72	0x3d7ba858	0.061439842
73	0xbc35c4ea	-0.011094311
74	0x3d194796	0.037421785
75	0x3d9f3a06	0.07774739
76	0x3d62c94f	0.055367764
77	0xbe1d6fdb	-0.153747
78	0x3dfe0cac	0.12404761
79	0x3d849de4	0.06475428
80	0x3db30584	0.087412864
81	0xbe040c18	-0.12895238
82	0x3d3a72ce	0.045519643
83	0x3cb1b7fc	0.021694176
84	0x3e2a24b9	0.16615571
85	0x3d98eb4a	0.07466753
86	0xbe027e69	-0.12743534
87	0x3ca57a75	0.020199994
88	0xbd5cf399	-0.05394325
89	0xbd549279	-0.0518975
90	0xbd643bda	-0.05572114
91	0xbc45d1a5	-0.012073909
92	0x3d1d99ea	0.038476862
93	0x3cea7fc4	0.028625377
94	0xbdae8d38	-0.08523029
95	0xbd5aca6e	-0.05341571
96	0xbd5dc2f9	-0.05414102
97	0x3c12c49c	0.008958008
98	0xbd92f0f7	-0.07174867
99	0xbce2366e	-0.027613845
100	0x3dffc698	0.124890506
101	0x3e38e155	0.18054707
102	0xbcd9d8bb	-0.026592603
103	0x3e3ccfcf	0.18438648
104	0xbe1d7f10	-0.15380502
105	0xbd8c150f	-0.06839954
106	0x3db9a964	0.09065512
107	0xbaa9846e	-0.0012933144
108	0x3db024a6	0.0860074
109	0xbd593af5	-0.05303474
110	0xbcd2dc8e	-0.025739934
111	0xbe2cc452	-0.16871765
112	0x3cc4e9e8	0.024037316
113	0xbc945c75	-0.018110493
114	0xbd702162	-0.058625586
115	0x3c3887ba	0.0112628285
116	0x3dd51cda	0.104058936
117	0x3dbbeb44	0.09175733
118	0xbbc33a81	-0.005957902
119	0xbe10c32d	-0.14136954
120	0x3d8d7e3a	0.069088414
121	0x3db0ee40	0.086391926
122	0xbc9a0d76	-0.018805247
123	0xbb9ae9f0	-0.0047275946
124	0xbc677a9e	-0.014128355
125	0xbd8f8f40	-0.07009745
126	0x3e7afdf3	0.24510936
127	0xbc45fdb4	-0.012084413
128	0x3c1908f1	0.009340511
129	0x3d6588fa	0.056038834
130	0x3a8c204e	0.001069078
131	0xbc75aa76	-0.014994254
132	0xbd949567	-0.07255059
133	0xbd095010	-0.03352362
134	0xbce50462	-0.027956191
135	0xbb9bc12b	-0.004753252
136	0x3cc00d38	0.023443803
137	0xbd99fcbd	-0.07518909
138	0x3d3847c2	0.04499031
139	0xbe1e94d0	-0.15486455
140	0xbe235e7a	-0.15954009
141	0x3da4c7d7	0.08045929
142	0xbe433678	-0.19063747
143	0x3bc33d64	0.005958246
144	0xbcdeeb7c	-0.027211897
145	0x3ca4199d	0.020031745
146	0xbe428f08	-0.18999875
147	0x3d96b07a	0.07357879
148	0x3da2c702	0.07948114
149	0x3cbb5866	0.0228693
150	0x3e320f1e	0.17388579
151	0xbda11c50	-0.07866728
152	0xbc564248	-0.013077326
153	0xbd7eba56	-0.062189423
154	0xbc5edf4e	-0.013603045
155	0x3c870147	0.016480101
156	0xbd421070	-0.047378957
157	0x3c2ab68a	0.010419497
158	0xbd315cd0	-0.043301404
159	0xbccbe29a	-0.024888325
160	0xbdb4b3f8	-0.08823389
161	0xbd684de0	-0.056714892
162	0xbda444d0	-0.080209374
163	0xbdbaf940	-0.09129572
164	0xbdcef08e	-0.10104476
165	0x3d27f7e4	0.04100789
166	0x3e184834	0.14871293
167	0x3da239d9	0.0792119
168	0xbdec40be	-0.11535786
169	0xbdcfd0a1	-0.10147215
170	0x3df55b6e	0.119803295
171	0x3d1c6c59	0.038189266
172	0xbd629450	-0.055317223
173	0xbccf5092	-0.025306974
174	0x3c1bafb2	0.009502338
175	0xba994b7c	-0.001169547
176	0x3cfa39e4	0.030545183
177	0x3c85efd2	0.016349707
178	0xbd99a869	-0.07502825
179	0x3e10a5e7	0.14125787
180	0x3bee7351	0.0072769304
181	0x3d4ac6df	0.049506065
182	0x3e0420aa	0.12903085
183	0xbe314420	-0.17311144
184	0xbd698ce0	-0.057019114
185	0x3d7dcf80	0.061965466
186	0xbdc7e146	-0.097597644
187	0xbd1a113f	-0.037614103
188	0x3da51ce2	0.080621496
189	0x3ce931e6	0.028466176
190	0x3d39efc0	0.04539466
191	0xbc93841b	-0.018007329
192	0x3df206fc	0.118177384
193	0x3d570070	0.05249065
194	0x3b0c0a9c	0.0021368628
195	0xbdfcbd2a	-0.12340768
196	0xbdbb0637	-0.09132045
197	0xbe1a424a	-0.1506435
198	0xbe22e8fc	-0.15909189
199	0xbcad2fdb	-0.021140983
200	0x3ad12124	0.0015955311
201	0x3dbc23c3	0.091865085
202	0xbd74c704	-0.05976011
203	0x3ca4769d	0.02007609
204	0xbcea98d8	-0.028637335
205	0x3e361a18	0.17783391
206	0x3ccc9b7a	0.02497648
207	0x3e19fc9a	0.15037766
208	0xbdc26c8a	-0.094933584
209	0xbce64a24	-0.028111525
210	0x3d9435c2	0.07236816
211	0x3ce71074	0.028206088
212	0xbe448804	-0.19192511
213	0x3e31b66c	0.17354745
214	0xbdadf9f6	-0.08494942
215	0x3e4b39ec	0.19846314
216	0xbe1d3237	-0.15351187
217	0x3cfec7d9	0.031101154
218	0x3d368b4e	0.044566445
219	0x3d816639	0.063183255
220	0xbd58b058	-0.05290255
221	0xbdeac612	-0.1146356
222	0xbac25610	-0.0014826674
223	0x3dc5aefe	0.09652518
224	0x3c834196	0.016022485
225	0x3dd71d00	0.10503578
226	0x3d6c0f72	0.057631917
227	0xbde8f19f	-0.113742106
228	0x3cb1a5ee	0.021685567
229	0x3e1617ba	0.14657488
230	0xbe68f7ce	-0.2275078
231	0xbd954152	-0.072878495
232	0xbd8d3afa	-0.068960145
233	0xbe032791	-0.12808062
234	0xbdb0020a	-0.08594139
235	0x3db202aa	0.086919144
236	0xbd2a7670	-0.041616857
237	0xbab45d4c	-0.0013760715
238	0x3d2b3a71	0.04180378
239	0xbc001276	-0.007816901
240	0x3d9a6503	0.07538798
241	0xbcae1e18	-0.021254584
242	0xbb3b7cbe	-0.0028608288
243	0xbd234a2d	-0.03986566
244	0xbca013a7	-0.019540621
245	0xbd554a8a	-0.05207304
246	0xbde534a8	-0.11191684
247	0x3d95f83a	0.07322736
248	0x3e3022ed	0.17200823
249	0xbbc4041a	-0.0059819343
250	0xbdedca07	-0.11610799
251	0x3dcc7294	0.099827915
252	0xbddd0ab8	-0.1079306
253	0xbdb5a380	-0.08869076
254	0xbd1c4dbe	-0.03816008
255	0x3d993b12	0.0748197

fc1.bias f4 [128]
0	0xbe727b02	-0.23679736
1	0xbe9464d5	-0.2898318
2	0x3e910042	0.2832051
3	0xbdabb9f0	-0.08385074
4	0xbe3e7f74	-0.18603307
5	0x3d978750	0.07398856
6	0xbe8f081e	-0.2793588
7	0xbdff9d94	-0.124812275
8	0x3d80b650	0.06284773
9	0x3e871564	0.26383507
10	0x3dbfdaf8	0.09367937
11	0xbeb3bd8c	-0.3510555
12	0xbe98cc5d	-0.29843417
13	0x3e5453fc	0.20735162
14	0x3ebcdb7a	0.36886197
15	0x3d346860	0.044044852
16	0x3ea1ce46	0.31602687
17	0x3ebfcb50	0.37459803
18	0x3e8a71a2	0.2703982
19	0x3d51b370	0.051196516
20	0x3ea4033a	0.32033712
21	0x3ea5d248	0.32386994
22	0xbecf421e	-0.4048013
23	0xbe6e0af2	-0.23246363
24	0x3d1275c8	0.035756856
25	0xbe63b3ea	-0.222366
26	0x3e5ef9dc	0.21775001
27	0xbea0131e	-0.31264585
28	0xbeb1a5a1	-0.34696677
29	0xbe534a42	-0.20633796
30	0xbcdb2bf0	-0.02675435
31	0xbd844200	-0.06457901
32	0x3e707214	0.23481017
33	0xbe85a977	-0.26105854
34	0xbec72b5e	-0.38900274
35	0x3e95743a	0.29190236
36	0x3d96fd88	0.07372576
37	0xbe13933c	-0.14411634
38	0xbd7a31d0	-0.06108266
39	0xbeb7545e	-0.35806555
40	0x3e3df498	0.18550336
41	0xbe650d5b	-0.22368376
42	0xbeaf9ed9	-0.3430088
43	0x3e6ce1f8	0.23133075
44	0xbe42b841	-0.190156
45	0x3cdf76a0	0.027278244
46	0x3e99e8f0	0.3006053
47	0xbea0b4f3	-0.31388053
48	0xbe9c3b42	-0.3051396
49	0xbe413f33	-0.18871765
50	0x3eb9b292	0.3626905
51	0xbe91def5	-0.28490415
52	0x3e844442	0.25833327
53	0x3e8130d4	0.25232565
54	0x3e02f9f0	0.12790656
55	0x3e3f0578	0.1865443
56	0xbd51fbe8	-0.051265627
57	0xbd8d8120	-0.06909394
58	0xbeb44d4e	-0.3521523
59	0xbdeaa23c	-0.11456725
60	0x3d01be88	0.031675845
61	0xbe3c4ce0	-0.183887
62	0x3e1cfc80	0.15330696
63	0x3bb6b500	0.005575776
64	0x3d50fc48	0.051021844
65	0x3dbaad28	0.09115058
66	0xbeb258ae	-0.34833282
67	0xbe707f67	-0.234861
68	0xbe70f8a1	-0.23532344
69	0xbeb941e6	-0.3618309
70	0x3dd572a0	0.104222536
71	0x3da1c474	0.078987986
72	0x3da70674	0.08155528
73	0xbdc83830	-0.09776342
74	0xbdb1a420	-0.086738825
75	0xbc2bce00	-0.010486126
76	0xbdbe9c10	-0.0930711
77	0xbd9d6460	-0.07685161
78	0xbe8a02c4	-0.26955235
79	0xbdeb3eb8	-0.11486572
80	0xbecaf7b2	-0.39642102
81	0xbdae0c20	-0.084984064
82	0x3ec7a452	0.38992554
83	0xbda52014	-0.08062759
84	0xbdc75e68	-0.097348034
85	0xbea5f610	-0.32414293
86	0x3ea20a9e	0.31648725
87	0x3e2feeb8	0.17180908
88	0x3e1615cc	0.14656752
89	0xbeba1536	-0.36344308
90	0xbdd79f08	-0.1052838
91	0x3e6ee98c	0.23331279
92	0xbecf8d3e	-0.40537447
93	0xbe545b02	-0.20737842
94	0x3e7a4620	0.24440813
95	0x3e586ae4	0.21134526
96	0x3e488dcc	0.19585341
97	0x3dbe9998	0.093066394
98	0xbe30efd0	-0.17278981
99	0x3e7d00ac	0.24707288
100	0xbd5b5ac0	-0.053553343
101	0x3e39af30	0.18133235
102	0xbe5adb48	-0.21372712
103	0x3c8f57a0	0.017497838
104	0x3e3a2490	0.1817801
105	0xbeb45c22	-0.35226542
106	0x3dc1ec48	0.09468895
107	0xbe8ff95a	-0.28119928
108	0xbe80e8d2	-0.25177628
109	0xbecde06b	-0.4021028
110	0x3ec38020	0.3818369
111	0x3e1aa0e8	0.15100443
112	0x3e2d64fc	0.16933054
113	0xbe1b5236	-0.1516808
114	0xbe46ff9f	-0.19433449
115	0xbd742ea0	-0.059614778
116	0x3ccc2b30	0.024922937
117	0xbd5fcf58	-0.054641098
118	0x3ebb9b66	0.36641997
119	0x3d7e07d0	0.06201917
120	0xbeb93b9e	-0.36178297
121	0xbeb3930d	-0.35073128
122	0x3e5b2f90	0.21404862
123	0xbe8b23e6	-0.27175826
124	0x3e6d7c7c	0.23192018
125	0x3e8fd9b4	0.28095782
126	0x3e88289a	0.26593477
127	0xbe5d6809	-0.21621718

fc2.weight f4 [2, 128]
0	0xbda9b119	-0.08285732
1	0xbda9e014	-0.08294693
2	0xbc8a8b30	-0.016912073
3	0xbd42b8c0	-0.047539473
4	0xbd21c054	-0.03949006
5	0x3be098d0	0.006854154
6	0xbd8f4a42	-0.069965854
7	0x3d3c29a6	0.045938157
8	0x3d72c2aa	0.059267677
9	0x3ceaf1e8	0.028679803
10	0x3afb2380	0.001916036
11	0xbd9d8743	-0.07691815
12	0x3d397f32	0.04528732
13	0xbda9f11f	-0.08297943
14	0x3c0ca2a8	0.008583702
15	0x3da3059f	0.079600565
16	0xbc99aa30	-0.01875791
17	0xbd9bee64	-0.07613829
18	0x3d65042e	0.05591219
19	0xbd1cfb60	-0.038325667
20	0xbd8333d9	-0.064063735
21	0xbc9c6374	-0.019090392
22	0xbc956edc	-0.018241338
23	0x3d8ba5a3	0.06818702
24	0xbd42d377	-0.04756495
25	0x3da4ded1	0.08050311
26	0x3cff5e58	0.031172916
27	0x3d5ed1a6	0.054399155
28	0xbdb205be	-0.086925015
29	0x3daa1717	0.08305185
30	0x3d42fb8e	0.047603182
31	0xbcf5c55e	-0.030001339
32	0xbc138788	-0.009004481
33	0xbd6a8fd4	-0.05726607
34	0x3db2468d	0.08704863
35	0x3c6b3028	0.014354743
36	0xbda493ae	-0.0803598
37	0x3cafdc78	0.021467432
38	0x3c8027a8	0.01564391
39	0xbd2ad8bb	-0.041710597
40	0x3c1e9ea0	0.009681374
41	0xbb358540	-0.0027697831
42	0xbd336c6b	-0.043804567
43	0xbdb1432e	-0.08655392
44	0xbd5dc28b	-0.05414061
45	0x3b87c630	0.004143499
46	0xbd864bea	-0.06557448
47	0xbd8d21c6	-0.068912074
48	0xbd4fd5c6	-0.05074098
49	0x3ce47ca0	0.027891457
50	0xbd3d8085	-0.046265144
51	0xbd30b2cd	-0.043139268
52	0xbd09f4c2	-0.033680685
53	0xbda6f79e	-0.08152698
54	0x3d09694e	0.033547692
55	0x3bb4d4e0	0.0055185407
56	0x3d999d85	0.075007476
57	0xbd379d60	-0.04482782
58	0x3d741056	0.05958589
59	0xbd5ec634	-0.05438824
60	0xbd7b8716	-0.061408125
61	0x3bdbdab0	0.006709419
62	0x3da9f803	0.082992576
63	0x3d8cf7e1	0.06883217
64	0x3d7d56b6	0.061850272
65	0x3c96bb9c	0.018400006
66	0xbd19d7ae	-0.037559204
67	0x3d9b5d8b	0.07586201
68	0xbc659688	-0.01401294
69	0x3d7ba9a6	0.061441086
70	0x3b5f79c0	0.0034099668
71	0x3d4fe2aa	0.050753273
72	0x3d3de086	0.0463567
73	0xbd68521f	-0.05671894
74	0xbc202468	-0.009774305
75	0x3d14f49c	0.03636609
76	0x3d73c266	0.059511565
77	0x3cf1c7a0	0.029514134
78	0xbcc6b028	-0.02425392
79	0x3b0774e0	0.0020669028
80	0x3db4985b	0.08818122
81	0xbb2912c0	-0.002579853
82	0xbcefe850	-0.02928558
83	0x3d560e62	0.05225981
84	0xbccb5704	-0.024821766
85	0xbd6f2230	-0.058382213
86	0x3b69fb80	0.0035702884
87	0xbda4b5a9	-0.080424614
88	0xbd44b929	-0.048028145
89	0xbd18e845	-0.037330884
90	0x3d23a15e	0.039948814
91	0x3d4e4822	0.05036176
92	0xbd716c1a	-0.058940984
93	0x3d4bb6da	0.049734928
94	0x3d821cbb	0.06353136
95	0xbd054bbc	-0.03254293
96	0x3d815893	0.06315722
97	0x3d47e2b6	0.048800193
98	0x3d1e1072	0.038589902
99	0xbdb4ae5a	-0.088223174
100	0x3cfa3e1c	0.030547194
101	0x3caa5c94	0.020796098
102	0xbcd0bf50	-0.02548185
103	0xbc3acad8	-0.011400901
104	0xbd46fce1	-0.048581008
105	0x3c305e38	0.010764651
106	0x3cc37d90	0.023863584
107	0xbda35712	-0.07975592
108	0xbd92710b	-0.071504675
109	0x3d6a51b2	0.057206817
110	0x3db2ffb7	0.0874018
111	0x3b5ef880	0.003402263
112	0x3cdab598	0.026697919
113	0x3c973138	0.018456087
114	0xbd917e30	-0.071041465
115	0xbd40ef0b	-0.04710297
116	0xbd26ef83	-0.04075576
117	0x3dab85eb	0.08375152
118	0xbd605284	-0.054766193
119	0xbc9cd6d4	-0.019145407
120	0xbc868b80	-0.01642394
121	0x3b124120	0.002231665
122	0xbb351100	-0.002762854
123	0xbd98bc9d	-0.0745785
124	0xbd91270f	-0.07087528
125	0x3d3e72b2	0.0464961
126	0x3cff2688	0.031146303
127	0xbd48289a	-0.048866846
128	0xbdb4728c	-0.088109106
129	0xbd954a60	-0.072895765
130	0xbd8bac84	-0.06820014
131	0x3c271780	0.010198474
132	0xbd1eb0d2	-0.038742848
133	0xbd5fe638	-0.054662913
134	0x3d3e10be	0.046402685
135	0xbcd2ccbc	-0.02573239
136	0xbd7e19de	-0.062036388
137	0xbc676fb8	-0.014125757
138	0x3cc72204	0.024308212
139	0xbc3b8b18	-0.011446737
140	0xbcff16b4	-0.031138755
141	0xbcc7e9a0	-0.024403393
142	0xbcaae138	-0.020859346
143	0xbd831248	-0.06399971
144	0x3c2cd338	0.010548405
145	0x3db0bd05	0.086298026
146	0x3d9a4515	0.075327076
147	0xbc4387e0	-0.011934251
148	0xbc374488	-0.011185773
149	0xbce82004	-0.028335579
150	0x3d09b5bc	0.03362058
151	0xbc4e7d30	-0.012603089
152	0x3c93d8a0	0.01804763
153	0x3d7b9cc2	0.061428793
154	0xbd27684b	-0.040870946
155	0xbd60faaa	-0.054926552
156	0xbd7ce433	-0.061741065
157	0x3d4ee216	0.05050858
158	0x3db4b497	0.08823507
159	0xbd420942	-0.04737211
160	0xbd78b8f7	-0.06072327
161	0x3c8ef094	0.017448701
162	0x3d93b959	0.07213087
163	0x3d424332	0.047427364
164	0xbb56ba00	-0.0032764673
165	0x3c9c29d8	0.019062921
166	0xbd89fa6e	-0.06737219
167	0xbd84fd6a	-0.064936474
168	0x3d2074da	0.03917394
169	0x3da42707	0.080152564
170	0x3d77f146	0.06053283
171	0x3d329fba	0.04360936
172	0x3d65e11a	0.056122877
173	0xbbc1a0d0	-0.005909063
174	0x3d06a552	0.032872505
175	0x3c2870e8	0.010280825
176	0xbd97f15d	-0.07419083
177	0xbceaf752	-0.028682385
178	0x3d3346b6	0.043768607
179	0x3cdbb7d4	0.026821055
180	0x3cb5fff4	0.022216775
181	0xbba73390	-0.0051025823
182	0xbd5e0f93	-0.05421407
183	0xbc0c5440	-0.008565009
184	0xbd99745f	-0.07492899
185	0xbc96a980	-0.01839137
186	0x3d000ff8	0.03126523
187	0x3da499a9	0.08037121
188	0xbd8d68f3	-0.06904783
189	0x3d65ea1e	0.056131475
190	0x3da6a71b	0.081373416
191	0xbdb42eb2	-0.08797969
192	0x3c95ef64	0.018302627
193	0xbc0cd6b8	-0.008596115
194	0xbd92473c	-0.07142493
195	0xbd850019	-0.06494159
196	0x3cb3b244	0.02193559
197	0x3d1fd682	0.03902293
198	0x3d2d7a92	0.04235322
199	0x3d4130f6	0.047165833
200	0x3d1af1c2	0.037828214
201	0xbc11bd90	-0.008895293
202	0xbcc2b454	-0.023767628
203	0xbd99cf81	-0.07510281
204	0x3d9edbc1	0.077567585
205	0x3d04a59e	0.032384507
206	0x3b56f040	0.0032797009
207	0x3d607846	0.0548022
208	0x3d6059ea	0.05477325
209	0xbd4d31ea	-0.05009643
210	0x3cb0c578	0.021578535
211	0xbc1fcbb8	-0.00975316
212	0xbd2e6aee	-0.042582445
213	0xbc980370	-0.018556327
214	0x3d9e1c19	0.07720203
215	0x3d99e30f	0.07514011
216	0x3d79bed2	0.060972996
217	0xbc479d48	-0.012183495
218	0x3d3c3102	0.045945175
219	0x3bad7ff0	0.0052947924
220	0xbd628d1b	-0.05531035
221	0xbc993e10	-0.018706352
222	0x3b99ac80	0.004689753
223	0xbd8b861a	-0.06812687
224	0x3d8f71c1	0.07004119
225	0xbcdac024	-0.026702948
226	0x3d15fc86	0.03661778
227	0x3cc7808c	0.024353288
228	0x3d0ccabe	0.034373038
229	0x3b88e6e0	0.004177913
230	0x3d89824b	0.067143045
231	0xbd691d59	-0.056912754
232	0x3c1e1d80	0.009650588
233	0xbd30884f	-0.043098744
234	0x3d94c08b	0.07263287
235	0x3b6e4ee0	0.003636293
236	0xbceb2422	-0.028703753
237	0xbda961b7	-0.08270591
238	0x3d9ffdbb	0.07812067
239	0xbc5b8ad8	-0.013399802
240	0xbcf4fae4	-0.02990479
241	0x3d636fb6	0.055526458
242	0x3d6bb45a	0.057545044
243	0x3c102d80	0.008799911
244	0x3d47bc5a	0.04876361
245	0x3b9a9e10	0.0047185495
246	0xbc8e4690	-0.017367631
247	0x3cd5e548	0.026110306
248	0x3c455e98	0.012046479
249	0x3a8f7240	0.0010944083
250	0x3c5110f8	0.012760393
251	0xbd2973aa	-0.04137007
252	0x3d5bf046	0.05369594
253	0x3d815617	0.063152485
254	0xbd81b812	-0.06333937
255	0x3d006d32	0.031354137

fc2.bias f4 [2]
0	0xbccf82dc	-0.025330953
1	0x3ceec3fc	0.029146187
