AI/best_model.pth (torch, 7016 bytes, 4 tensors)

fc1.weight f4 [128, 6]
0	0x3ec7ba94	0.39009535
1	0x3e956d46	0.29184932
2	0xbcf58d70	-0.02997467
3	0xbe181c82	-0.14854625
4	0x3d0d8ba8	0.034557015
5	0x3e9fc0ae	0.3120169
6	0xbe4a3550	-0.197469
7	0xbeba7cc0	-0.36423302
8	0x3ebd7f2a	0.3701108
9	0x3e696fc0	0.22796535
10	0x3e7b1e5c	0.245233
11	0x3e99c542	0.30033308
12	0x3d2ae538	0.041722506
13	0xbe6494d2	-0.22322395
14	0x3dd2f8a8	0.10301334
15	0xbd0c5730	-0.034262836
16	0x3bda2980	0.006657779
17	0xbeb91034	-0.36145175
18	0xbea55c0f	-0.32296798
19	0xbec69a88	-0.38789773
20	0xbecb93b6	-0.39761132
21	0xbd9c2e78	-0.07626051
22	0xbb0b6280	-0.0021268427
23	0x3d5c6c98	0.0538145
24	0x3eaf0c06	0.3418886
25	0x3eaf79a8	0.34272504
26	0x3e819256	0.25306958
27	0x3d1cf128	0.038315922
28	0xbe2e2c31	-0.17009045
29	0xbeb076af	-0.34465548
30	0xbd78c650	-0.060736
31	0xbd7597a8	-0.059959084
32	0xbe299d1c	-0.16563839
33	0xbe37a72d	-0.17934866
34	0x3dda1f38	0.10650486
35	0x3e18993c	0.14902204
36	0x3aa56600	0.0012618899
37	0xbe181db6	-0.14855084
38	0x3cbd8380	0.023133993
39	0x3c8397f0	0.01606366
40	0xbe3bef80	-0.18353081
41	0x3e4b2a3c	0.1984033
42	0x3d1fdb60	0.03902757
43	0x3e7e5274	0.24836141
44	0xbe6be445	-0.23036297
45	0xbe812cca	-0.25229484
46	0xbcf545a0	-0.029940426
47	0xbd979bb4	-0.07402745
48	0x3e8af9d8	0.2714374
49	0xbda7cbf0	-0.08193195
50	0xbdeb783c	-0.11497542
51	0x3c856da0	0.016287625
52	0x3dcf8738	0.10133213
53	0x3ea99e56	0.33128613
54	0x3e1e00ec	0.15430039
55	0xbeae9111	-0.34095052
56	0x3ec76aa8	0.3894856
57	0x3ebf2d5a	0.37339288
58	0x3d7f15a8	0.062276512
59	0x3e701ca0	0.2344842
60	0xbe91319c	-0.2835816
61	0xbebe9d62	-0.3722945
62	0xbe093a4e	-0.13401148
63	0xbec260c0	-0.3796444
64	0xbe9f6e6d	-0.31138936
65	0x3ea14bec	0.31503236
66	0x3e6c2c6c	0.2306382
67	0xbe9556a6	-0.2916767
68	0xbce325c0	-0.027727962
69	0xbea2f7cd	-0.31829682
70	0x3e1337f8	0.14376819
71	0x3e51f894	0.20504981
72	0x3ddf16d8	0.10893029
73	0xbdfa5098	-0.12222403
74	0xbdf771c0	-0.12082243
75	0x3ecea0a2	0.40356928
76	0x3e7e9b20	0.24863863
77	0xbec0bd1b	-0.37644276
78	0xbd4503f8	-0.048099488
79	0x3ec133b4	0.3773476
80	0xbe78c2b4	-0.24293023
81	0xbe3f0f94	-0.18658286
82	0x3c3eefa0	0.011653811
83	0xbd85709c	-0.06515619
84	0xbc0ed480	-0.008717656
85	0xbecdb260	-0.40175152
86	0x3eabc93e	0.33551973
87	0x3ec527a8	0.38506818
88	0x3dfbbc20	0.12291741
89	0x3e7d3194	0.24725944
90	0x3ea509f0	0.32234144
91	0xbe2a3488	-0.16621602
92	0x3b8f5280	0.0043738484
93	0x3d9ba03c	0.07598922
94	0x3ea0b956	0.313914
95	0xbe791873	-0.24325733
96	0xbdeb6414	-0.11493698
97	0xbd59eca0	-0.05320418
98	0xbe187146	-0.1488696
99	0xbebe5e51	-0.37181333
100	0x3ebd4540	0.36966896
101	0x3e24e9ec	0.16104859
102	0x3e8b8f88	0.27257943
103	0xbe1974be	-0.1498594
104	0x3d5346a0	0.051581025
105	0x3d197dc0	0.03747344
106	0x3e620794	0.22073203
107	0x3e0c8a44	0.13724619
108	0x3e449fc0	0.19201565
109	0xbe50cea4	-0.20391327
110	0x3dcf7918	0.10130519
111	0x3cc9e160	0.0246436
112	0xbecb24c5	-0.3967649
113	0xbdf647c8	-0.1202541
114	0x3e3e2660	0.18569326
115	0xbec0ea2e	-0.37678665
116	0x3e34434c	0.17603797
117	0x3db9b5f0	0.09067905
118	0x3dbdfe88	0.092770636
119	0xbe8ec4d8	-0.27884555
120	0xbb27dd00	-0.0025613904
121	0xbbfc0180	-0.0076906085
122	0x3eb609c6	0.35554332
123	0x3d03d680	0.032186985
124	0x3d93b840	0.07212877
125	0x3ddf2398	0.10895461
126	0x3e859038	0.26086593
127	0xbda0d348	-0.07852799
128	0x3e5d5828	0.2161566
129	0xbeb82990	-0.3596921
130	0xbd38eab0	-0.04514569
131	0x3e40859c	0.18800968
132	0xbe804d68	-0.25059056
133	0xbd3c1ea8	-0.045927674
134	0x3e2c8f98	0.16851652
135	0xbdb10234	-0.08642998
136	0x3e3ec884	0.18631178
137	0x3e58b848	0.21164048
138	0x3e9ddd6c	0.30832994
139	0xbdcf4ed8	-0.1012246
140	0x3d5e3a88	0.05425504
141	0xbe352908	-0.17691433
142	0xbec1cbd2	-0.37850815
143	0xbda0b2b4	-0.07846585
144	0xbe855110	-0.26038408
145	0xbe54cbd6	-0.20780882
146	0xbe1603e4	-0.14649922
147	0x3c416d80	0.011805892
148	0x3ebd269e	0.36943525
149	0x3e637020	0.22210741
150	0x3eb47f16	0.3525321
151	0xbe4c94d9	-0.19978656
152	0x3e5d71c0	0.21625423
153	0xbecebd03	-0.4037858
154	0x3e36bb34	0.1784485
155	0x3e9995ac	0.29997003
156	0x3e91afee	0.28454536
157	0x3e9e6b24	0.30941117
158	0x3e11fed4	0.14257365
159	0x3dc4f990	0.09617913
160	0xbe650227	-0.22364102
161	0xbc9b47a0	-0.018955052
162	0xbdb79db4	-0.08965626
163	0x3eb20d4c	0.3477577
164	0xbc8bce70	-0.01706621
165	0x3e863c40	0.26217842
166	0x3e26efe8	0.16302454
167	0xbea4c652	-0.32182556
168	0xbe0ee96a	-0.13956228
169	0x3e8a5e02	0.27024847
170	0xbebe4717	-0.37163612
171	0x3eb042a8	0.34425855
172	0xbea9878b	-0.33111224
173	0x3e1387a0	0.14407206
174	0x3e8dc6f6	0.27690858
175	0x3c92a320	0.01790005
176	0x3e6b619c	0.22986454
177	0x3ec448d6	0.3833682
178	0x3e99b61c	0.3002175
179	0x3ea009a0	0.31257343
180	0x3e1ade98	0.15123975
181	0xbe9866c2	-0.29765898
182	0xbe7c5adf	-0.2464404
183	0x3cee2710	0.02907136
184	0xbec799a7	-0.38984415
185	0x3c7b79e0	0.0153488815
186	0x3e82bbdc	0.2553395
187	0x3ebf4b5c	0.37362182
188	0xbe433608	-0.1906358
189	0xbe943405	-0.28945938
190	0xbe09dd6a	-0.13463369
191	0xbe596e69	-0.21233524
192	0x3e0a1534	0.13484651
193	0xbc8fc360	-0.017549217
194	0x3cdf4390	0.027253896
195	0xbe86cd08	-0.263283
196	0xbeb9375e	-0.36175054
197	0x3ebe459a	0.37162477
198	0x3d09ab28	0.033610493
199	0xbeaadd5a	-0.33372003
200	0x3d324230	0.043520153
201	0xbec5acac	-0.386083
202	0x3d4f2110	0.05056864
203	0xbe047202	-0.12934116
204	0xbe9c0c9f	-0.3047838
205	0x3ecc9da6	0.39964026
206	0xbe4e8a27	-0.20169888
207	0xbe9de97e	-0.30842203
208	0x3d492b90	0.04911381
209	0xbdf94bb8	-0.12172645
210	0x3ea5ab46	0.32357234
211	0x3d5fca58	0.05463633
212	0xbe0376f2	-0.12838343
213	0x3e7375a8	0.23775351
214	0x3d9c09b0	0.07619035
215	0xbd93ce4c	-0.072170824
216	0x3db33b50	0.08751547
217	0x3cdbe940	0.02684462
218	0xbd0d6538	-0.034520358
219	0xbe8ec43a	-0.27884084
220	0x3eb70f8a	0.35754043
221	0xbe2f78bf	-0.17135905
222	0x3d6e8070	0.058227956
223	0x3da053c0	0.07828474
224	0x3c432000	0.011909485
225	0xbe7304db	-0.23732321
226	0x3e85a034	0.26098788
227	0x3d636a98	0.055521578
228	0x3d2d3ec8	0.0422962
229	0xbe1fba72	-0.15598467
230	0x3ec29094	0.3800093
231	0x3ebbe7ce	0.3670029
232	0x3ea3a018	0.3195808
233	0xbec76566	-0.38944548
234	0x3eb8c0d2	0.3608461
235	0x3ea53432	0.32266384
236	0xbe57a52c	-0.21059102
237	0xbe6fbe5e	-0.23412463
238	0x3eac8f1e	0.3370294
239	0xbdae652c	-0.08515391
240	0xbe14efe0	-0.1454463
241	0x3d45cc50	0.04829055
242	0xbe7a8d83	-0.24468045
243	0xbeba4e8a	-0.36388046
244	0x3eba68b2	0.36408
245	0xbeacb7d4	-0.33734
246	0x3d9ae310	0.0756284
247	0xbe9bb2d8	-0.30409884
248	0xbddfad24	-0.10921696
249	0xbdfb0c08	-0.12258154
250	0xbe07f7d0	-0.13278127
251	0xbeb53cdd	-0.35397997
252	0xbe81bfac	-0.25341547
253	0xbe3ab2bd	-0.18232246
254	0x3cba4290	0.022736818
255	0xbe8bd18a	-0.27308303

fc1.bias f4 [128]
0	0x3d2a02b0	0.04150647
1	0xbe63d1ad	-0.22247954
2	0xbe508a22	-0.20365193
3	0xbd9cb4e0	-0.07651687
4	0x3e8ac270	0.2710147
5	0xbd33de70	-0.043913305
6	0xbd270680	-0.040777683
7	0xbea7debb	-0.32787117
8	0xbe83d7de	-0.2575063
9	0x3ea74d6c	0.32676256
10	0xbe9a6bb9	-0.3016031
11	0x3d0cba98	0.034357637
12	0xba94b600	-0.0011345744
13	0x3e917550	0.28409815
14	0x3ea1566a	0.3151124
15	0x3dbfd588	0.093669
16	0xbeaed50a	-0.3414691
17	0x3ecae578	0.39628196
18	0xbd43c8b0	-0.047798812
19	0x3eac3150	0.33631372
20	0x3de09248	0.10965401
21	0xbc0065e0	-0.007836789
22	0x3ecfcb90	0.40584993
23	0xbe74ee76	-0.2391909
24	0xbe79c54e	-0.24391672
25	0xbe2423c6	-0.16029271
26	0x3eb6c440	0.35696602
27	0xbe95305d	-0.2913846
28	0xbebce3f7	-0.36892673
29	0x3d90fe78	0.07079786
30	0x3e882144	0.2658788
31	0xbdcd432c	-0.10022578
32	0x3e3bf448	0.18354905
33	0x3ea62efe	0.32457727
34	0x3e66b90c	0.22531527
35	0x3e96bcbc	0.29440868
36	0x3d8f8b04	0.07008937
37	0x3e206768	0.15664446
38	0xbec5af7b	-0.38610443
39	0xbe66e4be	-0.22548196
40	0xbdfe9510	-0.12430775
41	0xbe3d76a1	-0.18502285
42	0x3ead7472	0.33877903
43	0x3ebcc7ba	0.3687113
44	0x3e3aa84c	0.18228263
45	0x3d82276c	0.063551754
46	0xbeadd499	-0.33951262
47	0xbeb1afce	-0.3470444
48	0x3e40c338	0.1882447
49	0x3eafd0b4	0.34338915
50	0xbe64fe05	-0.22362526
51	0x3eba593c	0.36396205
52	0x3d9238ec	0.07139763
53	0x3eb412fa	0.35170728
54	0xbe8f3bd1	-0.27975324
55	0x3caac3a0	0.020845234
56	0xbdefe7fc	-0.117141694
57	0xbecf77d9	-0.40521124
58	0xbcf77e60	-0.030211627
59	0x3ebf3b94	0.37350142
60	0x3e223a88	0.1584264
61	0x3d759ee0	0.059965968
62	0x3e8cccb4	0.27499926
63	0xbe76d103	-0.24103169
64	0x3d58de70	0.052946508
65	0x3e5c13b0	0.21491885
66	0x3eab80e8	0.33496785
67	0x3e994a8c	0.29939687
68	0xbe619c3a	-0.22032252
69	0xbd92a978	-0.0716123
70	0xbe17a30a	-0.14808288
71	0xbece1e28	-0.40257382
72	0xbe8c160a	-0.27360564
73	0x3cbc6040	0.022995114
74	0x3e53b16c	0.2067315
75	0xbe2a1a3d	-0.16611572
76	0x3d8fa214	0.07013336
77	0xbe88a970	-0.2669177
78	0x3e9eb5e8	0.30998158
79	0x3e26c018	0.16284215
80	0xbd3c2850	-0.045936882
81	0x3e1e6e9c	0.15471882
82	0x3ebcc25a	0.36867028
83	0x3e8a58a6	0.27020758
84	0xbeb0a571	-0.34501222
85	0xbe6d54d4	-0.2317689
86	0x3e341ef0	0.17589927
87	0x3e8804d4	0.26566184
88	0x3e65e55c	0.22450775
89	0xbecd5dc7	-0.4011061
90	0x3e35652c	0.17714375
91	0xbd95bf64	-0.073118955
92	0xbd8a0f88	-0.067412436
93	0xbe728cbb	-0.23686497
94	0xbdfa2a1c	-0.12215063
95	0xbd081258	-0.03322062
96	0xbe0c33b6	-0.13691601
97	0xbe469387	-0.19392215
98	0x3e8e329c	0.27772987
99	0xbdd64360	-0.104620695
100	0x3dcd2b78	0.10018057
101	0xbcb5ec90	-0.022207528
102	0x3da710dc	0.081575125
103	0x3a248600	0.0006276071
104	0x3e0c10f4	0.13678342
105	0x3e74af78	0.23895061
106	0x3e8ef7c2	0.279234
107	0x3b89c580	0.004204452
108	0x3d897a44	0.067127734
109	0xbe47fdcf	-0.19530414
110	0xbdac07b4	-0.08399907
111	0x3e1afb9c	0.15135044
112	0xbe9c0bf4	-0.3047787
113	0x3eabdd30	0.3356719
114	0xbe25a6d8	-0.16176927
115	0xbe3ef6c4	-0.18648821
116	0x3e9a8d7e	0.30186075
117	0x3ea6dc84	0.32590115
118	0x3e5f1c2c	0.2178809
119	0xbebc0b4f	-0.36727378
120	0x3e5a9208	0.21344769
121	0xbdd55d74	-0.104182154
122	0x3db5c390	0.08875191
123	0x3e865b8e	0.26241726
124	0x3ceee4f0	0.0291619
125	0xbe9f7f1c	-0.31151664
126	0xbe0de246	-0.13855848
127	0xbecc907f	-0.39953992

fc2.weight f4 [2, 128]
0	0x3b743e20	0.0037268475
1	0xbd028d15	-0.031872828
2	0xbd8f63f2	-0.07001485
3	0xbcf3c8fa	-0.029758919
4	0x3d6e6d62	0.058209784
5	0xbd49bae1	-0.049250487
6	0xbb8a0b00	-0.004212737
7	0x3caf9654	0.021433987
8	0xbd0f9efd	-0.035063732
9	0x3d823b3f	0.063589565
10	0x3db45c05	0.08806614
11	0x3d706b2e	0.058695965
12	0x3da10009	0.07861335
13	0x3d35d23a	0.04438994
14	0xbd22857d	-0.039678086
15	0xbdafb340	-0.08579111
16	0xbd0e763a	-0.03478072
17	0x3d4d19ca	0.050073422
18	0x3d68c942	0.05683256
19	0xbd1c6a5d	-0.038187373
20	0xbdae473d	-0.085096814
21	0x3d7c89d2	0.061654873
22	0xbbfb0f40	-0.00766173
23	0x3b410360	0.0029451475
24	0xbb939940	-0.004504353
25	0x3c641018	0.013919853
26	0x3d94cae9	0.072652645
27	0xbcfa95ec	-0.030589066
28	0xbd3ff052	-0.046860047
29	0xbdaec990	-0.08534539
30	0xbc8cffec	-0.017211877
31	0xbdb145be	-0.086558804
32	0x3d0de23a	0.034639575
33	0x3d2d7376	0.04234644
34	0x3d0a9b32	0.033839412
35	0xbc0abb80	-0.008467555
36	0x3d0266b2	0.03183622
37	0xbc9de330	-0.01927337
38	0xbc80ada0	-0.01570779
39	0xbd2e861f	-0.042608377
40	0x3d81f2cd	0.06345139
41	0xbd2743fd	-0.040836323
42	0x3d8255dd	0.06364033
43	0x3c87ccd8	0.01657717
44	0xbc084760	-0.008317798
45	0xbdad7e6c	-0.08471379
46	0x3d5c441e	0.0537759
47	0x3d698262	0.05700911
48	0x3d6d2096	0.057892404
49	0x3cb5af28	0.022178248
50	0xbd7629c1	-0.060098413
51	0x3c9afa60	0.018918216
52	0x3dabd633	0.08390465
53	0x3d026748	0.031836778
54	0xbc2fee40	-0.010737956
55	0xbc0e1058	-0.008670889
56	0xbd3da5c9	-0.046300683
57	0xbc092080	-0.008369565
58	0xbd21335c	-0.03935562
59	0xbd523b44	-0.05132605
60	0xbce4650c	-0.027880214
61	0x3d86beb5	0.06579343
62	0xbd22bffe	-0.03973388
63	0x3d7cc4ba	0.06171105
64	0x3d157bca	0.036495008
65	0x3d83b905	0.06431774
66	0x3d7ce52a	0.061741985
67	0x3cc857c0	0.024455905
68	0xbd4464ea	-0.0479478
69	0xbd338e56	-0.043836914
70	0xbd2bb9c2	-0.0419252
71	0x3b8820e0	0.0041543096
72	0x3d57c09a	0.052673914
73	0xbd13cb10	-0.036082327
74	0x3cb3ce10	0.021948844
75	0xbc949ca0	-0.01814109
76	0xbca1e798	-0.019763753
77	0xbd9b8d00	-0.07595253
78	0xbd3d67fb	-0.04624174
79	0x3d878853	0.06617799
80	0x3d9370f1	0.07199276
81	0xbcbc7624	-0.023005553
82	0x3c412f00	0.011790991
83	0x3d81d269	0.06338961
84	0xbd70a4b8	-0.058750838
85	0x3ce99d58	0.02851741
86	0x3d4bd62a	0.04976479
87	0x3cdc2bc4	0.026876338
88	0xbd2846ef	-0.041083273
89	0xbd21f455	-0.039539654
90	0xbd996636	-0.07490198
91	0xbd102149	-0.035187993
92	0xbd35e69b	-0.044409376
93	0xbc93cd38	-0.018042192
94	0xbd4107cb	-0.047126573
95	0xbd4f90d8	-0.050675243
96	0x3c9e2a9c	0.019307427
97	0x3d7f1b1e	0.06228172
98	0xbd4e701f	-0.050399896
99	0x3cc5504c	0.02408614
100	0xbd36faaa	-0.044672646
101	0x3c1faa00	0.009745121
102	0xbd983450	-0.07431853
103	0x3d824565	0.06360892
104	0x3c912ad0	0.01772061
105	0xbda72457	-0.08161228
106	0xbcdf5f48	-0.027267113
107	0x3daf53d9	0.085609145
108	0xbc105058	-0.008808218
109	0x3c31ed28	0.010859765
110	0x3d0d1ebc	0.03445314
111	0xbd964874	-0.07338038
112	0x3db2883b	0.0871739
113	0xbd834c15	-0.06410996
114	0x3c8159c8	0.015789881
115	0xbd9a31f4	-0.07529059
116	0xbdafa899	-0.08577079
117	0xbdb0f0b6	-0.08639662
118	0x3cb4dd3c	0.022078149
119	0xbc08e148	-0.0083544925
120	0x3c0ad020	0.008472472
121	0xbd3fdacf	-0.04683953
122	0x3d3dc222	0.046327718
123	0x3d05adfe	0.032636635
124	0x3c7f3fa8	0.015579142
125	0x3d9902c3	0.0747123
126	0x3d71943a	0.05897925
127	0xbd3111da	-0.043229915
128	0x3d1160e6	0.0354928
129	0xbd4519cd	-0.04812031
130	0x3d9e3033	0.07724037
131	0xbabde0c0	-0.0014486536
132	0xbc1d4da8	-0.009601034
133	0xbd79e502	-0.061009414
134	0x3abf8a00	0.0014613271
135	0x3d9fa819	0.07795734
136	0xbda5ee8d	-0.081021406
137	0xbcee7d52	-0.029112492
138	0xbd206dbc	-0.03916715
139	0x3d0aaad6	0.033854328
140	0xb8ebdc00	-0.000112466514
141	0xbcad573c	-0.02115976
142	0x3d073eb2	0.033018775
143	0xbd5a4164	-0.053285018
144	0x3ccfc71c	0.025363497
145	0x3d3d64ce	0.046238713
146	0x3da447cf	0.08021509
147	0x3b5bfee0	0.0033568665
148	0xbcd61768	-0.026134208
149	0x3d99dd0f	0.07512867
150	0x3c83a848	0.016071454
151	0x3cc34128	0.02383478
152	0x3d3e43b2	0.046451278
153	0x3daf7285	0.08566765
154	0xbd1090b3	-0.035294246
155	0xbccfe124	-0.02537591
156	0x3d91a657	0.07111805
157	0xbcebce04	-0.02878476
158	0xbd6a43f8	-0.057193726
159	0xbbf75450	-0.0075478926
160	0x3d041416	0.032245718
161	0x3d70dc6a	0.058803953
162	0xbc941ea4	-0.018081017
163	0xbd5ffaa6	-0.054682396
164	0xbc642710	-0.013925329
165	0xbcab1cf4	-0.02088783
166	0x3d779072	0.06044049
167	0xbd9fa310	-0.077947736
168	0x3d7beff2	0.061508127
169	0x3d4fa9f2	0.05069918
170	0xbdafcfc1	-0.08584548
171	0xbd6a556a	-0.057210363
172	0x3ce90810	0.028446227
173	0xbda05da1	-0.07830358
174	0xbc983e7c	-0.018584482
175	0xbcfc992e	-0.03083476
176	0x3d8c5df1	0.068538554
177	0xbd4efb69	-0.050532732
178	0x3c881530	0.016611665
179	0xbd6db98e	-0.058038287
180	0x3d591a5e	0.05300366
181	0xbc48b9a0	-0.012251288
182	0x3c410468	0.011780836
183	0xbcecd2d4	-0.028909124
184	0xbc138730	-0.009004399
185	0x3da4f27b	0.08054062
186	0xbda421a6	-0.080142304
187	0xbcafcedc	-0.021460943
188	0xbd7d0750	-0.061774552
189	0x3ba23ca0	0.0049510747
190	0xbc0f6b88	-0.008753665
191	0x3d6f5ae6	0.058436297
192	0xbd8b31f4	-0.06796637
193	0xbc8921b4	-0.016739704
194	0x3d20d79e	0.03926813
195	0x3b462200	0.0030232668
196	0x3cff9044	0.03119672
197	0xbda67ad0	-0.081288934
198	0x3da91d77	0.08257573
199	0xbc96b0b8	-0.018394813
200	0x3cf70cc8	0.030157462
201	0x3c88e6c8	0.016711608
202	0xbcdd3ef2	-0.027007554
203	0x3d73c266	0.059511565
204	0x3ce03ec4	0.027373679
205	0x3d9db557	0.077006035
206	0x3cb6a680	0.02229619
207	0x3d812e55	0.06307665
208	0xbc016168	-0.007896759
209	0x3dacdb19	0.08440227
210	0x3d0a1f7e	0.03372144
211	0x3d12a140	0.03579831
212	0x3d815c7b	0.063164674
213	0xbd1a0010	-0.037597716
214	0x3beb9400	0.007189274
215	0x3d67ed92	0.05662305
216	0xbcef7196	-0.029228967
217	0x3d167f5e	0.03674256
218	0x3d22d102	0.039750107
219	0xbd45270a	-0.048132934
220	0xbc09b3f8	-0.008404724
221	0xbc98586c	-0.01859685
222	0x3d34d66a	0.044149794
223	0x3b77cf80	0.0037812889
224	0xbc3cf660	-0.01153335
225	0xbd7a6e03	-0.06114007
226	0x3cef0440	0.029176831
227	0xbda77714	-0.08177009
228	0x3d98fbf9	0.07469935
229	0xbd849cc1	-0.06475211
230	0xbd655cfc	-0.05599688
231	0xbb332180	-0.00273332
232	0x3ceb7ae8	0.02874513
233	0xbd8303f4	-0.063972384
234	0xbd4cc4eb	-0.049992483
235	0x3ba9d420	0.005182758
236	0xbd5508b1	-0.052010242
237	0x3d57db0a	0.052699126
238	0x38c19800	9.231269e-05
239	0x3d85fa1b	0.065418445
240	0xbc96ceb0	-0.018409103
241	0x3d81cfa5	0.06338433
242	0xbda7544c	-0.08170375
243	0xbd20676d	-0.039161135
244	0xbd79bff1	-0.060974065
245	0x3d0a26b6	0.033728324
246	0xbd34b4e7	-0.044117834
247	0xbd7a5bb4	-0.06112261
248	0xbd9aa97c	-0.07551858
249	0xbdad7202	-0.08469011
250	0xbd555698	-0.052084535
251	0x3dacd071	0.084381945
252	0x3d1583d8	0.03650269
253	0x3d0ee502	0.034886368
254	0xbd33904b	-0.04383878
255	0xbcc69d64	-0.024244972

fc2.bias f4 [2]
0	0xbda62321	-0.08112169
1	0xbd808844	-0.062759906
