AI/best_model.pth (torch, 7016 bytes, 4 tensors)

fc1.weight f4 [128, 6]
000000 72 45 a4 be 14 20 86 bd be eb bd 3e f0 e4 97 3e
       -0.32084233 -0.06549087 0.3709392 0.29666853
000010 5c b5 e5 bd 80 c2 56 3e 94 03 bc 3e 60 66 a2 bd
       -0.11216232 0.20972633 0.3672148 -0.07929683
000020 00 3c 64 bd d8 1b 55 bd 20 95 c4 3e 30 1f 71 3e
       -0.055721283 -0.052028507 0.38395023 0.23547053
000030 74 27 bf 3e f8 ed 1a 3e 64 e6 21 be 41 9b 59 be
       0.37334788 0.1512984 -0.15810543 -0.21250631
000040 ac 2d 01 3e 60 71 00 3e 8c a3 a6 3e 3c 36 61 3e
       0.12615079 0.12543249 0.3254665 0.21993345
000050 00 5f e0 3a 66 25 9c 3e 12 e0 0f be 60 7a 01 3e
       0.0017118156 0.30497283 -0.1405032 0.12644339
000060 36 44 cf be 42 e4 88 be bd a9 c1 be 5c b7 3c 3e
       -0.40481728 -0.26736647 -0.37824813 0.18429321
000070 80 2e d6 bb b4 f1 8b 3e 88 b8 13 3e 9e af ab be
       -0.006536305 0.27332842 0.14425862 -0.33532423
000080 9e b8 8c be ca 5b ba be ac 4f f9 bd 1c 15 01 be
       -0.27484602 -0.36398154 -0.12173399 -0.12605709
000090 98 6d c3 3e d8 a5 9c bd 89 2a 84 be e8 29 f9 3d
       0.3816955 -0.0764882 -0.25813702 0.12166196
0000a0 d2 a9 b7 3e 04 68 85 be ef 29 4d be 70 b9 54 3e
       0.3587175 -0.2605592 -0.20035528 0.20773864
0000b0 80 d8 f8 3c e0 fc 39 3e 5a 72 a5 be d0 9c fb 3c
       0.030376673 0.1816287 -0.32313806 0.030714422
0000c0 e0 7b 4b 3e fc e9 a4 3e 08 d9 3c be 46 0e a2 3e
       0.19871473 0.32209766 -0.18442166 0.31651515
0000d0 f4 48 ce bd 60 3e a6 bd 80 55 c5 3d 5a 53 ca 3e
       -0.100725085 -0.08117366 0.096354485 0.39516717
0000e0 a7 26 41 be 56 1d 93 be 80 63 73 bc 82 e2 59 be
       -0.18862401 -0.2873332 -0.014855266 -0.21277812
0000f0 48 8e 85 3e 8e ef cf be 24 0d cb be 0c ea 9f 3d
       0.26085114 -0.40612453 -0.39658463 0.07808313
000100 30 36 c2 be 7c 44 31 be 84 b2 83 bd 8e ec cb 3e
       -0.37931967 -0.17311281 -0.064305335 0.39828914
000110 60 f1 88 3e d8 c3 3d 3e 74 91 51 be 26 2d bc 3e
       0.26746655 0.1853174 -0.20465642 0.36753196
000120 bf 5f cb be 60 d1 75 3c ed 3f 88 be 9e ba 98 be
       -0.39721486 0.015003532 -0.26611272 -0.29829878
000130 50 8d 9c bc f0 bd 97 bc 78 bb 9a 3e 94 f6 92 bd
       -0.019110352 -0.018523186 0.30221152 -0.07175937
000140 c0 ac c0 3c 5c ee 86 3e b7 68 c2 be 80 ee eb bd
       0.023519874 0.2635373 -0.37970516 -0.115201
000150 66 6f 05 be 39 63 8e be d0 7b 63 3d 5c 08 ee bd
       -0.13030776 -0.27810076 0.055538 -0.11622688
000160 00 c7 80 3e 2e c6 08 be b8 5c a7 3d 68 60 ee 3d
       0.25151825 -0.1335685 0.081719816 0.11639482
000170 38 4d 5f 3d 3c f5 09 3e 70 2f c1 3e 1f 76 73 be
       0.054517 0.13472456 0.37731504 -0.23775528
000180 84 28 00 3e 8c 5c a3 3e 9a 61 ab be 6c 6c 2c 3e
       0.12515455 0.31906545 -0.33472902 0.16838235
000190 10 8d a2 bc d2 14 77 be 2c a9 3c 3e ca a6 8a 3e
       -0.019842654 -0.24129036 0.18423909 0.27080375
0001a0 00 9f b1 3a 5a e4 64 be 34 9f b0 3d 70 0c 5c 3e
       0.0013551414 -0.22352734 0.086241156 0.2148912
0001b0 ac 92 47 3e 00 1b c4 3b f3 12 39 be 46 3d c1 3e
       0.19489545 0.005984664 -0.18073635 0.3774206
0001c0 56 2f cc be 18 29 05 3d 7c 39 71 3e 00 ed 69 be
       -0.39879864 0.032509893 0.23557085 -0.22844315
0001d0 64 a6 88 be b4 6c 10 be d8 53 91 3e 4a 62 a3 be
       -0.26689446 -0.14103967 0.2838428 -0.31910926
0001e0 f8 52 d0 3e a8 61 76 3e 99 ba af be 58 c1 90 3e
       0.406883 0.2406069 -0.3432205 0.2827251
0001f0 48 39 f9 3d d8 41 87 be c8 b5 a8 be 90 69 c8 3e
       0.12169129 -0.26417422 -0.32951188 0.39143038
000200 14 9a cf 3e 68 49 4e bd a4 f4 89 3d 74 7f c1 3e
       0.4054724 -0.050362974 0.067361146 0.37792552
000210 d9 b9 cd be a4 6f 8d 3d 78 5a f1 bd eb c6 52 be
       -0.40180853 0.069060594 -0.11784834 -0.20583694
000220 9c 9b 9e 3e 3e 45 0b be 69 fd 56 be 80 fe 96 bc
       0.30978096 -0.13600633 -0.20995106 -0.018431902
000230 4c 4a 2f be f6 6d 8e 3e 23 45 51 be 32 23 2a be
       -0.17118186 0.2781827 -0.2043653 -0.16614988
000240 94 d1 78 be 00 fe 55 bc e1 e8 72 be 38 47 5e bd
       -0.24298698 -0.013061047 -0.23721649 -0.05426714
000250 46 14 84 3e d7 d0 9f be f8 01 a1 be 18 2e f4 bd
       0.25796717 -0.3121402 -0.31446815 -0.11922854
000260 ac 11 83 3e 9c b6 ca bd a6 e4 7a be 8a 8b 93 be
       0.2559942 -0.09898111 -0.24501285 -0.28817397
000270 3f 9f c5 be e6 c8 95 3e f0 1d b3 3d 90 9e e0 3c
       -0.38598058 0.29254836 0.087459445 0.027419358
000280 69 a9 92 be 7a 04 13 be 24 47 9c bd 1c 0e 0c 3e
       -0.28644875 -0.14357176 -0.076307565 0.13677257
000290 c4 25 73 3e bb 27 b6 be c0 20 cf 3d 5a a2 cd 3e
       0.23744875 -0.35577187 0.101136684 0.40162927
0002a0 8c 60 92 3e 52 e5 20 be 56 5b a7 be 9c 1b 32 be
       0.28589284 -0.15712479 -0.3268687 -0.17393345
0002b0 c0 06 ec bb 40 66 e0 bc 10 28 9d 3e a6 f3 b1 be
       -0.007202953 -0.027392507 0.30694628 -0.34756202
0002c0 10 f6 bf 3d cb 74 38 be 5a bf bf 3e a4 7f 64 3e
       0.093731046 -0.18013303 0.37450677 0.22314316
0002d0 f0 bf 46 3e 98 43 fa 3d 8c c1 66 3e c0 da d3 bc
       0.19409156 0.12219924 0.2253477 -0.025861144
0002e0 cc fe 40 be 28 eb 55 3e 6c aa b4 3e 00 41 67 3e
       -0.18847197 0.20890486 0.35286272 0.2258339
0002f0 1c e1 6e be 88 38 ed 3d e0 83 ad 3c 10 64 a1 3e
       -0.2332806 0.11583048 0.021181047 0.31521654
000300 e0 34 ed bd 29 97 b7 be b6 f5 5c be 00 ea 06 3c
       -0.11582351 -0.35857514 -0.21578106 0.008234501
000310 60 a2 bf bd 98 a9 1f be d0 37 7f 3e a3 99 b6 be
       -0.093571424 -0.15592039 0.24923635 -0.3566409
000320 92 85 86 3e 64 73 6c 3e 80 e3 c7 bb 94 66 3e 3e
       0.2627378 0.23090893 -0.006100118 0.18593818
000330 da 86 0d be 52 d4 a0 3e 47 9d 32 be ab 27 c9 be
       -0.13820973 0.31411988 -0.17442809 -0.39288077
000340 b0 a4 60 be 29 0e a5 be 55 e7 65 be 30 9b b5 bd
       -0.21937823 -0.32237366 -0.22451527 -0.0886749
000350 10 16 b3 3e 8e 7d c5 be f5 0f c1 be 20 2f b3 be
       0.3497777 -0.38572353 -0.37707487 -0.3499689
000360 e8 2a fe 3d e8 0f d5 3d ac 25 5c be 30 01 48 3e
       0.124105275 0.104034245 -0.21498746 0.19531703
000370 7a ca a8 3e a9 3d ad be aa 54 1b be 24 e5 00 be
       0.32966977 -0.33836105 -0.15169016 -0.1258741
000380 b4 48 82 3e 94 5e 15 3e 30 a9 38 be c6 48 3f be
       0.25446093 0.1458686 -0.1803329 -0.18680105
000390 74 04 a6 3d 7e 36 63 be d0 d0 fa bd 34 94 2f be
       0.08106318 -0.22188756 -0.12246859 -0.17146379
0003a0 1a 91 cf 3e 38 ad 0c 3e 1e eb 80 be a0 54 73 3d
       0.4054039 0.13737953 -0.2517938 0.059406877
0003b0 52 84 bd 3e 80 c4 06 be 20 7e a7 bc d0 9d 3e 3e
       0.37015015 -0.13160896 -0.020445883 0.18614888
0003c0 e5 19 a8 be 44 cc 4b 3e 46 5a ab 3e be ee 92 be
       -0.32832256 0.1990214 0.3346731 -0.2869777
0003d0 fa 57 d0 be 3b bb 6e be 00 78 83 3a 2c d0 18 3e
       -0.4069212 -0.2331361 0.001003027 0.14923161
0003e0 06 40 81 be ec 77 e3 bd b4 cf bb 3e 96 85 b0 3e
       -0.25244159 -0.11106858 0.36681902 0.34476918
0003f0 6c f5 24 be 99 17 7c be a2 d3 99 3e 50 b2 87 be
       -0.16109246 -0.24618377 0.30044276 -0.2650323

fc1.bias f4 [128]
000000 67 cc c9 be 00 94 98 3a 78 a9 0f 3e 1c 87 c4 be
       -0.3941376 0.0011640787 0.14029491 -0.3838433
000010 e8 c6 24 3e a0 f7 99 3e 40 f8 83 bd 6e d9 b7 3e
       0.16091502 0.30071735 -0.06443834 0.35908073
000020 de 51 8a 3e b0 34 1b be d6 40 31 be 28 58 5a 3e
       0.27015585 -0.15156817 -0.17309889 0.21322691
000030 24 88 52 3e 20 1f 61 3e bc 06 15 3e f6 4c 93 3e
       0.20559746 0.2198453 0.1455335 0.28769654
000040 58 dd 6e 3e 28 e4 fb 3d c4 f1 04 3e d6 13 95 be
       0.23326623 0.12299377 0.12982851 -0.29116696
000050 6a 9b 90 3e 50 41 fc 3d 00 ad 97 3c 0e c5 1c be
       0.28243572 0.12317145 0.01851511 -0.15309545
000060 dc a9 a5 3d dc f0 16 3e ae 51 6c be 74 cf 8c be
       0.08089039 0.14740318 -0.23078033 -0.27502024
000070 ff d2 7d be e8 3c 58 3e 74 1b f8 bd 85 04 b1 be
       -0.2478752 0.21116984 -0.12114611 -0.3457376
000080 48 66 ed 3d 68 00 cb 3d 30 88 83 3c 80 21 d1 bd
       0.11591774 0.09912187 0.01605615 -0.10211468
000090 90 6d be be 62 14 5c be 28 04 a4 3e 25 55 2e be
       -0.37192965 -0.2149215 0.3203442 -0.17024668
0000a0 62 b9 80 3e d0 42 2e 3d 04 0f 94 bd 9c bd 16 be
       0.25141436 0.042544186 -0.072294265 -0.14720768
0000b0 38 c1 ae be 42 9d bb 3e 58 f0 25 3e 00 09 ad 3e
       -0.3413179 0.36643416 0.16204965 0.3379593
0000c0 dc 33 06 3e 68 71 af bd ea 30 c3 3e 40 86 93 3e
       0.1310572 -0.085665524 0.38123256 0.28813362
0000d0 d4 cc c0 3e b8 bf ea 3d 20 ec 0f 3e e8 26 dc 3d
       0.3765627 0.11462349 0.14054918 0.10749608
0000e0 50 14 b8 bd 14 bb 2e 3e 60 a7 fb 3d 8c 7b 76 3e
       -0.08988249 0.17063552 0.122877836 0.24070567
0000f0 8d fc ae be 6e 4a b5 3e 7e 52 b8 be be e3 bd 3e
       -0.34177056 0.35408348 -0.36000437 0.37087816
000100 0e ae 17 be 24 98 8a 3d 01 c6 30 be 80 56 c6 be
       -0.1481249 0.067673 -0.17263032 -0.3873787
000110 78 17 6d 3e 20 7b ab be 11 63 b5 be 18 30 ac be
       0.23153484 -0.33492374 -0.35427144 -0.33630443
000120 38 1f f9 3d 80 ec 05 3b 1c aa 88 3e 6c 41 d3 bd
       0.12164158 0.0020435154 0.26692283 -0.103152126
000130 82 82 3c be 79 61 31 be 54 73 e5 bd 77 41 74 be
       -0.1840916 -0.17322339 -0.11203638 -0.23853098
000140 60 29 d3 3d bc 52 bc 3e a4 87 53 3e 2e 76 a3 3e
       0.10310626 0.3678187 0.20657212 0.319261
000150 a0 62 b3 bd 3e f5 0a be 7c 08 ae be 6e 66 d0 3e
       -0.087590456 -0.13570115 -0.33990848 0.40703148
000160 04 f7 34 3e 58 84 3e 3e 38 6b bd be 50 9f ac 3e
       0.17672354 0.18605173 -0.36995864 0.33715296
000170 04 91 55 3e 80 cd c5 3c 30 2a 97 3d 50 d6 75 3e
       0.208561 0.024145842 0.073810935 0.24007535
000180 80 ae 7c 3e a8 a9 1e be a0 de 5b bc 74 a9 c9 bd
       0.24675941 -0.15494406 -0.013419777 -0.09846774
000190 d1 0f c5 be 04 f3 91 3e f2 c5 98 be cb a3 2a be
       -0.3848863 0.2850572 -0.2983852 -0.16664045
0001a0 08 a0 b6 3e 7a 07 91 3e e6 c5 a2 3e 48 6d fe bd
       0.3566897 0.28326017 0.3179161 -0.124231875
0001b0 48 46 c1 3e 90 be 5c bd 48 5b 41 bd b0 73 ec bc
       0.37748933 -0.053892672 -0.047206193 -0.028863758
0001c0 60 1a 96 3c fb 08 5b be d0 5a ef bc 3c 0c 8d 3e
       0.018323123 -0.21390145 -0.029218107 0.27548397
0001d0 2c f6 2d 3e b0 3a 7e 3e 5e 9e a8 3e 98 c3 b1 bd
       0.16988438 0.24827075 0.32933325 -0.08679885
0001e0 34 88 77 3e 36 ac 88 be 7c 71 98 be 1a ea 83 3e
       0.24173051 -0.26693887 -0.29774082 0.25764543
0001f0 ed 91 8a be e0 e9 85 3e 88 15 31 3d fb 3f 82 be
       -0.27064458 0.26154995 0.043233424 -0.25439438

fc2.weight f4 [2, 128]
000000 a0 ca 79 bd 37 79 9c 3d a0 3d ef 3b 38 ea 28 bd
       -0.060984254 0.076403074 0.0073010474 -0.041238993
000010 aa d1 f1 bd 13 2f 81 bd 48 82 00 3e 90 8c 2e bc
       -0.11807568 -0.06307807 0.12549698 -0.01065363
000020 98 29 ed 3c 43 21 94 3d 12 8b 39 3d be 32 54 3d
       0.028950498 0.07232907 0.045298643 0.051806204
000030 c0 05 4b 3c 9a b9 55 3d 7d a2 6c bd 38 63 8e bc
       0.012391508 0.052178957 -0.05777215 -0.017381296
000040 60 ca 87 bd 95 a0 88 3d f4 78 89 bc 82 0e 16 3d
       -0.06630397 0.066712536 -0.016781308 0.03663493
000050 6b c6 b1 bd 5a f8 99 bd 04 ac ac bd e8 09 3f 3c
       -0.08680423 -0.075180724 -0.08431247 0.011660077
000060 35 52 91 3d bd d7 11 3e 0c 67 ee 3c 48 6c 33 3c
       0.07095758 0.14242454 0.029101871 0.010951109
000070 ad 1f 22 bd fe 45 06 3d 3e 73 d6 bc 84 2c c0 3c
       -0.03958099 0.032781594 -0.026177999 0.023458727
000080 ec b1 b6 bc 2e 8f 3f 3d 40 ab e0 bc e0 c0 4c bd
       -0.022301637 0.046767406 -0.027425408 -0.049988627
000090 d4 e1 ce bc 04 1f ae 3c 6e c8 56 3d c0 54 99 bc
       -0.025254168 0.021255024 0.05243724 -0.01871717
0000a0 2e 3e b1 bd e8 41 bc 3c 50 81 e9 bc 30 52 af 3c
       -0.08654438 0.022980645 -0.028504044 0.021401495
0000b0 2c f3 95 3c 98 b5 48 3c fc 94 74 3d 4a 78 1d bc
       0.01830443 0.012250327 0.059712395 -0.009611199
0000c0 78 63 13 3c 2b 9b a2 3d f0 3f 28 3c 9e 0a 1b 3d
       0.008995883 0.07939752 0.01026915 0.037851922
0000d0 67 c2 9f bd 84 3b f7 3c c5 14 37 bd 30 c2 8b 3c
       -0.07800751 0.030179746 -0.04469754 0.01706037
0000e0 ac a5 b3 bc 40 09 07 3c bc e6 0a 3d 20 73 ad bb
       -0.021929584 0.008241951 0.03391145 -0.005293265
0000f0 64 7d dd 3c a9 73 b2 3d e3 d0 a7 bd 60 a5 94 bd
       0.02703733 0.08713467 -0.08194139 -0.07258105
000100 92 7d e8 3d 9a 71 da bc 11 81 88 bd b3 07 ad bd
       0.11352076 -0.026665498 -0.066652425 -0.08448734
000110 ce c9 53 3d 09 03 99 3d 00 29 86 3b 4e 4c b4 bd
       0.051706128 0.07471282 0.004094243 -0.088036165
000120 d4 38 95 bc 7e af eb 3d 84 15 d9 3d 50 19 94 3c
       -0.018215574 0.11508082 0.10599807 0.018078476
000130 fa 27 97 bd d0 ab ed 3b 52 5a a4 bd a2 b8 0d bd
       -0.07380672 0.0072531477 -0.0802504 -0.034599908
000140 54 b4 7c bd 68 34 bf 3c d9 99 87 3d 64 69 61 bd
       -0.06169541 0.023340419 0.06621141 -0.05503215
000150 08 06 07 bc 29 a8 b1 3d 7c 42 9d 3c 80 b1 38 bc
       -0.008241184 0.08674652 0.019196741 -0.011272788
000160 90 ab a8 bc 78 0e 7a 3c fb 12 d9 bd fd f3 af bd
       -0.02058962 0.015262239 -0.10599323 -0.08591459
000170 90 b5 80 3c 5f ed b1 bd e0 11 cb bb a7 c6 89 bd
       0.015711576 -0.08687853 -0.006197199 -0.06727343
000180 4a 7e 7e bd a2 b4 1b 3d a2 ba e3 bc 91 23 99 3d
       -0.062132157 0.03801406 -0.027798954 0.07477487
000190 5c 09 e9 bc 8a a3 56 3d 62 59 7a 3d d7 88 21 bd
       -0.028446846 0.052402057 0.0611204 -0.03943714
0001a0 88 5f aa 3c b0 88 ee bb 02 30 69 bd 90 da a3 bd
       0.020797506 -0.007279478 -0.05693055 -0.08000672
0001b0 ea 9f 38 3d 80 54 99 ba e0 d5 36 3c d4 71 ac bd
       0.04507438 -0.0011698157 0.01115939 -0.084201485
0001c0 df 29 18 bd 0b b8 80 bd 2b 65 84 bd 9a d4 0c bd
       -0.037149306 -0.062851034 -0.06464609 -0.03438244
0001d0 6b 22 56 bd 29 47 95 bd 6c af 41 bd e2 d1 ce 3d
       -0.052278917 -0.07288963 -0.047286436 0.10098626
0001e0 d8 77 b7 bc 6a f0 86 bd 78 65 30 bc 7e dc a4 bd
       -0.022396013 -0.06588824 -0.01076638 -0.08049868
0001f0 a0 5f eb 3c 31 0c 0c bd 02 d3 72 3d 25 63 a8 bd
       0.028732121 -0.034191314 0.059283264 -0.08222035
000200 fa a0 79 3d b2 08 fb bc 06 df ad bd 04 cf 9d bc
       0.060944535 -0.030643795 -0.08489804 -0.019263752
000210 d4 75 fb bc 95 14 ab 3d 8c 49 94 3d 75 b0 9f 3d
       -0.030695833 0.08353535 0.072405905 0.077973284
000220 fe c4 88 bd 4d 2f f4 3d 5c 96 bc bc c0 00 2c 3b
       -0.06678198 0.119230844 -0.023020916 0.0026245564
000230 7e 77 47 3d 2b 5a 19 be fb 4b 86 bd 00 ba 53 bd
       0.04869794 -0.14975803 -0.06557461 -0.051691055
000240 4a e3 b9 bd 48 85 96 bd d8 ed 02 3c 80 40 22 bb
       -0.09076555 -0.0734964 0.007991277 -0.0024757683
000250 18 da 68 bd f0 48 a5 bb be 94 82 bd 12 7c fe bc
       -0.056848615 -0.005044095 -0.063760266 -0.03106502
000260 e0 d0 fa 3c 26 ff 20 3d 80 4b a1 3a f0 cf aa 3b
       0.030617177 0.03930583 0.0012305826 0.0052127764
000270 e4 87 9e bd c9 64 93 bd 58 75 b2 bc 23 a5 cf 3d
       -0.07740763 -0.071969576 -0.02178447 0.10138919
000280 38 13 c9 3c 40 37 b4 3a ad 64 f9 bd 1c 4b df bc
       0.024545297 0.0013749376 -0.121774055 -0.027257495
000290 89 7e a2 3d b2 cc 6c 3d e3 0c 9c 3d d6 70 75 bd
       0.07934291 0.0578124 0.076196454 -0.05992206
0002a0 68 66 b4 3c db cb 99 bd 83 a2 72 bd 6d 33 9e bd
       0.022021487 -0.075095855 -0.059237015 -0.077246524
0002b0 ae 88 3d 3d a9 f2 52 bd 40 82 68 3b 3f 99 d5 3d
       0.046272926 -0.05150095 0.0035478026 0.1042962
0002c0 78 f4 e3 3c 1e 90 42 3d 6e 22 74 bd d8 00 b1 bc
       0.027826533 0.047500722 -0.059603147 -0.021606848
0002d0 f7 23 af bd e0 7e 01 bb 52 11 8c bd aa a3 f7 3c
       -0.085517816 -0.0019759461 -0.06839241 0.030229408
0002e0 66 04 26 3d 26 40 7c 3d 0b 09 ac 3d 1d 6d 99 3d
       0.04053154 0.061584614 0.08400162 0.07491515
0002f0 d1 54 9a 3d fe 90 63 3d e2 fb 4a bd 7e 40 f4 bd
       0.07535709 0.055558197 -0.04955662 -0.119263634
000300 f6 34 2f 3d fe 44 29 3d fa 0e 2c 3d 26 e2 75 3d
       0.042775117 0.04132556 0.04200647 0.060030125
000310 df 17 9a 3d e1 44 b1 bd 20 b6 48 3d a2 69 24 3e
       0.07524084 -0.08655716 0.049001813 0.1605592
000320 c4 ed 65 bd ae 1c 5a 3d 90 af 81 3b 68 c5 6f 3c
       -0.056134954 0.053250007 0.0039576963 0.014634468
000330 7e 6c 4e 3d 59 06 a3 3d ce d5 5a bd b6 20 6a 3d
       0.050396435 0.07960195 -0.053426556 0.0571601
000340 b3 80 1f bd a6 5b 36 3d 58 ec ae bc 8b fa 0e be
       -0.038941097 0.044520997 -0.021352932 -0.13962762
000350 f5 77 a1 3d c7 a9 4d bd 88 91 a7 bd f8 8d 26 bc
       0.07884208 -0.05021074 -0.08182055 -0.010165684
000360 40 c9 11 bd e5 dc 92 3d 87 86 a9 bd 86 37 60 bd
       -0.035592318 0.071710385 -0.08277612 -0.05474045
000370 a1 c4 83 bd 4a 09 43 3d 40 e3 ec bb 3b 1a 93 3d
       -0.06433988 0.04761628 -0.0072292387 0.071827374
000380 25 f4 15 3e 30 1e 5c 3c 30 dd 87 3b aa 57 47 bd
       0.14643915 0.013434932 0.0041462407 -0.048667587
000390 1b f0 09 bd 56 18 05 bd f8 ad 83 3c a8 83 58 bd
       -0.033676248 -0.03249391 0.016074166 -0.052859932
0003a0 51 a7 9f 3d 3e 5b 2b 3e fe 47 7e 3d b8 23 7f 3c
       0.07795585 0.16734025 0.062080376 0.015572481
0003b0 77 9d 4a bd 7a 68 41 bd c5 af 93 3d 00 a5 76 ba
       -0.049466576 -0.047218777 0.0721126 -0.0009408742
0003c0 b7 db 32 bd d0 77 99 bd 49 fb 90 3d 55 00 a7 bd
       -0.043666568 -0.074935555 0.07079179 -0.0815436
0003d0 5a 16 99 3d cb 0a a8 3d d4 68 db 3c ca 66 5d 3d
       0.07474966 0.082051836 0.026783384 0.054053105
0003e0 a1 60 aa 3d e0 52 62 3c ca 71 4c bd 3e fa 7c 3d
       0.08319212 0.013813704 -0.049913205 0.061762087
0003f0 11 99 82 3d 1f 7e 94 3d 67 8d 9e 3d 30 14 1d 3c
       0.06376851 0.07250618 0.07741814 0.009587333

fc2.bias f4 [2]
000000 4a d6 76 3d 7d 54 b1 3d
       0.060262956 0.08658693
