AI/best_model.pth (torch, 7016 bytes, 4 tensors)

fc1.weight f4 [128, 6]
00000000: e43b 853e 4090 ff3c fc10 bbbd b11f cabe
00000010: 1e06 ba3e 902b c4be aec2 a03e 64f7 413e
00000020: c4ce 473e 66a4 853e ca99 953e b68c 1abe
00000030: 8ceb a2be 7169 b3be a8d8 3f3e 98d1 483e
00000040: 1d94 34be 6827 a63e c2a8 b13e 0c91 8dbd
00000050: 7498 93be b067 94bc f45d 883d 7ef9 aa3e
00000060: e4e6 873e eb8c 26be 9c01 863d 5ca8 58be
00000070: 8094 413d 88f3 b33d f02c 74bd 9187 cabe
00000080: e0a0 57bd 5046 c63e bc49 1b3e 00d1 9ebb
00000090: 84cf 553e 2a94 ccbe 70e2 e1bd 7e37 873e
000000a0: 90ed da3c 5464 1fbe 1258 04be b082 673e
000000b0: c067 b3bd e495 9cbe 88da b73d 80f4 42bd
000000c0: 987a cc3d b2da 92be 8221 c23e 7eab 923e
000000d0: c870 d63d 6a87 a6be d212 5ebe 00e0 ca3e
000000e0: a075 79bc 2a16 cabe 809f 763e 0a21 b13e
000000f0: 5829 d03e 20b0 943e e070 603c 5882 223e
00000100: 7015 b83c 8e65 2cbe c298 c73e eea2 04be
00000110: 8938 bbbe 9726 8abe 59f3 b9be e3f4 3bbe
00000120: 9ac3 893e 98a5 eb3d b6a3 883e 40c3 fdbc
00000130: f29f 16be e176 56be 1494 2b3e 8e2e 803e
00000140: e07a 0fbe c0a5 9f3b 6396 a5be 8c9a 72be
00000150: 8406 ebbd 0838 7bbe 04ec cabe f206 87be
00000160: 98c9 283e 7a75 cb3e 822c 02be cdb7 37be
00000170: 0026 1c3d 80b7 86bb 285d b93e ec6e cc3e
00000180: 7e57 a83e 2caf ac3d 9c82 383e 4cd4 1b3e
00000190: b46b a13d 0ba9 c3be 4072 08bd d4ea 063e
000001a0: 6444 973e fcda 2b3e 94c1 27be 4877 2b3d
000001b0: 6810 40be 98bf 323d c7f8 28be 6ac7 943e
000001c0: b0cc c13d 58b6 9a3e 763b 853e 5cbe 9fbd
000001d0: d685 8dbe 4817 f2bd 0966 b9be 8c1e aa3e
000001e0: 3810 073d 6c3d 883e c80f 4a3e 20ee a6be
000001f0: f0f7 aa3e d0a5 1f3e 2fd6 b6be 0cda 0f3e
00000200: e841 8ebe 004d e8bb 211e 96be 0025 bd3c
00000210: 522e 65be 4a1b ad3e f40c 1c3e 607c bcbc
00000220: 9684 863e 5c1d 5abe dc19 813e 1026 023e
00000230: f38d 80be 8c00 383e 82f8 8b3e 6812 26bd
00000240: 2ca7 8c3d 4a49 973e 3bc4 6cbe 586d 16bd
00000250: 9040 d2bc db41 adbe 6403 083e 8839 423d
00000260: a86b f73d 9da5 b2be c859 783e 66d7 2fbe
00000270: ecba 583e 7414 a93e 3a93 68be 10ee 813d
00000280: 32aa 6fbe 9ca8 913e 987f 9c3e 183b 46bd
00000290: 80dd 513b 9abe 813e f039 8a3d 3a01 ba3e
000002a0: 7f13 98be 16b4 b5be 30bd e0bd b0da f43d
000002b0: a47f 673e d0b5 f0bc e422 313e b6c5 35be
000002c0: 18d2 09be 0821 6cbd d24a 5cbe 8c44 85bd
000002d0: 70d9 793e b48b 3b3e c628 a13e 5c2c cbbe
000002e0: 20e5 713e e27f 81be 9b5b a5be 4401 6f3e
000002f0: 8d28 58be f8ab 14be 74ac 1abe 60a3 e6bd
00000300: 3056 683e 3001 32be e051 b1be b58d 8bbe
00000310: a47d 373e b002 9abc 4405 b6be be15 87be
00000320: 9ae3 c43e 6623 84be 4094 bb3b 6065 3ebc
00000330: e096 b3be fc05 0f3e 20e0 3dbc 205f 5a3c
00000340: 802a 1dbc 2c20 223e 08c9 763d c095 423e
00000350: c0c5 3bbc 5c2b 413e e27e 0fbe 86ca ce3e
00000360: 15b4 a0be c7d5 babe ac8c 893d e80f 85bd
00000370: b41c 9d3e 0038 a8bc 6e43 bcbe d7f9 b7be
00000380: 9cf9 5c3e 52b9 56be 569e c93e 0bd3 59be
00000390: 644a eabd 65ab 34be 716d bbbe 040f bcbd
000003a0: 787d aa3d 3235 a93e 90a7 4e3d 840f dabd
000003b0: 90d3 a63e a256 8e3e 1b5d 69be bcf9 95bd
000003c0: 8450 8a3e 14a0 a9bd c892 373d 98f1 2e3e
000003d0: 4082 80be d8d3 3d3e 2826 a53e ea34 b6be
000003e0: 30e2 783d bb35 2abe e80c 383e d6a4 99be
000003f0: 4cf0 23be 5840 e7bd 1891 223e 9a2d b03e
0.26022255 0.031196713 -0.09134099 -0.39477304 0.36332792 -0.38314486 0.3139853 0.18942028
0.19512469 0.2610199 0.29218894 -0.1509274 -0.31820333 -0.35041383 0.18734992 0.19611204
-0.17634626 0.3245194 0.34699064 -0.06912431 -0.2882725 -0.018115848 0.06658545 0.33393472
0.26543343 -0.16264693 0.06543276 -0.21157974 0.04726076 0.08786684 -0.05961317 -0.39556554
-0.052643657 0.3872552 0.15164846 -0.004846692 0.20879942 -0.3995679 -0.11029518 0.26409525
0.026724607 -0.15565616 -0.12924221 0.22608447 -0.08760023 -0.30583107 0.089772284 -0.047596455
0.099843204 -0.28682476 0.3791619 0.28646463 0.1047073 -0.32525188 -0.21686867 0.39624023
-0.015225798 -0.39470035 0.24084282 0.3459552 0.40656543 0.29040623 0.0136987865 0.15870035
0.02247116 -0.16835615 0.38983732 -0.12952778 -0.3656657 -0.26982567 -0.36318472 -0.18355136
0.26907045 0.11506194 0.26687402 -0.030976892 -0.14709452 -0.20943786 0.16755706 0.25035518
-0.14011717 0.004872054 -0.32341298 -0.23691767 -0.11475852 -0.24533093 -0.3963319 -0.26372486
0.16483152 0.39738065 -0.12712291 -0.17941208 0.038122177 -0.0041112304 0.36203885 0.39928377
0.3287925 0.08431849 0.18018574 0.15217704 0.07881871 -0.38214907 -0.033312082 0.13175517
0.29544365 0.16782755 -0.16382438 0.041861802 -0.18756258 0.04363975 -0.16501151 0.2905839
0.09462869 0.30217242 0.26021928 -0.0779998 -0.2764117 -0.11820847 -0.3621066 0.3322643
0.03297445 0.2660936 0.19732583 -0.3260355 0.33392286 0.15590596 -0.35710284 0.14048022
-0.27784657 -0.0070892572 -0.29319862 0.023088932 -0.22380951 0.33809882 0.15239316 -0.023008525
0.2627303 -0.21300262 0.25215042 0.12709832 -0.251083 0.17968959 0.27338034 -0.040544897
0.06867823 0.29548103 -0.23121731 -0.036725372 -0.025665551 -0.33839306 0.13282543 0.047418147
0.12081081 -0.34891978 0.24252999 -0.17172012 0.21165055 0.33023417 -0.22712412 0.06344235
-0.23404768 0.2844895 0.30566096 -0.0483962 0.0032022893 0.2534073 0.06749332 0.3632906
-0.29702374 -0.35488957 -0.10973585 0.11955774 0.22607285 -0.02938357 0.17298466 -0.17751202
-0.1345905 -0.05764869 -0.21512917 -0.06507215 0.24399352 0.18315011 0.3147642 -0.3968228
0.2362256 -0.2529288 -0.32296452 0.23340327 -0.21109219 -0.14518726 -0.15104848 -0.1126163
0.22689128 -0.17383265 -0.34632778 -0.2725655 0.17919022 -0.01880011 -0.35550892 -0.26383775
0.38454896 -0.25808257 0.00572446 -0.011620849 -0.35076046 0.13967127 -0.01158908 0.013328344
-0.009592652 0.15832585 0.060250312 0.19002438 -0.0114607215 0.18864197 -0.14013246 0.40388888
-0.31387392 -0.36491224 0.06716284 -0.064971745 0.3068596 -0.020534515 -0.36770195 -0.359328
0.21579593 -0.20969132 0.39378613 -0.21271913 -0.1143997 -0.17643507 -0.36606935 -0.091825515
0.083247125 0.33048397 0.05045277 -0.106474906 0.32583284 0.2780047 -0.22789423 -0.07323024
0.27014554 -0.082824856 0.044817716 0.17084348 -0.25099373 0.18537843 0.32255673 -0.35587245
0.060762584 -0.16622059 0.17973673 -0.30008572 -0.16009635 -0.112915695 0.15875661 0.3440979

fc1.bias f4 [128]
00000000: 14bd a8bd 3c3d c7be 6092 7abd 7cb8 853d
00000010: 8c62 493e 5074 b23d 94ee 283e b7c4 bcbe
00000020: 1d03 a4be 8039 c63e ceaf ce3e 0ae1 b63e
00000030: 9910 cfbe 4cc0 b33e c453 a2be e8bb 363e
00000040: 0089 643c b01a 923d 888a c63d ba6e 28be
00000050: 8a39 56be 5956 c8be 5c68 433e 88eb ad3d
00000060: 4bb9 80be 6041 43be c0ec 5ebe 9e13 bdbe
00000070: b460 25be a479 803e 6c05 99bd 6c93 a73e
00000080: 9427 dbbd fd3c 59be 669b 923e 5a70 03be
00000090: cc34 103e 4dba 4dbe 580e cabe 8c37 be3e
000000a0: 629c 17be 1e3a 8cbe 411b 8cbe 98a1 c9be
000000b0: b844 c9bd 7437 ab3d 9886 bd3e 086b 593e
000000c0: 5cec 14be 6044 6d3e 042d 4a3e c6f4 2cbe
000000d0: 00aa 05bc a2c1 b03e c471 4a3e b835 fd3d
000000e0: 881b 0b3e c02b eb3c d495 843e 119c b2be
000000f0: 05b6 8ebe 6774 c1be 7c6b d8bd de44 993e
00000100: a0cb 193d d244 c53e ac63 05be 0ec8 8fbe
00000110: 4ef8 c2be 68b9 d03e 7871 293e 280e c1be
00000120: 1554 8dbe f803 743e 50ac d23d 94d7 1d3e
00000130: 4016 d03e 1067 253e d8a6 e13d 0058 633e
00000140: 117a 48be a819 233d 3ab7 b9be 6930 a2be
00000150: 1c31 9a3e 50fe 4dbe 0042 8a3c b814 a43d
00000160: 48c9 223d 5cf5 b5bd 74e6 7a3e 50a8 053d
00000170: 004c f9bd 48ab b93d ec5d c63e 7816 233d
00000180: 98f2 8a3d 102d 733d d0be 873c 1029 ab3e
00000190: a5b1 cdbe 98b5 32bd ece9 9c3e 4ed6 8c3e
000001a0: b239 c7be 8078 8ebd 6d50 71be 70b0 83bc
000001b0: 0890 533e 3a2c b2be 0045 7e3c 98c5 68bd
000001c0: fc6a a63e a8c1 043e 0445 65be 5cb2 843e
000001d0: 0341 57be 04be 9dbd 5090 ab3e a63f 0ebe
000001e0: 8c86 92bd e8a9 f7bd 16e6 49be 1a8d 8b3e
000001f0: 7409 863e 1ac1 cc3e 2bc5 4abe 54da a0bd
-0.08239189 -0.38913906 -0.06117475 0.06529328 0.19666499 0.08713591 0.1649726 -0.36868832
-0.32033625 0.38715744 0.40368503 0.35718566 -0.4044235 0.35107648 -0.31704533 0.17845118
0.013948679 0.071339965 0.096943915 -0.16448489 -0.20920387 -0.39128378 0.19082779 0.0849219
-0.25141367 -0.19067907 -0.2177 -0.3692903 -0.1615017 0.25092804 -0.07471737 0.3272966
-0.10700908 -0.21214671 0.28634185 -0.12835827 0.1408264 -0.200906 -0.39464068 0.37151754
-0.14805749 -0.2738809 -0.27364543 -0.393811 -0.0982756 0.08360186 0.3701675 0.21232235
-0.14543289 0.23170614 0.19743735 -0.16890249 -0.008158207 0.3452273 0.1976996 0.12363762
0.13584721 0.028707385 0.2589556 -0.34884694 -0.27873245 -0.3778412 -0.10567376 0.29935354
0.037547708 0.38529068 -0.13026303 -0.28082317 -0.38080066 0.40766454 0.16547191 -0.37706113
-0.27603212 0.23829639 0.10286772 0.15414268 0.40641975 0.16152596 0.11018151 0.22201538
-0.19577815 0.03981939 -0.36272603 -0.3167756 0.30115592 -0.20116544 0.016877174 0.08011764
0.039742738 -0.08884689 0.24501973 0.03263122 -0.12172699 0.090658724 0.38743532 0.03981635
0.06784552 0.059369147 0.016570479 0.33429766 -0.40174595 -0.043630213 0.30647218 0.27507252
-0.38911206 -0.06956577 -0.23565836 -0.016075343 0.20660412 -0.34799367 0.015519381 -0.056829065
0.32503498 0.12964499 -0.22389609 0.25917327 -0.21020894 -0.07702258 0.3350854 -0.13891467
-0.07154569 -0.12092954 -0.19716677 0.2725609 0.26179087 0.39991075 -0.19801776 -0.07854143

fc2.weight f4 [2, 128]
00000000: 6357 ac3d 884a 24bc d819 cb3c 1090 3fbc
00000010: 885d 303c 0eb1 1bbd f7a1 993d 76e4 643d
00000020: 002c 0a3d 603f 0dbc 0009 863b 4b97 8dbd
00000030: b0e3 dc3c b5d6 973d 274c 843d 9e02 033d
00000040: 9b3a 9b3d 00a4 8f3b a29b 5b3d ceae 593d
00000050: 81af ad3d 2026 9ebc 4683 dcbc 6d96 92bd
00000060: aa3d 593d 230e 3abd ae7c 05bd 97c3 9a3d
00000070: 6adf 4c3d 8043 113c e19c 26bd a386 37bd
00000080: 3ad2 3d3d f870 14bd 843e bc3c 989c 60bc
00000090: 749b 8f3c 7008 bd3c 74ab 7ebd e065 57bd
000000a0: 6e57 163d b9ee 833d c6da 4b3d 8092 11ba
000000b0: d012 d5bc e059 533b 3ea0 71bd 1797 9d3d
000000c0: 7ee3 623d 4078 a9ba 8986 12bd 6593 8a3d
000000d0: f2be 7f3d 806e fdba e8e6 92bd 20d7 6abb
000000e0: f65b 9bbd e215 80bd 80c3 7dbc d481 95bd
000000f0: 182f 89bc 3836 803c a096 63bb e252 e4bc
00000100: 48f9 b3bc 221b 8dbd 1020 e73b ac42 60bd
00000110: 0df3 853d 56d1 263d eeeb a2bd d80c c9bc
00000120: 86f0 413d 8034 97ba ad26 b4bd c09b 73bb
00000130: e846 0d3c b8c1 503c dc58 bfbc 6833 7dbc
00000140: aa72 efbc 0ff0 9b3d e43e 043d 46ca 743d
00000150: ea95 3e3d a603 39bd 62ec 503d f461 d7bc
00000160: 95e3 b0bd 19b3 a93d d368 60bd 5648 7f3d
00000170: 241f 92bd 8e9c acbd 914d 3cbd 078b 933d
00000180: e0bb acbc e5db 893d 0024 103c 62a8 173d
00000190: 00b2 5d3a ccbd c9bc 166c fbbc 66d3 d8bc
000001a0: 52bc 16bd 6ccd 68bd 42d6 71bd 9a9b 6c3d
000001b0: a04a a83c 5024 59bc 8de7 af3d 0009 f5b9
000001c0: e644 2b3d 18d1 6abc ea62 083d 1260 1b3d
000001d0: 8a49 4abd 5055 37bc b018 bdbc 216e 3ebd
000001e0: dccd 2ebd 503f b43b 3e3d 273d 5e74 373d
000001f0: c013 93bc c49e a5bc dcb2 963c 3c0b 113d
00000200: 004e 1fbc 9cf9 61bd 1964 923d 4d86 53bd
00000210: 193f 9d3d 3802 2d3c 98a7 b1bd f6e7 193d
00000220: 8d71 5abd 6d66 b3bd e016 e2bb c06d 0e3c
00000230: c03c 29bb 779f 54bd 23bc 2abd 7a07 0a3d
00000240: 028b 5ebd d82c 81bd a2a1 b0bd 4874 53bd
00000250: 469d 6c3d 000a 9fbb e74b 39bd 6217 4e3d
00000260: 003b b7ba caa5 b2bd 4577 76bd 9238 233d
00000270: a8e0 52bc c86c 3bbc 98c5 92bc d850 67bc
00000280: fd69 20bd 8d50 a63d 2041 debc bcd3 c93c
00000290: af94 ab3d b87e 13bc 074d 953d 4a4f 60bd
000002a0: b6c5 473d 0050 8ebb 2be1 acbd d030 3dbd
000002b0: f5b3 9ebd 6677 543d 140c 2cbd 8636 173d
000002c0: 0492 b8bc ba77 353d 90f7 863c 4614 8fbd
000002d0: ef0a b13d 00fb a03c 70ee 3b3c 9016 1dbc
000002e0: 628a 3a3d f0b5 0f3d 9227 743d 8475 5ebd
000002f0: 22ca 033d 1086 9f3c fc66 99bc baf4 52bd
00000300: 564a 213d cedc 1ebd c2c3 a2bd 9684 163d
00000310: 1ffa 98bd 6f51 ac3d 2a8b 763d 62c0 583d
00000320: 00a9 b8bb b0b2 b7bb 96bd 503d 5219 743d
00000330: 68ff 6ebd 5e26 4a3d 82e2 f6bc 3504 ae3d
00000340: c9b4 05bd e55c 8e3d 58cf 85bc b0cd 2dbc
00000350: 1682 a7bd 0425 d33c 0e6e 003d bebe 6d3d
00000360: fdfe a83d d0bf 553c 4067 5d3b 511a 9fbd
00000370: e07d 3dbb d8db 51bc 6a62 06bd 68ea 76bd
00000380: 7318 b13d e0ad 913b a7e2 86bd c7be 91bd
00000390: 18c3 6abd a248 573d 40de ba3b 0abc 17bd
000003a0: bbbc 0bbd 80d6 ffbb 72e6 6abd 5519 983d
000003b0: 28c2 563c adf7 3fbd 89fe 98bd 0d44 ac3d
000003c0: da8c 45bd f408 a2bc 2078 d83b 58d0 d13c
000003d0: 7c89 db3c e4cc 21bd ddc0 823d 2372 b03d
000003e0: 51f1 a73d 1464 8e3c 768f 093d 4850 1ebc
000003f0: c056 2e3b 0e8a 513d 9ddb a43d 3e9e 533d
0.08415105 -0.010027535 0.024792597 -0.011692062 0.010764487 -0.03801065 0.075015955 0.05588194
0.033733368 -0.008621067 0.0040904284 -0.069136225 0.026964039 0.07413999 0.064598374 0.031984918
0.075795375 0.004383564 0.05361522 0.053145222 0.0848074 -0.019305289 -0.026918065 -0.07157598
0.053037323 -0.045423638 -0.032589607 0.07556837 0.05001775 0.008866191 -0.040676955 -0.044806134
0.046343066 -0.036240548 0.022979029 -0.01370921 0.01753018 0.023075312 -0.06217523 -0.05258739
0.036704473 0.06442017 0.049769185 -0.0005553141 -0.026009947 0.0032249615 -0.05899071 0.07694834
0.055392735 -0.0012929514 -0.035772834 0.067663945 0.06243796 -0.00193353 -0.07172948 -0.003583379
-0.075858995 -0.06254174 -0.015488505 -0.073001534 -0.016746089 0.015650854 -0.003472723 -0.027871553
-0.021969453 -0.06889941 0.0070533827 -0.054751083 0.06540499 0.040726982 -0.07955156 -0.024542257
0.04734852 -0.0011536032 -0.08796439 -0.0037171692 0.008622862 0.012741499 -0.023357801 -0.015454151
-0.02922948 0.07614147 0.03228654 0.059763215 0.046529688 -0.045169495 0.051006682 -0.026291825
-0.08637158 0.08286113 -0.05478747 0.062324844 -0.07134846 -0.08428298 -0.04597241 0.07204252
-0.02108568 0.06731395 0.008797646 0.037025817 0.0008457005 -0.024626635 -0.030691188 -0.02646799
-0.03680069 -0.05683653 -0.059042223 0.05776558 0.020543396 -0.0132532865 0.08589087 -0.00046736747
0.041813754 -0.014332078 0.033297457 0.037933417 -0.04938654 -0.011189774 -0.023083061 -0.046491746
-0.04267679 0.0055007115 0.04082989 0.04478871 -0.017953753 -0.020217307 0.018395834 0.035411105
-0.0097231865 -0.055169687 0.07147998 -0.05164175 0.076780505 0.010559611 -0.08674544 0.03757473
-0.053330947 -0.087597705 -0.0068996996 0.008693159 -0.0025823563 -0.05190989 -0.041683327 0.033698536
-0.054331787 -0.063073814 -0.08624579 -0.051624566 0.057767175 -0.004853487 -0.0452384 0.05031527
-0.0013979375 -0.08723028 -0.060172338 0.03984887 -0.012870945 -0.01143951 -0.017916486 -0.014118396
-0.03916358 0.081208326 -0.027130663 0.024637096 0.083779685 -0.00900238 0.072900824 -0.054763116
0.048772536 -0.004343033 -0.08441385 -0.04618913 -0.07749168 0.05187168 -0.042003706 0.036917232
-0.022530563 0.044303633 0.016475469 -0.06986289 0.086446635 0.019650936 0.011470422 -0.009587899
0.04554213 0.03508562 0.05960805 -0.05431129 0.03217519 0.019473106 -0.018725865 -0.05150292
0.039377533 -0.038784795 -0.07947494 0.036747538 -0.07469582 0.0841397 0.06019131 0.052917846
-0.0056353807 -0.005606018 0.050962053 0.05959446 -0.058349043 0.049352996 -0.030137304 0.08496896
-0.032643113 0.06951312 -0.01633422 -0.010608122 -0.08179109 0.025774486 0.031354956 0.058043234
0.0825176 0.01304622 0.0033783466 -0.07768691 -0.0028914139 -0.0128087625 -0.0328087 -0.06028214
0.086472414 0.0044457763 -0.06586199 -0.07116466 -0.057314962 0.052559502 0.005702764 -0.037044562
-0.034115534 -0.007807553 -0.057348676 0.07426707 0.013107814 -0.04686706 -0.07470424 0.08411417
-0.04823003 -0.01977966 0.006606117 0.025612041 0.026798956 -0.03950204 0.06384442 0.0861552
0.08200324 0.017381705 0.03358408 -0.009662695 0.0026602 0.05115705 0.080497004 0.051664583

fc2.bias f4 [2]
00000000: 6bc4 983d 622c 213d
0.07459339 0.039348967
