AI/best_model.pth (torch, 7016 bytes, 4 tensors)

fc1.weight f4 [128, 6]
0	0x3eb0f9a6	0.34565467
1	0x3e851a74	0.25996745
2	0xbdb1008c	-0.086426824
3	0xbe84aeb3	-0.25914535
4	0xbe94f050	-0.29089594
5	0xbe481d14	-0.19542342
6	0x3ec85f4a	0.391352
7	0x3e996258	0.29957843
8	0x3e4dbc00	0.20091248
9	0xbdae81ac	-0.08520827
10	0x3ddeb580	0.10874462
11	0xbe3a4799	-0.18191375
12	0xbe501577	-0.20320688
13	0xbd3cef20	-0.046126485
14	0xbe9e8fcc	-0.30969083
15	0xbe8dcb23	-0.27694044
16	0x3dbfa398	0.09357375
17	0xbe6fbcd6	-0.23411879
18	0xbeb69c4f	-0.3566613
19	0xbc82f4a0	-0.015985787
20	0x3de0bdf0	0.10973728
21	0xbe8dc803	-0.2769166
22	0x3ea3be00	0.31980896
23	0x3c5c8e00	0.01346159
24	0xbe9629f0	-0.2932887
25	0xbe2fa0b4	-0.17151147
26	0xbe9d8477	-0.30765125
27	0x3e517494	0.20454627
28	0x3ded2f18	0.11581248
29	0xbe72602e	-0.23669502
30	0x3cb57200	0.022149086
31	0x3e12f298	0.14350355
32	0xbd678658	-0.056524605
33	0x3cb432c0	0.021996856
34	0xbe4285b8	-0.18996322
35	0x3e059458	0.1304487
36	0x3e7d8830	0.24758983
37	0xbeaff8ff	-0.34369656
38	0xbe449ff2	-0.1920164
39	0x3e6dc92c	0.23221272
40	0x3db2489c	0.087052554
41	0x3e9a20f4	0.30103266
42	0xbd85f32c	-0.06540522
43	0xbdbd7e34	-0.09252587
44	0xbd4a4340	-0.04938054
45	0xbe54b5ce	-0.20772478
46	0xbe453ede	-0.19262263
47	0xbdb81814	-0.089889675
48	0xbbbb8440	-0.0057225525
49	0x3e06f0e8	0.13177836
50	0xbebdc12f	-0.3706145
51	0xbea7f778	-0.3280599
52	0x3ec531de	0.38514608
53	0xbe82c654	-0.25541937
54	0xbe1aab9c	-0.15104526
55	0x3bc31ac0	0.0059541166
56	0x3dc83ea8	0.09777576
57	0x3eb680c6	0.3564512
58	0x3e8ce5a6	0.27518958
59	0x3e5e21b8	0.2169255
60	0x3c041a80	0.008062959
61	0x3dbe2148	0.09283692
62	0x3ec740e6	0.389167
63	0x3e9d6dfa	0.30747968
64	0x3eabd3b2	0.33559948
65	0xbe9e4d9a	-0.3091858
66	0x3d510d60	0.051038146
67	0xbe69aaa9	-0.22819008
68	0x3e75b408	0.23994458
69	0xbe2e11d9	-0.16998996
70	0x3e34864c	0.17629355
71	0xbe33946c	-0.17537087
72	0x3dab6000	0.0836792
73	0x3e74a570	0.23891234
74	0xbebc17ed	-0.36737004
75	0xbe86151c	-0.2618798
76	0xbe48031a	-0.19532433
77	0xbe52a5c6	-0.2057105
78	0xbceed690	-0.029155046
79	0x3cb119b0	0.021618694
80	0x3e824a82	0.2544747
81	0xbecc770d	-0.3993458
82	0x3e48a1d8	0.19592988
83	0xbe97b60d	-0.2963108
84	0x3eb7246a	0.3576997
85	0x3b729b80	0.0037018955
86	0x3e09e878	0.13467586
87	0xbcb05aa0	-0.021527588
88	0xbec22668	-0.37919927
89	0xbece6373	-0.4031025
90	0xbe0cadfe	-0.13738248
91	0xbc39d940	-0.0113433
92	0xbe4f7dd3	-0.20262842
93	0xbdf4c96c	-0.11952481
94	0xbece6f38	-0.40319228
95	0x3df2e3f8	0.11859888
96	0xbe75ded8	-0.2401079
97	0xbdaec9d4	-0.085345894
98	0xbdb9aa90	-0.09065735
99	0x3d3ca8d8	0.04605946
100	0x3e8f657a	0.28007108
101	0xbda49e60	-0.0803802
102	0x3d212a18	0.039346784
103	0x3de51ac0	0.11186743
104	0x3d8f6ee0	0.070035696
105	0xbdd74a7c	-0.10512254
106	0xbe8db4b2	-0.27676922
107	0xbe91d247	-0.2848074
108	0x3ec20cb2	0.3790031
109	0x3e3cd8dc	0.184421
110	0xbe41bd79	-0.18919934
111	0x3ea740d8	0.3266666
112	0xbe8f2b11	-0.27962545
113	0x3e5fb3d0	0.21845937
114	0x3e4a8e68	0.19780886
115	0x3e440c10	0.19145226
116	0x3e06f9d0	0.13181233
117	0x3e682a64	0.2267242
118	0x3cb7bf10	0.022429973
119	0x3e635e78	0.22204006
120	0x3ea88a30	0.3291793
121	0x3ecca108	0.39966607
122	0x3d534220	0.051576734
123	0x3cf65550	0.030069977
124	0x3d7d3b38	0.061824054
125	0xbe8b7ede	-0.2724523
126	0x3d9612b8	0.07327789
127	0x3e86c752	0.26323944
128	0xbe735e09	-0.2376634
129	0xbcd66030	-0.026168913
130	0x3e466fc4	0.19378573
131	0xbe286574	-0.16444951
132	0x3da5e1c4	0.08099702
133	0x3da75064	0.0816963
134	0x3e7b2358	0.24525201
135	0xbe65c7b5	-0.22439463
136	0x3ead74e4	0.33878243
137	0x3cfb7030	0.030693144
138	0xbeb95508	-0.36197686
139	0xbdb754a8	-0.08951694
140	0xbec32d58	-0.38120532
141	0x3ccc8450	0.024965435
142	0xbecb6f75	-0.39733472
143	0xbe0e6150	-0.1390431
144	0x3e14b948	0.14523804
145	0x3ec4d50a	0.38443786
146	0xbeb05696	-0.3444106
147	0xbdef3244	-0.11679509
148	0x3e9c724c	0.30555952
149	0xbe33f299	-0.17573012
150	0xbe8d47fa	-0.27593976
151	0xbe8b2516	-0.27176732
152	0xbe9f4c2e	-0.31112808
153	0xbead3ed7	-0.33837005
154	0xbd84a1f4	-0.064762026
155	0xbcdeabd0	-0.027181536
156	0xbdd233d4	-0.10263792
157	0x3ec7738a	0.38955337
158	0xbe32011c	-0.17383236
159	0xbec710f4	-0.38880122
160	0x3e6b4d8c	0.229788
161	0xbec2b010	-0.3802495
162	0xbd1843e8	-0.037174135
163	0xbcfab670	-0.030604571
164	0x3dc8b808	0.09800726
165	0x3ec558f8	0.3854444
166	0xbd7fc828	-0.062446743
167	0x3e7e1498	0.24812543
168	0x3e344fe8	0.17608607
169	0x3d68c708	0.056830436
170	0xbe3e5b67	-0.18589555
171	0xbde12834	-0.10993996
172	0xbed0752a	-0.4071439
173	0x3e4f0fec	0.20220917
174	0xbdbf1ad0	-0.09331286
175	0x3e0df6ec	0.13863724
176	0xbdf6fa0c	-0.120594114
177	0xbe8b4fd2	-0.27209336
178	0x3e543d74	0.20726568
179	0xbdecca30	-0.11562002
180	0x3e39d6b8	0.18148315
181	0xbe98ec69	-0.29867867
182	0x3e29ba48	0.16574967
183	0xbd3a57c0	-0.04549384
184	0x3e6a27a4	0.22866684
185	0xbe5f7147	-0.21820556
186	0xbe677de3	-0.22606616
187	0xbe0f0d08	-0.13969815
188	0x3e0bbb84	0.1364575
189	0xbe563765	-0.20919569
190	0x3e16a2e4	0.14710575
191	0xbec2ea35	-0.3806931
192	0xbe26cf04	-0.16289908
193	0xbddd2db8	-0.10799736
194	0xbe822262	-0.25416857
195	0x3eac9112	0.3370443
196	0x3eabb828	0.33538938
197	0xbe32e71b	-0.17470972
198	0x3ec27b2e	0.37984604
199	0xbe89ba7e	-0.26900095
200	0xbeafbbe4	-0.34323037
201	0x3eba5c9e	0.36398786
202	0x3eb1c79c	0.34722602
203	0xbe130d98	-0.14360654
204	0xbea784bc	-0.32718456
205	0x3e60c3d8	0.21949708
206	0xbeb6c3f1	-0.35696366
207	0xbe89dfeb	-0.26928648
208	0xbeb03d77	-0.34421894
209	0x3d21c450	0.03949386
210	0x3ec78648	0.38969636
211	0xbea2fbf4	-0.3183285
212	0x3e0cd2c8	0.13752282
213	0x3e524e78	0.20537746
214	0x3dc08ac8	0.094014704
215	0xbe99b706	-0.30022448
216	0xbe8b9e9e	-0.27269453
217	0xbe7abebe	-0.24486825
218	0x3cbde9c0	0.02318275
219	0x3b518480	0.0031969845
220	0xbe913c8d	-0.2836651
221	0xbe11dcb0	-0.14244342
222	0xbe6f8ffb	-0.23394768
223	0xbe4f58b6	-0.20248684
224	0xbec5c5a2	-0.38627344
225	0xbd5bc360	-0.05365312
226	0xbec8bfd6	-0.3920886
227	0xbe6be952	-0.23038223
228	0xbe87c3e0	-0.26516628
229	0x3c217f40	0.009856999
230	0x3eb84f14	0.35997832
231	0xbe7252d6	-0.23664412
232	0x3dbdfa00	0.09276199
233	0x3e5aa6d8	0.21352708
234	0x3dcecd98	0.10097808
235	0x3df94398	0.121710956
236	0xbe9a972d	-0.30193463
237	0xbe41e942	-0.18936637
238	0xbea3fe44	-0.32029927
239	0xbe3b5bce	-0.1829674
240	0xbea98872	-0.33111912
241	0x3cbbe520	0.022936404
242	0xbdaf3784	-0.08555511
243	0xbd1b90f8	-0.03798005
244	0x3d5b38b8	0.053520888
245	0xbec31eb8	-0.38109374
246	0xbe0c7274	-0.13715535
247	0x3e85ab52	0.2610727
248	0xbe8f64c8	-0.28006577
249	0xbe99c962	-0.30036455
250	0x3cb699f0	0.0222902
251	0x3ea2c846	0.31793422
252	0x3dc3a3a8	0.09552699
253	0xbe9fbba0	-0.31197834
254	0xbeb8898b	-0.36042437
255	0x3e1ffe44	0.15624338

fc1.bias f4 [128]
0	0xbd045170	-0.032304227
1	0x3ddd2f98	0.108000934
2	0xbe2838d7	-0.16427933
3	0x3e459f3c	0.19299024
4	0xbeb12dd2	-0.3460527
5	0xbec344a9	-0.3813832
6	0xbe54d8b9	-0.20785798
7	0x3cc4a9e0	0.024006784
8	0x3e9d6e60	0.30748272
9	0xbdcde840	-0.10054064
10	0x3e2832d0	0.16425633
11	0x3e5a5cf8	0.21324527
12	0xbea492e2	-0.32143313
13	0xbe834374	-0.256374
14	0x3d21bd38	0.039487094
15	0x3e8398d4	0.25702536
16	0xbec740e7	-0.38916704
17	0xbe0388ae	-0.12845108
18	0xbc056580	-0.008141875
19	0x3d975684	0.073895484
20	0x3d9255d4	0.07145277
21	0x3dface38	0.12246364
22	0xbd3b40f0	-0.045716226
23	0x3d596f78	0.05308482
24	0x3e39bdcc	0.18138808
25	0x3e947478	0.2899511
26	0xbde74b50	-0.112936616
27	0x3ebeb854	0.37250006
28	0xbe7305e1	-0.23732711
29	0x3d3aa790	0.045569956
30	0xbe9004a3	-0.28128538
31	0x3dbf41e8	0.093387425
32	0xbe7b2de7	-0.24529229
33	0x3e48bb5c	0.19602722
34	0xbebd40bc	-0.3696345
35	0xbebdd876	-0.3707921
36	0xbe6967a8	-0.22793448
37	0xbd8b2538	-0.06794208
38	0x3de41030	0.111359
39	0x3ec8d7b4	0.39227068
40	0xbcf4e3c0	-0.029893756
41	0x3e60fc54	0.21971256
42	0x3dfbe940	0.12300348
43	0xbd4049a0	-0.046945214
44	0x3e6aa7f8	0.22915637
45	0xbe67f930	-0.22653651
46	0xbc7ede40	-0.015555918
47	0x3e4f0ac0	0.20218945
48	0x3e9098e4	0.28241646
49	0x3ea73a3c	0.32661617
50	0xbea3eff2	-0.32019
51	0xbd7289f8	-0.05921361
52	0x3ddeb0a8	0.10873538
53	0x3ddba770	0.107252955
54	0x3da776e0	0.081769705
55	0x3e97ebd6	0.29672116
56	0x3d2f7cc8	0.04284361
57	0x3eae1a7e	0.34004587
58	0x3ec7e248	0.39039826
59	0xbe039b10	-0.1285212
60	0xbe4aadc5	-0.1979285
61	0xbeb7d124	-0.3590175
62	0x3eb1b44a	0.34707862
63	0x3e81868c	0.25297964
64	0x3e7e7af0	0.24851584
65	0xbea017ba	-0.31268102
66	0xbe99bfc3	-0.30029115
67	0xbe60f181	-0.21967126
68	0x3c1f5ba0	0.009726435
69	0xbe004bc8	-0.12528908
70	0x3e95197c	0.29121006
71	0x3e376780	0.17910576
72	0x3eca7722	0.39544016
73	0x3d190250	0.03735572
74	0xbdee21fc	-0.11627576
75	0x3ded8ef0	0.11599529
76	0x3ec0b3b2	0.37637097
77	0xbeb3b999	-0.35102537
78	0xbd8f151c	-0.06986448
79	0x3e81beaa	0.25340778
80	0xbe3501a3	-0.17676406
81	0x3eba2246	0.36354274
82	0x3d9cb8d0	0.07652438
83	0x3e466624	0.19374901
84	0x3e79a4e0	0.24379301
85	0xbe048294	-0.12940437
86	0x3e8a7220	0.27040195
87	0xbd231998	-0.03981933
88	0xbdfd6580	-0.12372875
89	0x3cd27480	0.025690317
90	0x3e548c94	0.20756751
91	0xbe4c4caa	-0.1995112
92	0x3e763260	0.24042654
93	0x3eb9c592	0.36283547
94	0x3ce45650	0.027873188
95	0xbe670d32	-0.22563627
96	0xbe936728	-0.2878964
97	0x3d6e1bd0	0.058131993
98	0xbead1580	-0.33805466
99	0xbd6e6a58	-0.058206886
100	0x3e26c36c	0.16285485
101	0x3e1e7db0	0.15477633
102	0x3e52a73c	0.20571607
103	0x3e9b7e2a	0.30369693
104	0xbe47c7d8	-0.19509828
105	0xbe52ca53	-0.20584993
106	0xbe57f9b8	-0.21091354
107	0x3e7fe508	0.24989712
108	0xbd9b2724	-0.07575825
109	0xbe95da5e	-0.29268163
110	0xbeb0c13e	-0.34522432
111	0xbdfc16cc	-0.12309036
112	0x3ecae144	0.3962499
113	0x3eb44fb8	0.3521707
114	0xbeadfccf	-0.3398194
115	0xbed0a0e8	-0.40747762
116	0x3ed05714	0.40691435
117	0xbe430637	-0.1904534
118	0xbe22ad14	-0.15886337
119	0x3e982aac	0.29720056
120	0x3e524d7c	0.2053737
121	0x3d653d48	0.055966645
122	0xbd6324b0	-0.05545491
123	0x3c0d78c0	0.008634746
124	0xbe434f03	-0.1907311
125	0x3d007a28	0.031366497
126	0x3e055ab8	0.13022888
127	0x3ec6e1d6	0.38844174

fc2.weight f4 [2, 128]
0	0x3d886031	0.06658972
1	0xbdad192c	-0.08452067
2	0xbc12dae0	-0.008963317
3	0xbd8d38df	-0.06895613
4	0xbd692153	-0.056916546
5	0x3c1f7f38	0.009734921
6	0x3d31211e	0.043244474
7	0xbd522daa	-0.05131308
8	0xbd48037b	-0.048831444
9	0xbc5c78b0	-0.0134565085
10	0x3d82f1f9	0.06393809
11	0xbcb59e8c	-0.022170328
12	0xbd236163	-0.039887797
13	0xbd1ec5d5	-0.038762886
14	0x3c203c78	0.009780042
15	0x3d27e79a	0.040992357
16	0xbd5d0444	-0.053959146
17	0xbc6f0a70	-0.014589891
18	0xbc8ffbdc	-0.01757615
19	0x3d88da4d	0.066822626
20	0x3cdc4bc4	0.026891597
21	0xbd48c17e	-0.049012654
22	0x3aa56140	0.0012617484
23	0x3c6fa180	0.014625907
24	0x3d674f26	0.056471966
25	0xbd8860ec	-0.066591114
26	0x3d3277ba	0.04357121
27	0x3d322982	0.043496616
28	0x3cd678ec	0.026180707
29	0x3c908834	0.017643072
30	0xbd590f7d	-0.052993286
31	0x3d5d51e2	0.054033168
32	0xbd520c85	-0.05128147
33	0xbd756e45	-0.059919614
34	0x3c9a524c	0.01883807
35	0xbd060b76	-0.032725774
36	0xbcec6a4e	-0.028859284
37	0xbd221180	-0.03956747
38	0xbd4e5bc5	-0.050380487
39	0x3cc77cc0	0.024351478
40	0xbc2a1668	-0.010381319
41	0x3db38f03	0.08767512
42	0x3ca14c74	0.019689776
43	0x3c18a170	0.009315833
44	0xbda41223	-0.08011272
45	0x3c15a3f0	0.009133324
46	0xbd68ab9a	-0.056804277
47	0x3c0cdcd0	0.008597568
48	0xbc2f64d8	-0.010705195
49	0xbd66a288	-0.056307346
50	0x3cd6add8	0.026205942
51	0x3d3f815a	0.04675422
52	0x3c949a3c	0.01813995
53	0x3d181d6a	0.037137426
54	0xbca8b8c0	-0.020595908
55	0x3d09f020	0.033676267
56	0x3d13ebec	0.036113665
57	0xbd78a6ca	-0.060705937
58	0x3d4b6cb2	0.049664207
59	0xbda0c0a2	-0.07849242
60	0xbcf4af58	-0.029868767
61	0x3d187186	0.03721764
62	0xbda88bca	-0.08229788
63	0x3d3db93e	0.04631924
64	0x3d22c1be	0.03973555
65	0x3d4941a6	0.049134873
66	0x3d7a21d6	0.061067425
67	0xbce7e750	-0.02830854
68	0x3ca47074	0.020073153
69	0x3d8e916d	0.069613315
70	0x3d60cc3e	0.05488228
71	0x3daf7565	0.08567313
72	0xbc309ba0	-0.010779291
73	0x3dab53f5	0.08365623
74	0xbc5e0190	-0.013550177
75	0xbdade7b8	-0.084914625
76	0xbd736bc0	-0.05942893
77	0xbd309e43	-0.04311968
78	0x3d5d254e	0.053990655
79	0x3c475360	0.012165874
80	0xbce21544	-0.02759803
81	0x3cf95490	0.03043583
82	0xbd3c4353	-0.045962643
83	0xbd7c7074	-0.06163068
84	0xbd9c5171	-0.07632721
85	0x3d3b6ea6	0.04575982
86	0xba509180	-0.00079562515
87	0x3d5bb91a	0.053643323
88	0xbd883d1c	-0.06652281
89	0x3dab9c67	0.08379441
90	0xbb838a60	-0.0040142983
91	0x3d578846	0.052620195
92	0x3d8d3207	0.068943076
93	0x3d0cefc2	0.03440834
94	0xbc9e4340	-0.019319177
95	0xbd56129f	-0.052263852
96	0x3d402b56	0.04691633
97	0xbcee8b00	-0.029119015
98	0xbd5aa775	-0.053382356
99	0x3d4866be	0.048926108
100	0xbc83ec14	-0.016103782
101	0xbd1589c4	-0.036508337
102	0x3d8383cd	0.064216234
103	0x3d8a40e3	0.067506574
104	0x3cafe0b8	0.021469459
105	0x3d1aac0a	0.037761725
106	0xbbea82a0	-0.007156685
107	0xbb8f3ea0	-0.004371479
108	0x3d18b78a	0.03728441
109	0x3d8adeaf	0.06780755
110	0xbbf175f0	-0.0073687956
111	0x3c6d76d8	0.014493667
112	0x3d995ac9	0.07488019
113	0x3dac6d41	0.08419276
114	0xbd14cff9	-0.03633115
115	0x3cc5876c	0.024112426
116	0x3cb594e4	0.022165723
117	0xbd1a3c83	-0.037655365
118	0xbd48be00	-0.049009323
119	0xbaec06c0	-0.0018007383
120	0x3d5d1842	0.053978212
121	0x3c5cf698	0.013486527
122	0x3c7e4c80	0.015521169
123	0xbd0ddf1a	-0.034636594
124	0x3d274752	0.0408395
125	0xbd2ee055	-0.04269441
126	0x3a2d6100	0.00066138804
127	0xbd4af147	-0.049546506
128	0xbd3e28cf	-0.046425637
129	0x3d03107c	0.031998143
130	0x3c397a58	0.011320673
131	0xbd5f72c8	-0.054552823
132	0x3af748c0	0.0018866286
133	0xbc845c84	-0.016157396
134	0x3db3ed9b	0.08785554
135	0x3c3a6870	0.011377439
136	0x3d7eeff6	0.062240563
137	0xbd48b4b3	-0.049000453
138	0x3d679fce	0.056548886
139	0xbd9dab64	-0.07698706
140	0x3d800bb3	0.062522314
141	0xbd913f1e	-0.07092117
142	0xbd75fdd6	-0.06005653
143	0xbda66df9	-0.08126444
144	0xbc8cd6e8	-0.017192319
145	0xbd253dd5	-0.04034217
146	0xbd04a098	-0.032379717
147	0xbd784dc8	-0.060621053
148	0x3d93a1a9	0.072085686
149	0x3c33fe58	0.010985933
150	0xbd26294a	-0.04056672
151	0xbd53605f	-0.05160558
152	0xbc1b2710	-0.009469762
153	0xbd24476e	-0.040107183
154	0x3d8c864b	0.06861552
155	0xbc6aaa68	-0.014322855
156	0x3c74d1a8	0.014942564
157	0x3d74d74e	0.059775643
158	0x3d58250e	0.052769713
159	0xbd44d739	-0.048056815
160	0xbd843e58	-0.064572036
161	0xbd6ce585	-0.057836074
162	0x3d769d8a	0.060208835
163	0xbd27872a	-0.040900387
164	0xbda032a5	-0.0782216
165	0x3d888045	0.066650905
166	0xbb4c5b40	-0.003118232
167	0xbd274649	-0.040838514
168	0xbcf5147a	-0.02991699
169	0xbd6139eb	-0.054986876
170	0x3d42e84a	0.04758481
171	0xbc8d4d88	-0.017248884
172	0x3da073ab	0.07834562
173	0xbbba2cf0	-0.0056816265
174	0xbcf65356	-0.030069035
175	0x3cd8efd4	0.026481546
176	0x3da59283	0.080845855
177	0xbcb27c7c	-0.021787874
178	0xbd3bf8d9	-0.045891616
179	0x3c4c20f8	0.012459032
180	0x3c9bf82c	0.019039236
181	0x3be37f60	0.0069426745
182	0x3ce4643c	0.027879827
183	0xbd1c3349	-0.038134847
184	0x3cd006e4	0.02539391
185	0x3da565b1	0.08076037
186	0x3d973467	0.07383042
187	0x3d9ed5ff	0.0775566
188	0xbbaffbb0	-0.0053705797
189	0xbc8200cc	-0.01586952
190	0x3da727b1	0.081618674
191	0xbd9333cf	-0.07187616
192	0xbd8940f5	-0.06701843
193	0x3c7c9cd8	0.015418254
194	0x3d7bbb82	0.06145812
195	0xbd8796d6	-0.066205665
196	0xbbb5d290	-0.0055487826
197	0xbd73918f	-0.059464987
198	0xbd10a455	-0.03531297
199	0x3cc31b04	0.023816593
200	0xbd358210	-0.04431349
201	0x3c5f4b88	0.013628848
202	0x3d00a920	0.03141129
203	0xbc4559f0	-0.012045369
204	0x3d5748ce	0.052559666
205	0x3d0736d2	0.033011265
206	0x3d7e1b0a	0.062037505
207	0x3d266f9a	0.040633775
208	0x3da4b01d	0.080414034
209	0xbd0f9f4f	-0.035064038
210	0xbc290ec0	-0.010318458
211	0x3cbfeb70	0.023427695
212	0x3bb06fe0	0.0053844303
213	0xbd62a455	-0.0553325
214	0x3cd09a80	0.025464296
215	0xbd904d91	-0.070460446
216	0xbc5dc230	-0.013535067
217	0xbd81ca8d	-0.063374616
218	0x3b846a10	0.004040964
219	0xbd1302d7	-0.03589138
220	0x3c8ef8cc	0.01745262
221	0x39a29d00	0.00031016022
222	0xbd8c3a97	-0.068471126
223	0x3d4ff9fe	0.05077552
224	0x3d191ce2	0.03738106
225	0xbd9b2430	-0.075752616
226	0x3cba64f0	0.022753209
227	0xbd05d835	-0.032676894
228	0x3da3b6af	0.079938285
229	0x3caec1fc	0.021332733
230	0xbc356638	-0.011071734
231	0xbd6015f6	-0.054708444
232	0xbc44a438	-0.012002043
233	0x3b9bd2e0	0.004755363
234	0xbd01b1b1	-0.0316636
235	0xbd84bb26	-0.06481008
236	0xbd6ad522	-0.057332166
237	0x3da6f7d7	0.081527404
238	0xbd416415	-0.047214586
239	0xbc0c2518	-0.008553766
240	0x3c2986b0	0.010347053
241	0x3c703110	0.014660135
242	0xbd558d4f	-0.052136716
243	0x3c74c380	0.014939189
244	0x3d9cc0f7	0.076539926
245	0xbd8ab4bb	-0.06772753
246	0x3d6067b6	0.054786406
247	0xbd6c3acf	-0.05767327
248	0x3d1404f0	0.03613752
249	0x3be5c5c0	0.007012099
250	0xbd324eb1	-0.043532077
251	0x3d9f2b37	0.077719145
252	0xbc566528	-0.013085641
253	0xbc877e80	-0.016539812
254	0xbc5d5088	-0.01350797
255	0xbc577e68	-0.013152696

fc2.bias f4 [2]
0	0xbcad6590	-0.021166593
1	0x3d9dd633	0.07706871
