AI/best_model.pth (torch, 3494 bytes, 8 tensors)

hidden_layers.0.weight f4 [6, 6]
0	0x3e82a37c	0.25515354
1	0x3dd66800	0.10469055
2	0xbd834fc8	-0.064117014
3	0x3e83e386	0.25759524
4	0x3e846880	0.25860977
5	0xbec6310c	-0.38709295
6	0xbc3c3360	-0.011486858
7	0x3c84bfb0	0.016204685
8	0xbe96d949	-0.2946265
9	0xbe9f8983	-0.311596
10	0x3e89c1b0	0.26905584
11	0xbe9bc6c4	-0.30425084
12	0xbebe5b31	-0.3717895
13	0xbe3ed0ac	-0.1863429
14	0x3e5676b8	0.20943725
15	0x3df669d0	0.12031901
16	0xbe5e2774	-0.21694738
17	0x3e4ad178	0.19806468
18	0x3ea1b07c	0.3157996
19	0x3d664e90	0.056227267
20	0x3ecc9b86	0.39962405
21	0x3e6f5560	0.23372412
22	0xbeb8fba1	-0.36129478
23	0x3cf44790	0.02981928
24	0x3d225130	0.039628208
25	0xbc3371e0	-0.010952443
26	0x3d17af40	0.037032366
27	0x3e035cb0	0.12828326
28	0xbdbd9e7c	-0.09258744
29	0xbec61d46	-0.3869421
30	0xbe2cb95c	-0.16867584
31	0x3ec3e2b0	0.38258886
32	0x3ec95818	0.39325023
33	0xbeb2f9d6	-0.34956235
34	0xbeae96d8	-0.3409946
35	0x3dab8a68	0.08376008

hidden_layers.0.bias f4 [6]
0	0x3dc9eb10	0.09859288
1	0x3ecfcee4	0.40587533
2	0x3dd39170	0.103304744
3	0x3e8fe1c2	0.28101927
4	0x3d0833b8	0.033252448
5	0x3eb6dcc4	0.35715306

hidden_layers.1.weight f4 [6, 6]
0	0xbebdef58	-0.37096667
1	0x3d951ca0	0.072808504
2	0x3e1cd5e0	0.15315962
3	0x3e51ae2c	0.20476598
4	0xbc2b2a20	-0.010447055
5	0x3eb2aad8	0.34895968
6	0x3d8b9b5c	0.06816742
7	0x3e070264	0.13184506
8	0xbe8350f8	-0.25647712
9	0xbeb683d2	-0.35647446
10	0x3c5786c0	0.0131546855
11	0x3e25e79c	0.16201633
12	0x3e9a2696	0.30107564
13	0x3ddd58c0	0.10807943
14	0xbddf24b4	-0.108956724
15	0x3ecfa188	0.40552926
16	0xbe9fd2ac	-0.31215417
17	0x3ddb5a20	0.10710549
18	0x3e64a334	0.22327882
19	0x3e876f04	0.26451886
20	0xbdff2ff8	-0.12460321
21	0xbe166f4c	-0.14690894
22	0x3e839266	0.2569763
23	0xbe955c42	-0.2917195
24	0x3ebf05f2	0.37309223
25	0xbdc6a9e4	-0.09700373
26	0xbd7095a8	-0.058736473
27	0x3e0eb5b0	0.13936496
28	0x3ec616c6	0.3868925
29	0xbe7adf40	-0.24499226
30	0xbcfe79b0	-0.031063884
31	0xbead11a7	-0.3380253
32	0x3e09283c	0.13394254
33	0x3e6a2a44	0.22867686
34	0x3e748e64	0.23882443
35	0xbd74c320	-0.0597564

hidden_layers.1.bias f4 [6]
0	0xbda1d27c	-0.07901475
1	0xbe781934	-0.24228364
2	0xbe0e11c6	-0.13873968
3	0x3d92d374	0.07169238
4	0x3eb3bac6	0.35103434
5	0xbe1f9354	-0.15583545

output_layer.weight f4 [2, 6]
0	0xbdeedcb4	-0.116631895
1	0x3ebc34d8	0.36759067
2	0x3e7acc60	0.24492025
3	0xbecf22d8	-0.4045627
4	0x3e8cada6	0.27476233
5	0x3c449fa0	0.012000948
6	0xbd9b1ecc	-0.075742334
7	0xbdddd478	-0.10831541
8	0x3d7e56d8	0.06209454
9	0x3e3edd2c	0.18639058
10	0x3eca5674	0.39519083
11	0x3d489048	0.048965722

output_layer.bias f4 [2]
0	0x3e9344cc	0.28763425
1	0xbd8cf4ec	-0.06882653

fc1.weight f4 [6, 6]
0	0x3e82a37c	0.25515354
1	0x3dd66800	0.10469055
2	0xbd834fc8	-0.064117014
3	0x3e83e386	0.25759524
4	0x3e846880	0.25860977
5	0xbec6310c	-0.38709295
6	0xbc3c3360	-0.011486858
7	0x3c84bfb0	0.016204685
8	0xbe96d949	-0.2946265
9	0xbe9f8983	-0.311596
10	0x3e89c1b0	0.26905584
11	0xbe9bc6c4	-0.30425084
12	0xbebe5b31	-0.3717895
13	0xbe3ed0ac	-0.1863429
14	0x3e5676b8	0.20943725
15	0x3df669d0	0.12031901
16	0xbe5e2774	-0.21694738
17	0x3e4ad178	0.19806468
18	0x3ea1b07c	0.3157996
19	0x3d664e90	0.056227267
20	0x3ecc9b86	0.39962405
21	0x3e6f5560	0.23372412
22	0xbeb8fba1	-0.36129478
23	0x3cf44790	0.02981928
24	0x3d225130	0.039628208
25	0xbc3371e0	-0.010952443
26	0x3d17af40	0.037032366
27	0x3e035cb0	0.12828326
28	0xbdbd9e7c	-0.09258744
29	0xbec61d46	-0.3869421
30	0xbe2cb95c	-0.16867584
31	0x3ec3e2b0	0.38258886
32	0x3ec95818	0.39325023
33	0xbeb2f9d6	-0.34956235
34	0xbeae96d8	-0.3409946
35	0x3dab8a68	0.08376008

fc1.bias f4 [6]
0	0x3dc9eb10	0.09859288
1	0x3ecfcee4	0.40587533
2	0x3dd39170	0.103304744
3	0x3e8fe1c2	0.28101927
4	0x3d0833b8	0.033252448
5	0x3eb6dcc4	0.35715306
